models/kinase_baseModel_TYK2_Model3.pkl (torch, 903019 bytes, 25 tensors)

bias f4 [256]
0	0xbab9a121	-0.00141624
1	0x3ca3d324	0.01999814
2	0xbb8e216d	-0.0043374808
3	0xbc291852	-0.01032074
4	0x3c399152	0.011326151
5	0x3bbaf33a	0.0057052644
6	0xbc98375c	-0.018581085
7	0x3cd025a2	0.02540857
8	0x3d63ce0b	0.05561642
9	0xbcfd4320	-0.030915797
10	0xbca05d98	-0.019575879
11	0x3d3dcbc6	0.04633691
12	0x3c862b38	0.01637803
13	0x3affbd2c	0.0019511334
14	0x3c8a8d65	0.016913125
15	0x3a189d98	0.0005821823
16	0xbc7be00b	-0.01537324
17	0xbc21d42e	-0.009877248
18	0xbc118498	-0.0088817105
19	0x3855c9cf	5.0971106e-05
20	0xbbfb680d	-0.007672316
21	0xbc26c67c	-0.010179158
22	0x3c51bd05	0.012801413
23	0xbb53a466	-0.0032294034
24	0xbc3c1879	-0.011480444
25	0x3c58e62b	0.01323847
26	0xbbdb4796	-0.0066918833
27	0xbc94b450	-0.018152386
28	0xbc346a9a	-0.011011744
29	0x3b308d8c	0.0026939837
30	0xbbf6e1e8	-0.0075342543
31	0xbc4cf260	-0.012508959
32	0x3d13338a	0.035937823
33	0x3becc7a0	0.0072259456
34	0x3cd8ab09	0.026448743
35	0x3b0ccec1	0.002148554
36	0xbcda8083	-0.026672607
37	0x3a96fb0b	0.0011518908
38	0xbca89a14	-0.020581283
39	0xbbfe2256	-0.007755558
40	0x3ca7835b	0.020448377
41	0xbc46dd4c	-0.012137722
42	0x3c27f21e	0.010250596
43	0xbcbbd44b	-0.022928378
44	0x3d771f3a	0.060332514
45	0x3bcf9de3	0.0063359602
46	0x3c6c2118	0.014412187
47	0xbc12b332	-0.008953856
48	0xbc27f02d	-0.010250133
49	0xbd24f98f	-0.04027706
50	0xbd375881	-0.04476214
51	0xbc172cea	-0.009227017
52	0x3c5c6a5e	0.013453094
53	0x3c161ac3	0.009161654
54	0x3d2a3af5	0.041560132
55	0x3bce56f3	0.0062969862
56	0x3d41c399	0.047305677
57	0xbd7bb34c	-0.061450288
58	0xba67f694	-0.00088486937
59	0xba851e50	-0.0010156129
60	0xbb90272c	-0.004399201
61	0xbc93bede	-0.018035349
62	0x3c8f833a	0.017518628
63	0x3c560d9d	0.013064769
64	0x3c1f0b1a	0.009707237
65	0xbd704f7b	-0.05866955
66	0xbc076057	-0.008262715
67	0xbd0f536b	-0.034991663
68	0xbca3f624	-0.02001483
69	0x3c44a8f9	0.012003177
70	0x3d3bc157	0.04583868
71	0xbbb33dd3	-0.0054700165
72	0xbd41fb79	-0.047358964
73	0x3c907a01	0.017636301
74	0x3c854dc8	0.01627244
75	0x3bcfd226	0.0063421903
76	0x3ab29f9f	0.0013627893
77	0xbd3d06c4	-0.04614903
78	0x3cd2f0da	0.025749613
79	0x3da9a917	0.082842045
80	0x3c2a82df	0.010407179
81	0x3ca75239	0.020424949
82	0x3dbb2560	0.09137988
83	0xbc1f6e65	-0.00973091
84	0xbcc04f1a	-0.023475219
85	0x3cc43376	0.02395032
86	0xbc6bbbd0	-0.01438804
87	0x3bdd07c1	0.006745309
88	0xbccc80e3	-0.024963802
89	0x3b95fa82	0.004576982
90	0xbc7c0890	-0.015382901
91	0x3b7129b4	0.0036798539
92	0x3bc0e651	0.005886831
93	0xbbedea35	-0.0072605857
94	0xbd85dac4	-0.06535867
95	0x3d106903	0.035256397
96	0xbc214171	-0.009842263
97	0x3b032b2a	0.0020014741
98	0xbd0b1c5a	-0.033962585
99	0x3ca44263	0.020051187
100	0xb9a4786f	-0.00031370248
101	0xbc76ad0c	-0.015055906
102	0x3d41c3c1	0.047305826
103	0x3a9d0f8b	0.0011982782
104	0x3bd2313f	0.006414562
105	0x3d80ab67	0.062826924
106	0xbd3bc7c6	-0.045844816
107	0xbca98a61	-0.020695867
108	0xbc360c0b	-0.01111127
109	0xbbb9c4dc	-0.0056692194
110	0xba91e71c	-0.0011131498
111	0xbcbb5361	-0.022866907
112	0x3cf9727a	0.030450094
113	0xbd97753b	-0.07395407
114	0x3b83695a	0.0040103616
115	0x3ce025ca	0.02736177
116	0x3cffafe2	0.031211797
117	0xbcdd695f	-0.027027784
118	0xba0cccec	-0.0005371112
119	0xbccd2a34	-0.025044538
120	0x3c22a2af	0.009926482
121	0x3ba93546	0.0051638214
122	0x3b12d9ff	0.0022407768
123	0x3aeb4e1b	0.0017952354
124	0x3b23e5ae	0.0025008726
125	0xbb709d4c	-0.003671485
126	0x3c16e520	0.009209901
127	0x3d0e0609	0.034673724
128	0xbc760676	-0.015016189
129	0xbc819fe3	-0.01582331
130	0xbc9e4f9b	-0.019325068
131	0xbbd263f5	-0.006420607
132	0x3d7e15d4	0.062032536
133	0x3be4fabb	0.006987897
134	0x3c8f92b2	0.017526004
135	0xbbaec4c9	-0.005333517
136	0x3c6af2e3	0.014340135
137	0xbabf1499	-0.0014578282
138	0xbb776a96	-0.003775274
139	0xbbf6753e	-0.0075213006
140	0x3c6fdb16	0.0146396365
141	0x3b33a262	0.002741002
142	0x3c44d1e8	0.012012936
143	0xbcdc591f	-0.026897965
144	0xbc0f597b	-0.008749361
145	0x3c44a90e	0.012003196
146	0x3b88e765	0.004177975
147	0x3bd97ddd	0.0066373185
148	0xbb871d79	-0.0041233865
149	0xbc894608	-0.016757026
150	0x3c77a001	0.0151138315
151	0x3c53920e	0.01291324
152	0xbcda7dbc	-0.026671283
153	0x3b0f0138	0.0021820795
154	0x3afdccfd	0.001936346
155	0x3c987f7d	0.018615479
156	0xbd0d6adc	-0.034525737
157	0xbc85f3ec	-0.016351663
158	0xbc819c39	-0.015821563
159	0x3bb29505	0.0054498934
160	0xbcbc5eb7	-0.022994382
161	0x3bba7f93	0.0056914776
162	0xbc660888	-0.01404012
163	0xbc32c148	-0.01091034
164	0x3bbe9859	0.005816501
165	0xbbc271c8	-0.005933974
166	0x3b0fad01	0.0021923187
167	0x3d074432	0.03302402
168	0x3b7d4c59	0.0038650243
169	0x3cf04c1e	0.02933317
170	0xbd1a4796	-0.037665926
171	0x3b0896c2	0.0020841812
172	0x3c02a3f3	0.007973659
173	0x3b5095cb	0.0031827565
174	0x3c02cab2	0.007982897
175	0x3d2185e4	0.03943433
176	0xbc694c9b	-0.014239456
177	0x3c8f3b6d	0.017484391
178	0x3c8148f5	0.015781859
179	0xbc9345e8	-0.01797767
180	0x3c937cc7	0.018003834
181	0xbc504948	-0.012712784
182	0xbd031acd	-0.03200798
183	0x3cc30e4f	0.023810534
184	0xbc42a600	-0.011880398
185	0xb984c39e	-0.00025322748
186	0xb6d8f3f9	-6.465704e-06
187	0xbd0d9613	-0.03456695
188	0xbc79197a	-0.015203828
189	0xbb8f9c5c	-0.004382653
190	0xb9c39d21	-0.00037310368
191	0x3c7e4ac6	0.015520757
192	0x3d213440	0.03935647
193	0xbbdec000	-0.0067977905
194	0xbd17f0d8	-0.03709492
195	0xbd32d61a	-0.043661214
196	0xbb1bc054	-0.002376576
197	0xbb72573f	-0.0036978272
198	0xbbcaa7d0	-0.0061845556
199	0x3d5df506	0.05418875
200	0xbc74d592	-0.014943497
201	0xbb4b2b27	-0.0031001063
202	0xbc8def36	-0.017325979
203	0x3ce87d76	0.028380137
204	0x3b997bd4	0.004683951
205	0x3ccbfb68	0.024900153
206	0xbba09e47	-0.0049016806
207	0x3ca7e07f	0.02049279
208	0x3baf8162	0.005356
209	0x3ce0db5c	0.027448349
210	0xbc66685b	-0.014062966
211	0x3d6f1fc6	0.05837991
212	0x3c3aaca7	0.011393703
213	0xbd1556f8	-0.036459893
214	0x3d2e83a8	0.042606026
215	0x3dbb668b	0.09150418
216	0xbb78cce6	-0.0037963926
217	0x3c9472c8	0.018121138
218	0xbcaaab05	-0.020833502
219	0xbc26c5e9	-0.010179021
220	0xbba05df6	-0.0048940135
221	0xbda2e07d	-0.07952974
222	0x3c9af54a	0.018915791
223	0x3a879ee3	0.0010347035
224	0xbc96662f	-0.018359272
225	0xbd08b84c	-0.033378884
226	0x3cf24dd2	0.029578123
227	0xbcd5e83d	-0.026111716
228	0xbc8e0f3b	-0.017341247
229	0xbc162d2d	-0.009166044
230	0x3aa22b2b	0.0012372484
231	0x3ca85435	0.020547966
232	0xbbe7f48d	-0.0070787133
233	0x3c6b7f88	0.014373668
234	0xbbac3527	-0.0052553597
235	0x3dbdf6b9	0.09275574
236	0x3cc771aa	0.024346191
237	0x3c4dff53	0.012573081
238	0x3b402723	0.0029320202
239	0xbc2683f0	-0.010163292
240	0xbbc4690b	-0.0059939674
241	0xbce2119b	-0.027596286
242	0xbcc83c87	-0.024442924
243	0xbc91dc33	-0.017805194
244	0xbc5ed975	-0.0136016505
245	0xbbf09590	-0.007342048
246	0x3cae6700	0.021289349
247	0x3b8a99c2	0.004229755
248	0xbd0ff888	-0.035149127
249	0x3ccf79a8	0.025326565
250	0xbaa34d65	-0.0012458978
251	0xbd1c9ae4	-0.038233653
252	0x3c000abd	0.00781506
253	0x3c94f6fc	0.018184178
254	0xbb94edca	-0.004544948
255	0xbb0651b7	-0.0020495483

weight f4 [256, 75]
0	0x3d7b7d27	0.06139865
1	0x3da97a7b	0.082753144
2	0x3d842710	0.06452763
3	0xbd9ed759	-0.07755918
4	0xbc1ef210	-0.009701267
5	0x3e05f44a	0.1308147
6	0xbde468e5	-0.111528195
7	0x3d9f9897	0.07792776
8	0xbc67b4ec	-0.014142256
9	0xbdb4e540	-0.088327885
10	0xbcbe7923	-0.023251122
11	0xbce8d1cd	-0.028420353
12	0x3cc618d2	0.024181757
13	0x3d68386f	0.056694444
14	0xbc050869	-0.008119681
15	0x3dbd950f	0.09256946
16	0xbcf97d54	-0.030455269
17	0xbd4b75b9	-0.049672816
18	0xbdb203ed	-0.08692155
19	0xbdf84b74	-0.121237665
20	0x39c0d74d	0.00036781505
21	0xbdb6fe55	-0.08935229
22	0x3d00b503	0.031422626
23	0x3dfabd9c	0.12243196
24	0x3e011418	0.12605321
25	0xbd53664f	-0.05161124
26	0x3dbfef09	0.09371764
27	0x3e098e3f	0.13433169
28	0x3bba8c1c	0.005692972
29	0x3dd829e6	0.105548665
30	0x3db3a45f	0.08771586
31	0x3d0f3c09	0.034969363
32	0xbdb17032	-0.08663978
33	0xbd19cb0a	-0.03754715
34	0x3db8ac1d	0.09017203
35	0x3c7d1726	0.015447414
36	0x3c8d4bb7	0.017248018
37	0x3c06f391	0.008236782
38	0xbda4fad3	-0.080556534
39	0xbde19bb8	-0.11016029
40	0x3ca5b677	0.020228608
41	0xbdec936a	-0.115515545
42	0xbe07e70e	-0.13271734
43	0xbc3da859	-0.011575782
44	0x3dd93da2	0.10607459
45	0x3d813870	0.06309593
46	0x3dea4c3d	0.114403225
47	0xbd93d476	-0.07218258
48	0x3cb3eb4c	0.021962784
49	0x3cbb3d76	0.022856455
50	0x3def83d6	0.116950676
51	0x3d0c004a	0.034179963
52	0x3c86d936	0.016460996
53	0xbded7e93	-0.11596408
54	0xbc6e063a	-0.014527852
55	0x3d19c13b	0.037537795
56	0x3b5be61c	0.0033553904
57	0xbd87ca3a	-0.066303685
58	0x3db2965c	0.08720085
59	0x3dec8d1d	0.11550353
60	0x3ccc7583	0.024958378
61	0x3de92266	0.11383514
62	0x3eab7020	0.33483982
63	0xbd9bd9ff	-0.07609939
64	0x3df5ec3d	0.120079495
65	0x3da8160d	0.08207331
66	0xbd19708e	-0.037460856
67	0x3d0ecb6d	0.03486197
68	0xbc78aed5	-0.015178402
69	0xbc6c383c	-0.014417704
70	0x3dec9b8c	0.11553106
71	0x3dbc5e59	0.09197683
72	0x3de25967	0.110522084
73	0x3d4ba96e	0.049722128
74	0x3ddba5f5	0.10725013
75	0x3be10514	0.0068670604
76	0xbd8f0721	-0.069837816
77	0xbd28067d	-0.041021813
78	0xbdfb937b	-0.12283989
79	0xbd04e26a	-0.032442488
80	0x3d9e598b	0.07731923
81	0x3c326136	0.010887435
82	0xbdec110c	-0.11526689
83	0x3cb017f3	0.021495795
84	0xbdc805ef	-0.09766757
85	0xbcc3f3cf	-0.023919968
86	0xbcad1fc2	-0.021133307
87	0xbd8a4e85	-0.06753258
88	0x3cd543ff	0.0260334
89	0x3dc6d1cf	0.097079866
90	0x3c2220d9	0.009895527
91	0x3dcccc74	0.09999934
92	0xbbd8c0cd	-0.0066147805
93	0xbdc6e74d	-0.09712086
94	0x3dfe1b1f	0.12407517
95	0x3bb5b77a	0.0055455538
96	0xbdfa0fbb	-0.122100316
97	0xbdc5ce03	-0.09658434
98	0x3cbcf479	0.023065792
99	0x3e09c06e	0.13452312
100	0xbdbd2b52	-0.09236778
101	0xbddaa377	-0.1067571
102	0x3d63bca0	0.05559981
103	0xbdc578b4	-0.09642163
104	0x3ca0d0e7	0.019630862
105	0xbda6e677	-0.081494264
106	0xbd84148b	-0.06449231
107	0xbd79c49e	-0.060978524
108	0xbdb858c4	-0.09001306
109	0xbded5a2e	-0.11589466
110	0x3d8caf13	0.0686933
111	0x3dd3b1ad	0.10336623
112	0x3cb5210e	0.022110488
113	0x3c89f824	0.016841955
114	0xbcc8415e	-0.024445232
115	0xbcf07126	-0.029350828
116	0x3e00de9d	0.1258492
117	0xbda8964e	-0.08231793
118	0x3bc03a51	0.005866327
119	0x3ddbfc62	0.107414976
120	0x3e13cbb0	0.1443317
121	0xbc0e12a4	-0.008671436
122	0x3e2023df	0.15638684
123	0x3ba627a8	0.0050706454
124	0xbe06b419	-0.1315464
125	0xbb03532e	-0.0020038593
126	0xbc973b7f	-0.018460987
127	0x3c87c06a	0.016571242
128	0xbd9fccd0	-0.07802737
129	0x3db93dcb	0.09044989
130	0x3da7d923	0.081957124
131	0x3d1d2a8c	0.038370654
132	0x3dc4db02	0.09612085
133	0x3dd008e9	0.101579495
134	0xbce4a1ee	-0.027909245
135	0xba49741a	-0.0007684842
136	0xbd99a601	-0.07502366
137	0xbe8b24a2	-0.27176386
138	0xbe03fa92	-0.12888554
139	0xbd404124	-0.046937123
140	0xbd4ac36c	-0.049502775
141	0xbd4f7383	-0.05064727
142	0x3d5d38f9	0.05400941
143	0xbcb201b8	-0.021729335
144	0xbd8327c5	-0.0640407
145	0x3ded4f55	0.11587397
146	0xbd514afd	-0.051096905
147	0xbc95d0a0	-0.018287957
148	0xbc9e6267	-0.019334031
149	0xbdabd15f	-0.08389544
150	0x3de1389d	0.10997126
151	0x3d6eee09	0.058332477
152	0xbe159400	-0.14607239
153	0xbd7bb417	-0.061451044
154	0x3e052901	0.13003923
155	0xbde1a917	-0.110185795
156	0xbda08839	-0.078384824
157	0xbe099298	-0.13434827
158	0x3dbc55e8	0.09196073
159	0xbcbd3c4d	-0.023100043
160	0x3b876d58	0.004132908
161	0x3dd662dd	0.104680754
162	0xbbb2f101	-0.005460859
163	0x3cc6e7ed	0.024280513
164	0xbe0896bd	-0.13338752
165	0xbc3aa19c	-0.01139107
166	0xbd727531	-0.059193794
167	0x3d63ac0d	0.055584002
168	0x3d5bad13	0.053631853
169	0xbd2d66f2	-0.042334504
170	0xbd9776c5	-0.073957
171	0x3d06353d	0.032765616
172	0xbd27887a	-0.04090164
173	0xbbecdf2c	-0.0072287526
174	0xbccb2280	-0.024796724
175	0xbda7ea21	-0.081989534
176	0xbc305f3d	-0.010764894
177	0xbd2abfe9	-0.041686926
178	0xbcb559b4	-0.0221375
179	0xbdcb09b8	-0.09913963
180	0x3d413656	0.04717096
181	0x3db9f8eb	0.090806805
182	0xbdac7a6f	-0.0842179
183	0x3dbdd0e8	0.09268361
184	0xbd9c285d	-0.07624886
185	0x3dffe571	0.12494934
186	0xbda597e3	-0.08085611
187	0xbde79ca0	-0.11309171
188	0x3dd76a68	0.10518342
189	0xbdd9e914	-0.10640159
190	0xbdb45877	-0.08805936
191	0xbbc41037	-0.0059833783
192	0xbdeeb26b	-0.11655124
193	0xbddb7036	-0.10714762
194	0x3cc8b73e	0.02450144
195	0xbde94f51	-0.113920815
196	0x3c3d93f0	0.011570916
197	0xbd49aef8	-0.04923913
198	0x3d2835fa	0.0410671
199	0xbcc1510c	-0.023598216
200	0x3d9d720b	0.076877676
201	0x3c3ab812	0.011396425
202	0xbdfb3a63	-0.12266996
203	0xbd2e0d7e	-0.042493336
204	0xbd7a6fdc	-0.061141834
205	0xbd4efa17	-0.050531473
206	0xbe01114c	-0.12604254
207	0xbdd4a02f	-0.10382115
208	0x3dd28dd4	0.10280958
209	0x3dd79de1	0.1052816
210	0x3dd9a94f	0.10627996
211	0xbd773940	-0.060357332
212	0xbd8e1af6	-0.06938736
213	0x3e020567	0.12697373
214	0xbd9bced5	-0.076078095
215	0x3cc813a9	0.024423437
216	0xbbe03a88	-0.006842915
217	0xbe07564d	-0.13216515
218	0xbd808bbd	-0.06276653
219	0xbdc5d4a4	-0.096596986
220	0x3db89e94	0.090146214
221	0x3c9ffb91	0.019529136
222	0xbd69e421	-0.057102326
223	0x3d3fac0f	0.046794947
224	0x3d408fdc	0.047012195
225	0x3da85dfb	0.0822105
226	0xbddf4bdd	-0.10903142
227	0x3daa78b9	0.08323807
228	0x3d4a57cd	0.04940014
229	0x3d3261f6	0.043550454
230	0xbd786be2	-0.06064976
231	0x3e04c6a1	0.12966396
232	0xbdf69d5e	-0.12041734
233	0xbd5c5938	-0.053796023
234	0x3e06e5b9	0.1317357
235	0xbdfa7ed4	-0.12231222
236	0xbcd838e3	-0.026394313
237	0xbe05bac5	-0.13059528
238	0xbddf8ff2	-0.10916127
239	0xbdce2174	-0.100649744
240	0x3cc0161b	0.02344804
241	0x3d93e4d5	0.072213806
242	0x3db4634f	0.08808004
243	0xbd436ab7	-0.047709193
244	0x3da5a537	0.08088153
245	0xbdbfa294	-0.09357181
246	0x3a28ccd0	0.0006439211
247	0xbd9121c0	-0.070865154
248	0x3da9e672	0.08295907
249	0xbd03cbd5	-0.03217681
250	0xbdc93cc0	-0.0982604
251	0x3d7b153e	0.061299555
252	0xbb2490b9	-0.0025110675
253	0x3b52e083	0.0032177276
254	0xbdcee346	-0.10101943
255	0xbd7e78b8	-0.062126845

weight f4 [256]
0	0x3f806478	1.0030661
1	0x3f91c6ad	1.1388756
2	0x3f8a3dff	1.080017
3	0x3f8fa563	1.1222347
4	0x3f900d46	1.1254051
5	0x3f717e0b	0.9433295
6	0x3f9a2498	1.2042418
7	0x3f83b1be	1.0288618
8	0x3f969d7d	1.1766812
9	0x3f95d0bc	1.1704326
10	0x3f9b624a	1.213937
11	0x3f903932	1.1267455
12	0x3f84498f	1.0334948
13	0x3f898f22	1.0746806
14	0x3f889ec0	1.0673447
15	0x3f844ff7	1.0336903
16	0x3f95e8ae	1.1711633
17	0x3f8690a0	1.0512886
18	0x3f9ed572	1.2408888
19	0x3f80cab9	1.0061866
20	0x3f8cbc39	1.0994941
21	0x3f7f0b43	0.9962656
22	0x3f7a7285	0.9783099
23	0x3f7e004e	0.99219215
24	0x3f92ab22	1.1458476
25	0x3f87b58d	1.060228
26	0x3f801559	1.0006515
27	0x3f87f10c	1.0620437
28	0x3f988710	1.1916218
29	0x3f88f497	1.0699643
30	0x3f8dca8b	1.1077436
31	0x3f8bc06b	1.0918096
32	0x3f898008	1.0742197
33	0x3f81d82d	1.0144097
34	0x3f7eaa84	0.99478936
35	0x3f8d85fc	1.1056514
36	0x3f945156	1.1587322
37	0x3f736852	0.95081055
38	0x3f8c1cb0	1.0946255
39	0x3f95b25b	1.1695055
40	0x3f95842a	1.1680958
41	0x3f90e50b	1.1319898
42	0x3f81d9d4	1.0144601
43	0x3f828cd9	1.0199233
44	0x3f9e6d16	1.237704
45	0x3f978be0	1.1839561
46	0x3f8ed215	1.1157862
47	0x3f8bdbcf	1.0926455
48	0x3f872a0a	1.0559704
49	0x3f8b085a	1.0861924
50	0x3f97ed64	1.1869321
51	0x3f8c2184	1.0947728
52	0x3f806f57	1.0033978
53	0x3f8424fc	1.0323787
54	0x3f93eca6	1.1556594
55	0x3f85b368	1.0445375
56	0x3f8d358d	1.1031967
57	0x3f911d4d	1.1337067
58	0x3f7d798a	0.9901358
59	0x3f937787	1.1520852
60	0x3f90bd11	1.1307698
61	0x3f910d50	1.1332188
62	0x3f913c1e	1.1346471
63	0x3f8ca836	1.0988834
64	0x3f86f1b0	1.0542507
65	0x3f839088	1.0278482
66	0x3f8f8bed	1.1214577
67	0x3f9c9eca	1.2235959
68	0x3f84370e	1.0329301
69	0x3f9436d3	1.1579231
70	0x3f85d0ee	1.0454385
71	0x3f91cd17	1.1390713
72	0x3f9ec99b	1.2405275
73	0x3f88756b	1.0660833
74	0x3f85e214	1.0459619
75	0x3f9761ee	1.1826761
76	0x3f7df33f	0.9919929
77	0x3f9c74eb	1.222318
78	0x3f8c8cf1	1.0980512
79	0x3f9080fc	1.1289363
80	0x3f928e1c	1.1449618
81	0x3f90e7ab	1.13207
82	0x3f8035e1	1.0016443
83	0x3f84262d	1.032415
84	0x3f867dc3	1.050713
85	0x3fa31201	1.2739869
86	0x3f819591	1.0123769
87	0x3f8e58a6	1.1120803
88	0x3f88dcda	1.0692399
89	0x3f80dbbf	1.0067061
90	0x3f86c20e	1.0527971
91	0x3f8b1aef	1.0867594
92	0x3f849525	1.0358015
93	0x3f8c3cad	1.0956017
94	0x3f87ea72	1.0618422
95	0x3f7e2bee	0.9928578
96	0x3f913325	1.1343733
97	0x3f82c152	1.0215247
98	0x3f973593	1.1813225
99	0x3f92ed55	1.1478678
100	0x3f8c9bd2	1.0985053
101	0x3f9b7e7f	1.2147979
102	0x3fa1b3dd	1.2633015
103	0x3f8c0ce6	1.0941436
104	0x3f7f6efe	0.99778736
105	0x3f89cfab	1.07665
106	0x3f870243	1.0547565
107	0x3f7b7cde	0.9823741
108	0x3f77da1c	0.96817183
109	0x3f86aead	1.0522057
110	0x3f82e99b	1.0227541
111	0x3f8d984b	1.1062101
112	0x3f962f4b	1.1733183
113	0x3f92b135	1.1460329
114	0x3f814f1e	1.010227
115	0x3f9e5ddf	1.2372397
116	0x3f85b231	1.0445005
117	0x3f893af3	1.0721115
118	0x3f7c6f59	0.98607403
119	0x3f99a445	1.2003256
120	0x3f9cb6fc	1.2243342
121	0x3f8c7693	1.0973686
122	0x3f8385f5	1.0275255
123	0x3f85db7f	1.045761
124	0x3f8afb88	1.0858011
125	0x3f8e02d2	1.1094611
126	0x3f7fa320	0.99858284
127	0x3f8c8ebc	1.0981059
128	0x3f918812	1.136965
129	0x3f90ffc2	1.1328051
130	0x3f899fc0	1.0751877
131	0x3f903ad6	1.1267955
132	0x3f877e0f	1.0585345
133	0x3f873a0a	1.0564587
134	0x3f8f5a78	1.1199484
135	0x3f8644a4	1.0489697
136	0x3f8c48f9	1.095977
137	0x3f913a78	1.1345968
138	0x3f825903	1.0183414
139	0x3f85390b	1.0408033
140	0x3f86759a	1.0504639
141	0x3f849558	1.0358076
142	0x3f96421c	1.1738925
143	0x3f906e74	1.1283708
144	0x3f7fd8f9	0.9994045
145	0x3f85c5df	1.045101
146	0x3f8297df	1.0202597
147	0x3f86137e	1.0474699
148	0x3f7b5763	0.98180217
149	0x3f99fadc	1.2029681
150	0x3f907e15	1.1288477
151	0x3f9b0625	1.211125
152	0x3fa19625	1.2623945
153	0x3f91b2e5	1.1382719
154	0x3f902f83	1.12645
155	0x3f84d672	1.0377944
156	0x3f91a8b2	1.1379607
157	0x3f86b224	1.0523114
158	0x3f86eb74	1.0540605
159	0x3f973497	1.1812924
160	0x3f8e1445	1.1099936
161	0x3f73e788	0.95275164
162	0x3f8f83c9	1.1212093
163	0x3f85c071	1.0449353
164	0x3f85dbda	1.0457718
165	0x3f906198	1.1279783
166	0x3f791790	0.9730158
167	0x3fa65964	1.299603
168	0x3f83477d	1.0256191
169	0x3f8990b4	1.0747285
170	0x3f99c4ae	1.2013147
171	0x3f7ce60a	0.9878851
172	0x3f872e2a	1.0560963
173	0x3f917df8	1.1366568
174	0x3f9ccc9e	1.2249944
175	0x3f8e6824	1.1125531
176	0x3f78e3e8	0.9722276
177	0x3f90643c	1.1280589
178	0x3f8cde6a	1.1005375
179	0x3f85da04	1.0457158
180	0x3f88f7de	1.0700643
181	0x3f88f906	1.0700996
182	0x3f825fed	1.0185524
183	0x3f8f6a45	1.1204306
184	0x3f7b67f0	0.9820547
185	0x3f8475c0	1.0348434
186	0x3f8acf3f	1.0844496
187	0x3f901db0	1.125906
188	0x3f853e89	1.0409709
189	0x3f88dfd5	1.0693308
190	0x3f7cee95	0.9880155
191	0x3f8b9b24	1.090672
192	0x3f956f42	1.1674578
193	0x3f87d0be	1.0610578
194	0x3f8a8737	1.0822514
195	0x3f96950a	1.1764233
196	0x3f8f0995	1.1174799
197	0x3f85231f	1.0401343
198	0x3f8b6e95	1.0893122
199	0x3f8a91ff	1.0825804
200	0x3f946008	1.1591806
201	0x3f7d06d0	0.9883852
202	0x3f897e22	1.0741618
203	0x3f89003e	1.0703199
204	0x3f87e2c2	1.0616076
205	0x3f92c899	1.1467468
206	0x3f895c8b	1.0731367
207	0x3f797941	0.97450644
208	0x3f8126aa	1.0089924
209	0x3f82771b	1.0192598
210	0x3f86e25c	1.0537829
211	0x3f902f6c	1.1264472
212	0x3f88087e	1.0627592
213	0x3f829dd7	1.0204419
214	0x3f81a2e9	1.0127841
215	0x3f991516	1.195956
216	0x3f8cafa9	1.0991107
217	0x3f871c9f	1.055561
218	0x3f8d9556	1.1061199
219	0x3f953d7b	1.1659387
220	0x3f95501f	1.1665076
221	0x3f97e4bf	1.1866683
222	0x3f996b69	1.1985904
223	0x3f7eb491	0.9949427
224	0x3f9d1628	1.2272387
225	0x3f8d796b	1.1052679
226	0x3f81cf49	1.0141383
227	0x3f9a4f13	1.2055382
228	0x3f908ad2	1.1292365
229	0x3f84cef7	1.0375661
230	0x3f82cf00	1.0219421
231	0x3f8c15bb	1.0944132
232	0x3f85cf20	1.0453835
233	0x3f84bd50	1.0370274
234	0x3f7f3e38	0.99704313
235	0x3f9c9c01	1.2235109
236	0x3f910868	1.133069
237	0x3f9a5d63	1.2059749
238	0x3f994aac	1.1975913
239	0x3f833012	1.0249045
240	0x3f7bf111	0.98414713
241	0x3f90767e	1.1286161
242	0x3f922908	1.1418772
243	0x3f8ebfe8	1.1152315
244	0x3f934d76	1.1508014
245	0x3f7d34fe	0.98908985
246	0x3f9413c4	1.1568532
247	0x3f92054c	1.1407866
248	0x3f8898c8	1.0671625
249	0x3f867baf	1.0506495
250	0x3f972650	1.1808567
251	0x3f831afb	1.0242609
252	0x3f8ac563	1.0841488
253	0x3f8f47e9	1.119382
254	0x3f8f8ca9	1.1214801
255	0x3f89e6b4	1.077353

bias f4 [256]
0	0xbd7ea634	-0.062170222
1	0x3b73e0bf	0.0037212817
2	0x3d80c967	0.062884144
3	0x3cb4a114	0.022049464
4	0xbdfaaaa3	-0.122395776
5	0xbd377f2c	-0.044799015
6	0xbdee3b08	-0.11632353
7	0xbceb5743	-0.028728133
8	0x3df66082	0.12030126
9	0xbd9e5eb1	-0.07732905
10	0x3e01db0d	0.12681217
11	0xbc8df07e	-0.01732659
12	0x3d3523c8	0.044223577
13	0x3de37e5f	0.11108088
14	0xbd66fa9f	-0.056391355
15	0x3dbb66c8	0.09150463
16	0xbccfa91c	-0.025349192
17	0xbdbfb2dd	-0.09360287
18	0xbc5c1b5c	-0.013434257
19	0x3dc884d8	0.09790963
20	0x3db34dea	0.08755095
21	0x3dbb5e8a	0.09148891
22	0x3e0c084f	0.13675044
23	0xbcf278eb	-0.029598674
24	0xbdf159af	-0.11784684
25	0xbd0c7ec8	-0.034300596
26	0xbd0bae4e	-0.034101777
27	0xba62d0e0	-0.00086523406
28	0xbded9fe1	-0.1160276
29	0xbe05408b	-0.13012902
30	0xbc53d2fd	-0.0129287215
31	0x3cbff3bb	0.02343165
32	0xbda9cddb	-0.08291217
33	0xbc5527af	-0.01300995
34	0x3d827a47	0.06370979
35	0x3de2f58d	0.11081991
36	0xbdbe0a33	-0.09279289
37	0xbd164dd9	-0.036695335
38	0xbd70507c	-0.058670506
39	0x3c80663f	0.015673755
40	0xbd1c4007	-0.038147
41	0x3e41f96b	0.18942802
42	0x3d797b3d	0.060908545
43	0xbd331d0c	-0.043728873
44	0x3bf803b8	0.0075688027
45	0x3e09d729	0.13460983
46	0xbde946d6	-0.11390464
47	0x3dbbd156	0.09170787
48	0xbbd05800	-0.0063581467
49	0x3d000999	0.031259153
50	0x3d8f845b	0.07007667
51	0xbc1fc86b	-0.009752373
52	0xbc740013	-0.014892596
53	0xbd1c206f	-0.03811687
54	0xba1e23b9	-0.0006032545
55	0xbdec89e7	-0.1154974
56	0x3d9e3b01	0.07726098
57	0x3d89b3b9	0.067237325
58	0x3c75bdef	0.014998897
59	0x3cb2d5d1	0.021830471
60	0x3aeec622	0.0018217007
61	0xbce63536	-0.028101545
62	0xbd881b36	-0.06645815
63	0x3cc23956	0.02370898
64	0xbde76cbb	-0.113000356
65	0xbcc8dddd	-0.024519855
66	0x3d8aadcb	0.0677143
67	0xbe38a143	-0.18030266
68	0xbd363092	-0.044479914
69	0xbd30353e	-0.043019526
70	0x3c462916	0.012094757
71	0x3b867240	0.004102975
72	0xbd2b4009	-0.041809116
73	0xbd6c7823	-0.05773176
74	0xbd726513	-0.059178423
75	0xbd20dfe8	-0.039276034
76	0x3df6ba6e	0.120472774
77	0xbdb50962	-0.0883968
78	0xbd5c2047	-0.05374172
79	0xbcd177d0	-0.025569826
80	0x3d8c5c2b	0.06853517
81	0x3de13779	0.10996909
82	0xbd35d16a	-0.044389166
83	0x3bea4854	0.0071497355
84	0xbd4cd404	-0.05000688
85	0x3c76b55e	0.01505789
86	0xbda6f585	-0.08152298
87	0xbca96a3b	-0.020680537
88	0xbe1e232e	-0.15443107
89	0xbdb30bb5	-0.08742467
90	0xbd1de462	-0.03854788
91	0x3ca8904a	0.020576615
92	0x3dbb5167	0.09146386
93	0xbd848336	-0.06470339
94	0xbbc5bf85	-0.006034794
95	0x3c1cad74	0.009562839
96	0xbdd2ac71	-0.10286797
97	0xbd97e113	-0.074159764
98	0x3dca841b	0.09888478
99	0x3d6cc51f	0.057805177
100	0x3de4e237	0.111759596
101	0x3db69fd7	0.08917206
102	0xbc025bce	-0.007956458
103	0xbd5376cb	-0.05162696
104	0x3db80168	0.08984643
105	0x3da11e8b	0.07867154
106	0xbb280043	-0.0025634922
107	0xbd3cb06b	-0.046066683
108	0xbcee856e	-0.029116359
109	0xbd911f8b	-0.070860945
110	0xbd3e1d4a	-0.04641465
111	0xbe1d6d9a	-0.15373841
112	0xbcc41170	-0.023934096
113	0xbdd85fbd	-0.10565136
114	0x3c93e08b	0.018051406
115	0xbda36e0e	-0.07979976
116	0x3d8771b2	0.066134825
117	0x3c8b8e91	0.017035754
118	0xbdfa460d	-0.122203924
119	0xbd3aa2c6	-0.04556539
120	0xbc415742	-0.011800589
121	0xbdd676f7	-0.104719095
122	0x3dd00153	0.101565026
123	0x3dba3e20	0.09093881
124	0xbc19b9de	-0.009382693
125	0x3c5d2c04	0.013499264
126	0x3e474ca1	0.19462825
127	0x3d41ecc4	0.047344938
128	0xbdf8fdc2	-0.121577755
129	0xbc83bd5f	-0.01608151
130	0xbddd37bb	-0.10801645
131	0x3d3ec7fa	0.04657743
132	0x3da15316	0.078771755
133	0x3d6898b7	0.056786265
134	0xbd29f0d4	-0.041489437
135	0xbd8a23f3	-0.06745138
136	0xbd8768d1	-0.06611789
137	0xbde11447	-0.10990196
138	0xbd71fbb8	-0.05907795
139	0xbd5bf01b	-0.05369578
140	0xbce684ed	-0.028139556
141	0x3d32429b	0.04352055
142	0xbd85df57	-0.06536739
143	0x3b845183	0.0040380373
144	0x3d681895	0.05666407
145	0x3ccfcbe0	0.02536577
146	0xbcb36f1a	-0.021903563
147	0xbe18a42a	-0.14906374
148	0xbdc37edf	-0.09545683
149	0xbc45dcbe	-0.012076555
150	0xbcb6fe93	-0.022338187
151	0x3cb78ab2	0.022405002
152	0x3ddc6626	0.10761671
153	0xbdf1604a	-0.11785944
154	0x3e101ab7	0.14072691
155	0x3cdd7b82	0.027036432
156	0x3d30d819	0.043174837
157	0xbbbf1ac2	-0.005832047
158	0x3d41c86c	0.047310278
159	0x3d718c90	0.05897194
160	0x3deab117	0.114595585
161	0x3c3c795b	0.011503543
162	0x3d078297	0.033083525
163	0xbd24f2ec	-0.04027073
164	0x3da89d3d	0.08233116
165	0x3ce2bfb9	0.027679311
166	0xbdb349bb	-0.08754297
167	0xbbdb5e1b	-0.006694568
168	0x3ce0eee6	0.027457666
169	0xbc2a5133	-0.010395336
170	0xbdbed64d	-0.093182184
171	0xbccb6836	-0.024829965
172	0x3c53c96f	0.0129264435
173	0xbda5da6c	-0.08098301
174	0xbe06a7ea	-0.13149992
175	0x3cf6e6c9	0.030139344
176	0x3c28d63f	0.0103049865
177	0x3d0887c4	0.0333326
178	0xbcdb57e8	-0.026775315
179	0x3d377b64	0.04479541
180	0x3dc78531	0.09742201
181	0xb9b60598	-0.00034717913
182	0x3cfea61d	0.031085068
183	0xbb83d27e	-0.0040228954
184	0x3cb7652a	0.022387106
185	0x3e101f8f	0.14074539
186	0x3d5dde23	0.054166924
187	0xbc840921	-0.016117634
188	0xbdd2082b	-0.10255464
189	0xbd5cfc1a	-0.05395136
190	0x3db9421c	0.090458125
191	0xbc958e30	-0.018256277
192	0xbe0a2e6f	-0.13494276
193	0x3d33c867	0.04389229
194	0xbdcf9839	-0.10136456
195	0x3d6f1dc3	0.058377992
196	0x3c8f8198	0.01751785
197	0xbc906a85	-0.017628917
198	0x3d707772	0.058707662
199	0x3bdaf718	0.006682288
200	0x3cc43ab4	0.023953773
201	0xbc6b8532	-0.014375018
202	0x3dd503cf	0.10401117
203	0x3d52a30b	0.05142502
204	0x3af63541	0.0018784181
205	0xbd1e0a88	-0.038584262
206	0x3d75c0e6	0.059998415
207	0x38790776	5.9373175e-05
208	0xbca40dba	-0.020026077
209	0xbc41a489	-0.011819013
210	0xbd4999f8	-0.0492191
211	0x3e3b0edc	0.18267387
212	0xbd8e744a	-0.06955774
213	0xbdd05cab	-0.10173925
214	0x3cc7bedb	0.024383
215	0x3db90afe	0.090353
216	0xbdbd1b90	-0.09233773
217	0xbe022caf	-0.12712358
218	0xbd9426c2	-0.07233955
219	0x3e20019b	0.15625612
220	0x3da234ae	0.07920204
221	0x3d76c2ce	0.060244374
222	0xbdcffd3d	-0.10155723
223	0x3d7c446a	0.061588682
224	0xbca5714c	-0.020195626
225	0x3d5580f8	0.052124947
226	0x3d106a6b	0.035257738
227	0xbd81ccb5	-0.06337873
228	0xbcef5b62	-0.02921838
229	0x3cba918d	0.022774482
230	0xbcae8b05	-0.021306524
231	0xbc5b0e89	-0.013370165
232	0xbd15adde	-0.036542766
233	0xbc3d5999	-0.011557006
234	0xbd6483d1	-0.055789772
235	0xbce87dcf	-0.028380303
236	0x3d9b6147	0.075869136
237	0x3d6f8da7	0.0584847
238	0xbcedd9ac	-0.029034458
239	0xbd6d586a	-0.057945646
240	0x3d76ac5d	0.060222972
241	0x3b73d7c7	0.003720747
242	0xbd63ab6c	-0.055583403
243	0x3d84f1b9	0.064914174
244	0x3d7e55e3	0.062093627
245	0xbdc60cbe	-0.09670399
246	0x3df8f2d3	0.1215569
247	0x3d4f6f35	0.050643165
248	0x3d325ec7	0.043547418
249	0xba392ab3	-0.00070635526
250	0xbd924021	-0.07141138
251	0x3d5b4a29	0.05353752
252	0xbda657f4	-0.081222445
253	0xbd867a17	-0.065662555
254	0x3dbf2c0a	0.09334572
255	0x3cafa55a	0.02144115

running_mean f4 [256]
0	0x3e8053ef	0.25064036
1	0x3dcf0a53	0.10109391
2	0xbc7afd23	-0.015319142
3	0xbd61e608	-0.055151016
4	0x3d5b1889	0.053490195
5	0xbd99cd0d	-0.075098135
6	0xbd3e6543	-0.04648329
7	0xbd8fb1dd	-0.070163466
8	0x3dc279de	0.094959006
9	0xbca0cb8b	-0.019628307
10	0x3e82b968	0.2553208
11	0x3e2ab25a	0.16669598
12	0x3cdf3b5d	0.027249986
13	0xbd716334	-0.058932498
14	0x3e239113	0.1597331
15	0x3c89fe8a	0.016845006
16	0xbe1818fa	-0.14853278
17	0xbeafc4d0	-0.34329844
18	0x3e0c628b	0.13709466
19	0xbd8a5865	-0.06755141
20	0xb7d0306d	-2.4818082e-05
21	0x3dc610cd	0.09671173
22	0xbdf6d480	-0.1205225
23	0xbdae56ec	-0.08512673
24	0xbe3a03fc	-0.18165582
25	0x3dcd5959	0.10026807
26	0xbdfaa8d7	-0.12239235
27	0xbe0bc360	-0.13648748
28	0x3d312ee0	0.043257594
29	0x3e3227cf	0.17397998
30	0xbc97b8db	-0.018520763
31	0x3dcd0389	0.1001044
32	0xbe618de1	-0.22026779
33	0xba5a05e4	-0.0008316918
34	0x3d9f7bf4	0.07787314
35	0xbc678910	-0.014131799
36	0xbc2d1ee8	-0.010566451
37	0xbdf15300	-0.11783409
38	0xbe340c03	-0.17582707
39	0xbe456747	-0.19277678
40	0x3e11d0f3	0.14239864
41	0xbe064986	-0.13113984
42	0x3d3ab93b	0.045586806
43	0xbea5479e	-0.32281202
44	0x3e44827f	0.19190405
45	0x3cf74d45	0.030188212
46	0x3b6876a0	0.0035471097
47	0xbe8312d9	-0.25600317
48	0x3d6a4c8c	0.057201907
49	0xbe8cca67	-0.2749817
50	0xbe27a44a	-0.16371265
51	0xbdd4a296	-0.10382573
52	0xbe5f9acb	-0.21836393
53	0xbc9bd7cd	-0.0190238
54	0xbe09ad1e	-0.13444945
55	0xbb663897	-0.0035128945
56	0x3e06290d	0.13101597
57	0xbe88b21a	-0.2669838
58	0x3d2d6134	0.04232903
59	0xbd31db46	-0.043422006
60	0xbc93aece	-0.01802769
61	0x3c8bbabe	0.017056819
62	0x3d8fede1	0.07027794
63	0xbea88063	-0.3291045
64	0x3d50be71	0.05096287
65	0x3e3b02d2	0.18262795
66	0x3e67a880	0.22622871
67	0x3d5e7536	0.054311
68	0xbdb05648	-0.08610207
69	0x3d27f03d	0.041000593
70	0xbc8613b2	-0.016366813
71	0x3da8cb64	0.08241919
72	0xbc1512ed	-0.009098751
73	0x3e5a6e99	0.21331252
74	0x3e2c07d2	0.16799858
75	0xbe475ddc	-0.19469398
76	0x3ddeead0	0.10884631
77	0xbe9c9a5c	-0.30586517
78	0x3e57b333	0.21064453
79	0x3e6153fa	0.22004691
80	0x3daef849	0.085434504
81	0xbde321f0	-0.110904574
82	0x3eb03d19	0.34421614
83	0x3e328009	0.17431654
84	0x3de3488b	0.11097821
85	0xbe2a4685	-0.16628464
86	0x3e08d2cd	0.13361664
87	0x3c6b859a	0.014375115
88	0x3d965d6a	0.07342036
89	0x3db9b4cf	0.090676896
90	0x3d36a812	0.044593878
91	0x3c9249a8	0.017857388
92	0xbcae382a	-0.021267015
93	0xbc275fb7	-0.010215691
94	0x3da2ad7c	0.07943246
95	0x3e07f583	0.13277249
96	0xbdc2dc90	-0.09514725
97	0xbdc1befb	-0.09460255
98	0xbdaa1411	-0.083046086
99	0x3d23bbb4	0.03997393
100	0xbdc6c75b	-0.09705993
101	0x3dba5876	0.09098904
102	0x3d91e7b0	0.07124269
103	0xbd6a208d	-0.05715995
104	0x3e101f4e	0.14074442
105	0xbdb54fe4	-0.088531286
106	0x3e1c67dd	0.15273996
107	0xbe40e37b	-0.18836777
108	0x3e88a30a	0.2668689
109	0xbe8d11ba	-0.27552587
110	0x3d1cad26	0.038251065
111	0xbda3cffc	-0.07998654
112	0x3deaa163	0.11456563
113	0x3d139a7d	0.036036003
114	0x3dbd51e2	0.092441335
115	0x3d961532	0.073282614
116	0x3d78889b	0.060677152
117	0xbb1fcc82	-0.002438337
118	0xbd3a45b4	-0.04547663
119	0x3d7b902e	0.061416797
120	0x3e231070	0.15924239
121	0xbced0b5b	-0.028936079
122	0x3ce541fb	0.027985564
123	0xbc9b3585	-0.018946419
124	0xbcaac511	-0.020845922
125	0x3caf2a85	0.02138258
126	0x3b4e8544	0.0031512538
127	0x3ddce693	0.10786166
128	0xbdc05288	-0.093907416
129	0xbe05e93e	-0.13077256
130	0x3cbd57f1	0.023113223
131	0x3e7c58ff	0.24643324
132	0x3e8ebb2d	0.2787718
133	0x3de7ce72	0.11318673
134	0x3e17498d	0.14774151
135	0xbcf082a1	-0.029359164
136	0x3dfc0fc3	0.12307694
137	0xbc74cfe6	-0.014942145
138	0x3d4c4de7	0.04987898
139	0xbda74197	-0.08166807
140	0x3dd45475	0.103676714
141	0xbdb8caca	-0.09023054
142	0x3e377d3a	0.17918864
143	0x3e1fb833	0.1559761
144	0xbd542840	-0.051796198
145	0xbdaad35d	-0.083410956
146	0xbe75e24e	-0.2401211
147	0xbd547bad	-0.05187576
148	0x3e230e3d	0.159234
149	0x3da7ce98	0.081937015
150	0x3bb04ecf	0.0053804885
151	0xbdb707f0	-0.08937061
152	0xbd4f2711	-0.050574366
153	0x3c4422d4	0.011971194
154	0xbe0f6b54	-0.14005786
155	0x3d41b50e	0.047291808
156	0xbe9a9064	-0.30188286
157	0xbe98b0a2	-0.2982226
158	0xbdbdba7d	-0.092640854
159	0xbe00d928	-0.12582839
160	0xbe154f55	-0.14581044
161	0x3e829cab	0.25510153
162	0x3e1ee0f9	0.15515508
163	0x3dda015b	0.1064479
164	0xbe201191	-0.15631701
165	0xbc46deb8	-0.012138061
166	0xbd62775f	-0.055289622
167	0x3dc2a7a2	0.0950463
168	0xbd37313a	-0.04472468
169	0x3a828ce0	0.0009960197
170	0xbe0fadae	-0.14031097
171	0x3dab136d	0.083533145
172	0xbe4cdd13	-0.20006208
173	0xbe82f490	-0.2557721
174	0x3d478dc1	0.04871917
175	0x3e6842ed	0.2268178
176	0x3e5c9477	0.2154101
177	0xbe2a9da7	-0.16661702
178	0xbe050a02	-0.12992099
179	0x3e2cfbaa	0.16892877
180	0x3e32f53f	0.17476366
181	0x3d4aaac4	0.04947926
182	0xbe056f63	-0.13030772
183	0xbd9fd4bc	-0.07804248
184	0x3e12db5f	0.14341496
185	0x3d5c4b69	0.053782854
186	0xbc15f347	-0.00915224
187	0xbe21edd8	-0.15813386
188	0xbdb9213f	-0.09039544
189	0xbd7b5990	-0.06136471
190	0xbd4011d2	-0.046891995
191	0xbdaf2cb4	-0.08553448
192	0x3e151db2	0.14562109
193	0xbe6bfc04	-0.23045355
194	0x3d7b47de	0.061347835
195	0xbe0b158e	-0.13582441
196	0xbd03e86e	-0.032204084
197	0x3cf09479	0.029367672
198	0xbe007557	-0.12544762
199	0xbd68bee6	-0.05682268
200	0xbe883cfe	-0.26609033
201	0x3d398fae	0.04530304
202	0x3e1addbf	0.15123652
203	0x3e2742fb	0.16334145
204	0xbd80006c	-0.062500805
205	0x3da5e2ec	0.080999225
206	0x3d96f15a	0.07370253
207	0xbdcae3ff	-0.09906768
208	0xbd6352d7	-0.055498924
209	0xbd24aeec	-0.04020588
210	0x3dce1ff3	0.100646876
211	0xbdd72192	-0.1050445
212	0xbe2d0522	-0.1689649
213	0x3df21a00	0.11821365
214	0x3da28dce	0.07937203
215	0x3ea2a7e7	0.31768724
216	0xbbdd30ff	-0.0067502256
217	0xbd6a49de	-0.05719935
218	0x3d9edcbe	0.07756947
219	0xbdf02bf0	-0.117271304
220	0xbda6dad1	-0.08147205
221	0xbe8f4a17	-0.27986214
222	0x3e8fe750	0.28106165
223	0x3e764893	0.24051122
224	0xbca98a39	-0.020695793
225	0xbe82e20b	-0.25563082
226	0xbdc2e044	-0.095154315
227	0xbe1d543b	-0.15364163
228	0xbe399007	-0.18121348
229	0x3d44f8a0	0.04808867
230	0x3dbc1db1	0.09185351
231	0x3e18d946	0.14926633
232	0x3c9c465d	0.01907652
233	0xbd4daf8f	-0.050216254
234	0x3c4dede7	0.012568927
235	0x3e458270	0.19288039
236	0x3df28a31	0.11842764
237	0xbdaebfbf	-0.085326664
238	0x3d822c8a	0.063561514
239	0x3d72425f	0.059145328
240	0xbd84b052	-0.06478943
241	0x3d9574b3	0.07297649
242	0xbd551650	-0.052023232
243	0x3d337465	0.043812174
244	0xbb845503	-0.0040384545
245	0x3d930d87	0.071803145
246	0xbdb28c18	-0.08718127
247	0x3dc2f3c1	0.095191486
248	0x3dd7fc33	0.1054615
249	0x3e9166d1	0.28398755
250	0xbe7eb615	-0.24874146
251	0x3cdb90e7	0.026802493
252	0xbd9b0c2d	-0.07570682
253	0x3c892f96	0.016746324
254	0xbd2bd7c8	-0.041953832
255	0xbd55b5b2	-0.05217523

running_var f4 [256]
0	0x3bb4cdac	0.005517682
1	0x3bf9b1e9	0.0076200855
2	0x3af18652	0.0018426871
3	0x3bb60af8	0.005555507
4	0x3b3158c0	0.0027060956
5	0x3cb97260	0.022637546
6	0x3b81fd6b	0.0039669774
7	0x3ba36d27	0.004987377
8	0x3af8f798	0.0018994687
9	0x3af928d4	0.001900936
10	0x3b919437	0.0044427174
11	0x3b0f539a	0.0021869899
12	0x3ba135bc	0.0049197357
13	0x3c295d17	0.010337136
14	0x3bc3da10	0.005976923
15	0x3b8bfbe0	0.004271969
16	0x3b6033c3	0.003421054
17	0x3be888eb	0.0070964
18	0x3ac12e2a	0.0014738489
19	0x3d015aee	0.031580858
20	0x3b87784a	0.0041342126
21	0x3c64b261	0.0139585445
22	0x3bdcbb7d	0.0067362175
23	0x3c31f019	0.010860466
24	0x3b0b0a83	0.0021215982
25	0x3b6fe86c	0.003660704
26	0x3ba0b897	0.0049048173
27	0x3bf920e4	0.007602798
28	0x3b237a5f	0.0024944765
29	0x3abd6d95	0.0014452214
30	0x3be0f2b8	0.006864872
31	0x3c008497	0.007844112
32	0x3b85dcae	0.004085145
33	0x3c0dc30f	0.008652463
34	0x3bbec585	0.005821886
35	0x3bbda6f8	0.0057877265
36	0x3bca29b7	0.0061695236
37	0x3c604a36	0.013689568
38	0x3beb3e37	0.0071790474
39	0x3c306c63	0.010768029
40	0x3bb58492	0.0055394853
41	0x3b1c932a	0.0023891428
42	0x3b8c02a3	0.0042727753
43	0x3c342c5f	0.010996907
44	0x3beca76f	0.007222108
45	0x3b0879bc	0.0020824512
46	0x3baaf949	0.0052177054
47	0x3b60ba9d	0.0034290918
48	0x3b820dc6	0.003968927
49	0x3bcaa45b	0.0061841435
50	0x3b7e95ab	0.0038846533
51	0x3c08cb34	0.008349229
52	0x3bb4206b	0.0054970286
53	0x3c1d33a0	0.009594828
54	0x3ad9631f	0.0016585327
55	0x3c8fce0e	0.01755431
56	0x3b51a694	0.0031990157
57	0x3b2b6607	0.0026153342
58	0x3c8d5ff8	0.017257676
59	0x3c64720a	0.013943205
60	0x3b23c4df	0.002498917
61	0x3b7cb7f9	0.0038561805
62	0x3c2f70eb	0.010708074
63	0x3bf84521	0.0075766
64	0x3c38f8a2	0.011289747
65	0x3b98d33b	0.0046638525
66	0x3b2aebd6	0.002608051
67	0x3b244518	0.0025065597
68	0x3c1f5eb1	0.009727166
69	0x3b389c89	0.0028169474
70	0x3b50f571	0.0031884576
71	0x3b92d46a	0.004480888
72	0x3badd9c7	0.005305502
73	0x3b90347a	0.004400787
74	0x3bbf7e2b	0.005843898
75	0x3bd09365	0.006365227
76	0x3cc072fd	0.02349233
77	0x3b688a75	0.0035482917
78	0x3b91a1f6	0.004444356
79	0x3b485327	0.003056714
80	0x3c16c476	0.009202113
81	0x3b052df7	0.0020321587
82	0x3b18a984	0.0023294399
83	0x3bccde79	0.0062521067
84	0x3b8df0f3	0.004331702
85	0x3b6d429c	0.0036203032
86	0x3b787c0d	0.0037915737
87	0x3b0801e7	0.0020753087
88	0x3b1cf880	0.0023951828
89	0x3bf06427	0.007336158
90	0x3caaf95f	0.020870863
91	0x3c0e028e	0.008667601
92	0x3b8a35da	0.0042178454
93	0x3b89f797	0.004210423
94	0x3af7dba9	0.0018910068
95	0x3bd02d78	0.0063530765
96	0x3bea0b0f	0.0071424316
97	0x3bc1da4a	0.0059159147
98	0x3b4bbb57	0.0031087005
99	0x3b697fe8	0.0035629217
100	0x3bb38346	0.0054782955
101	0x3c14e419	0.009087586
102	0x3b1aae99	0.0023602603
103	0x3c9213f9	0.01783179
104	0x3cd60667	0.0261261
105	0x3b8632e3	0.0040954216
106	0x3b169511	0.0022977034
107	0x3be1999e	0.0068847677
108	0x3c914251	0.017731817
109	0x3b858d24	0.004075663
110	0x3bfeb613	0.00777317
111	0x3b997971	0.0046836664
112	0x3b83c345	0.0040210807
113	0x3bc0c296	0.0058825715
114	0x3c5ae597	0.013360403
115	0x3b28d9a9	0.0025764501
116	0x3bd1a18c	0.0063974317
117	0x3b299563	0.0025876395
118	0x3ce7a9b9	0.028279172
119	0x3c63b48e	0.013898028
120	0x3c298e7a	0.0103489105
121	0x3a93b1c7	0.0011268192
122	0x3b0bb7af	0.00213192
123	0x3c82ad34	0.01595173
124	0x3ba1fbc1	0.0049433415
125	0x3bb7beab	0.005607446
126	0x3c2cd9f2	0.010550009
127	0x3b2c5792	0.0026297313
128	0x3b8a5fd9	0.0042228517
129	0x3bfa9a33	0.0076477765
130	0x3c0c52b3	0.008564639
131	0x3b59f0ad	0.0033255026
132	0x3b5cdd78	0.0033701342
133	0x3c38084c	0.011232447
134	0x3c021004	0.007938389
135	0x3b52f4e4	0.0032189423
136	0x3b211bc7	0.0024583207
137	0x3b019086	0.001976998
138	0x3c207e84	0.009795789
139	0x3bb444d2	0.005501368
140	0x3be4c8e9	0.006981958
141	0x3be249e3	0.0069057806
142	0x3b06d8e7	0.0020576061
143	0x3b7713b1	0.0037700946
144	0x3b867240	0.004102975
145	0x3b968918	0.0045939796
146	0x3c1fc3af	0.009751244
147	0x3b388e65	0.0028161046
148	0x3ca945ff	0.02066326
149	0x3b839db8	0.0040166043
150	0x3b20a4b4	0.0024512233
151	0x3b73bddc	0.0037192022
152	0x3c12283a	0.008920724
153	0x3b239f9d	0.0024966963
154	0x3ba06d8a	0.0048958706
155	0x3b240304	0.0025026212
156	0x3becb1d7	0.0072233486
157	0x3b8bdeac	0.004268488
158	0x3ba92864	0.0051622856
159	0x3b876c2e	0.004132769
160	0x3b9b9cd2	0.004748919
161	0x3c89bc22	0.016813342
162	0x3ba3dedb	0.0050009317
163	0x3c0caf8f	0.008586778
164	0x3bf2a282	0.0074046263
165	0x3bf24ad7	0.0073941755
166	0x3c6f31e6	0.014599299
167	0x3b2b73ed	0.0026161626
168	0x3b8f61d6	0.0043756766
169	0x3a9ffccf	0.001220608
170	0x3b9f02e7	0.004852641
171	0x3cc2580f	0.02372363
172	0x3bff800d	0.0077972473
173	0x3bda19e0	0.0066559166
174	0x3b122446	0.0022299453
175	0x3bfbdd48	0.007686291
176	0x3cfc682b	0.03081139
177	0x3b39dbcc	0.002835977
178	0x3c1d8dab	0.009616296
179	0x3c154264	0.009110067
180	0x3bc0d8ce	0.00588522
181	0x3b87680e	0.0041322773
182	0x3c3107a7	0.010805047
183	0x3bccfe33	0.006255889
184	0x3bf20485	0.0073857927
185	0x3c449767	0.011998988
186	0x3be6cfc6	0.0070438115
187	0x3c128c56	0.0089445915
188	0x3b255e57	0.0025233233
189	0x3c7cf819	0.0154400105
190	0x3c8d861f	0.017275868
191	0x3c03390a	0.008009205
192	0x3b99ad19	0.0046898243
193	0x3bd6b28a	0.0065520452
194	0x3b1eac1e	0.0024211477
195	0x3b32c09e	0.0027275453
196	0x3b0238c6	0.0019870265
197	0x3c0ae0e2	0.008476468
198	0x3c8dc822	0.017307345
199	0x3b31f2dd	0.0027152814
200	0x3b99bc63	0.004691647
201	0x3bc0ba1f	0.0058815624
202	0x3c2d3913	0.01057269
203	0x3ad26591	0.0016051998
204	0x3beca2ca	0.0072215544
205	0x3aceee63	0.0015787598
206	0x3b329c5a	0.0027253837
207	0x3c62b433	0.013836908
208	0x3cd7c760	0.026340187
209	0x3c2799b5	0.010229518
210	0x3bc2e841	0.005948097
211	0x3ad9fdb3	0.0016631394
212	0x3be6ccee	0.0070434725
213	0x3c8f75d8	0.017512247
214	0x3bbe51ff	0.0058081145
215	0x3b620330	0.0034486763
216	0x3b8473f0	0.004042141
217	0x3c581edd	0.013190952
218	0x3b2201a1	0.002472021
219	0x3b43bbda	0.0029866607
220	0x3b9467d7	0.0045289802
221	0x3ba32014	0.0049781892
222	0x3b0c8092	0.0021438939
223	0x3c3bcb0c	0.011461984
224	0x3b584907	0.0033002512
225	0x3bb33343	0.0054687574
226	0x3c1e4ef8	0.009662382
227	0x3c4ba34a	0.012429068
228	0x3b6f324c	0.0036498485
229	0x3bc4c1e2	0.006004558
230	0x3cdcff4a	0.0269772
231	0x3ba73bc4	0.00510356
232	0x3b63891b	0.0034719172
233	0x3ba97766	0.005171704
234	0x3b922783	0.0044602766
235	0x3b9a45c7	0.004708025
236	0x3bf4f658	0.0074756555
237	0x3bc133dc	0.0058960747
238	0x3bae461c	0.0053184163
239	0x3c856626	0.01628406
240	0x3be0ca9b	0.00686009
241	0x3be03b7e	0.0068430295
242	0x3b8b259f	0.004246428
243	0x3b0a8ae4	0.0021139914
244	0x3b2e2e0e	0.0026577744
245	0x3bd259f3	0.006419414
246	0x3b97cbb9	0.00463244
247	0x3b48a881	0.0030618014
248	0x3b944483	0.004524769
249	0x3c1442d8	0.00904914
250	0x3bc7bdab	0.006095608
251	0x3b89b567	0.004202533
252	0x3c11dfd2	0.008903461
253	0x3aec4632	0.0018026291
254	0x3bb513fe	0.005526065
255	0x3c50bda7	0.012740529

bias f4 [256]
0	0xb942a74d	-0.00018563606
1	0x39320da1	0.0001698048
2	0x3ab23d7b	0.0013598645
3	0xb9df11ce	-0.0004254714
4	0x3a944d42	0.0011314529
5	0x39afbe17	0.0003352023
6	0x3b1891a2	0.0023280163
7	0x3aae443d	0.0013295483
8	0xbc418a76	-0.011812797
9	0xbb15d33d	-0.0022861504
10	0x3af67968	0.0018804492
11	0xbb6d6eb5	-0.0036229317
12	0x3a6ee1f7	0.0009112651
13	0xba3828e9	-0.0007025139
14	0x3b8b65a8	0.0042540617
15	0x38a11672	7.681259e-05
16	0xbad105a0	-0.0015947111
17	0x382c53df	4.1086107e-05
18	0x3b1834f7	0.002322493
19	0x3a5a2967	0.00083222095
20	0xba4d3775	-0.0007828393
21	0xba11ca84	-0.0005561488
22	0xbba345fe	-0.004982709
23	0x3a52d283	0.0008042233
24	0xbb117ceb	-0.00221997
25	0x3ab74720	0.0013982989
26	0xbad32a47	-0.0016110622
27	0x3b2d019d	0.0026398667
28	0xbb071ce9	-0.0020616597
29	0x3a183fdb	0.0005807855
30	0xbbf65d88	-0.007518474
31	0x399d6a57	0.00030024603
32	0xba13d388	-0.00056391256
33	0xbb040523	-0.0020144663
34	0xba142a2b	-0.00056520355
35	0x39ca8b6a	0.00038632314
36	0xbb77fcd9	-0.0037839918
37	0xbc14dfbc	-0.009086546
38	0xbb9eb40c	-0.0048432406
39	0x3a4ac9c1	0.0007735752
40	0xbbb014c8	-0.005373571
41	0xbb85c8cd	-0.004082775
42	0x3a413f87	0.0007371832
43	0x3b3c30bb	0.002871557
44	0x3a8f84bc	0.0010949592
45	0xbbb2b646	-0.0054538576
46	0x3b2b6a27	0.00261558
47	0x3bfa8835	0.0076456317
48	0x3b992915	0.004674087
49	0x3a248d73	0.0006277181
50	0xbb150d12	-0.0022743386
51	0xba6431e0	-0.0008704942
52	0x3b256129	0.0025234914
53	0xbad0d1f1	-0.0015931708
54	0xbb822a3c	-0.00397232
55	0x3a655345	0.0008748065
56	0xbb106568	-0.00220331
57	0xbb303248	-0.0026885439
58	0x38fc25f6	0.00012023367
59	0xbafb9e4c	-0.0019196956
60	0x3a21c237	0.0006170603
61	0x3c48377c	0.01222026
62	0x3b14f36c	0.0022728099
63	0xbac5a49e	-0.0015078967
64	0xbb7be7fd	-0.0038437836
65	0x3a25a3d0	0.00063186605
66	0x3ad1ca94	0.0016005808
67	0x3985212a	0.00025392446
68	0xbb70d12b	-0.0036745768
69	0xbb0545f1	-0.0020335878
70	0x3aaf39a8	0.0013368623
71	0x3a792896	0.0009504644
72	0xbc124342	-0.008927168
73	0xbbbc81e2	-0.005752788
74	0xbaca456e	-0.0015432069
75	0xba4dc99d	-0.0007850172
76	0xbbeda383	-0.007252158
77	0x39c54a01	0.00037629905
78	0xbb8ed264	-0.0043585766
79	0x3adaeb42	0.0016702192
80	0x3b1923d1	0.0023367296
81	0xbab6a017	-0.0013933209
82	0xbb07248c	-0.002062115
83	0x3a4de13d	0.00078536925
84	0xbb3df547	-0.0028985308
85	0xbab990bd	-0.0014157515
86	0x3b8c7b49	0.0042871577
87	0xbc69cfd9	-0.014270746
88	0x3b6b1824	0.0035872543
89	0xbbd7edbc	-0.0065896194
90	0x3b783f69	0.0037879592
91	0xba0d189d	-0.0005382391
92	0xbb166e00	-0.0022953749
93	0x3bd6d15f	0.0065557207
94	0x3a2cafd6	0.0006587481
95	0x3a820e39	0.0009922452
96	0x3a97f06e	0.0011592039
97	0x3b4fbd47	0.0031698511
98	0xba414d02	-0.0007373841
99	0x3a971ff2	0.0011529906
100	0xbaa33781	-0.0012452455
101	0xb9d132ca	-0.00039901427
102	0xba909991	-0.0011032094
103	0x3a084399	0.0005198061
104	0xba7172da	-0.00092105346
105	0x3a376f60	0.0006997492
106	0x38bcfe4f	9.011907e-05
107	0xba5b8320	-0.0008373726
108	0xbaee666c	-0.0018188483
109	0xba9d49eb	-0.0012000179
110	0xbb34c06d	-0.0027580515
111	0x3a9c5721	0.0011927822
112	0x39eba4dc	0.00044945523
113	0xbb402c47	-0.0029323266
114	0x3b786d8e	0.0037907097
115	0x3bd283e4	0.006424414
116	0xba925415	-0.0011163974
117	0x3b23a102	0.0024967794
118	0x3b49f795	0.0030817736
119	0x3b1157ca	0.002217757
120	0xbb735727	-0.0037130804
121	0xbb54719d	-0.0032416352
122	0xb948d56a	-0.00019152989
123	0xb88ce8a3	-6.719052e-05
124	0x3b141388	0.002259465
125	0xba386d98	-0.0007035374
126	0x3b58ebe0	0.0033099577
127	0x39dc1de2	0.00041983934
128	0xba71f373	-0.0009229697
129	0xbad90eb4	-0.0016560168
130	0x3a39742f	0.00070745026
131	0x3ba201f3	0.00494408
132	0xbb4316c1	-0.00297682
133	0x3a99964e	0.0011717768
134	0xba072c71	-0.00051564636
135	0xbba32dd4	-0.0049798284
136	0xb9961045	-0.0002862235
137	0xbacc3a45	-0.001558133
138	0x3b9dae24	0.004812019
139	0x3c5b11cc	0.013370942
140	0x3b5d3c5b	0.0033757898
141	0x3aded648	0.0017001117
142	0x3a856d21	0.0010179618
143	0x3abe4028	0.001451497
144	0xbb1d5618	-0.0024007615
145	0xb915368c	-0.00014230068
146	0xbb67839b	-0.0035326246
147	0x39f5054b	0.00046733985
148	0x3af9fb5d	0.0019072104
149	0x3a036e59	0.00050136965
150	0xbae48406	-0.0017434366
151	0xb98227da	-0.00024825224
152	0x3b0124a6	0.0019705682
153	0xbab3350f	-0.0013672429
154	0xba943082	-0.001130596
155	0xbb305c5a	-0.0026910515
156	0xbb053097	-0.0020323151
157	0x3b933e98	0.0044935457
158	0xba6d4614	-0.0009051275
159	0x3b40d4cc	0.0029423712
160	0x3a9d8697	0.001201826
161	0xbb75c9d8	-0.0037504341
162	0x3b0f2ee6	0.0021848022
163	0x3aef13ba	0.0018240132
164	0x3bd12bfb	0.0063834167
165	0x3a5aa911	0.0008341233
166	0x3c383d7a	0.011245126
167	0xb9d372c7	-0.00040330572
168	0xba7f9248	-0.00097492756
169	0x3a013ae9	0.0004929738
170	0x3c23416c	0.009964328
171	0xbb1798fc	-0.0023131957
172	0x3ba00aee	0.0048841154
173	0xb9bb71b4	-0.00035752135
174	0x3a6cd578	0.0009034495
175	0x3aa1067a	0.0012285255
176	0xb9c0bad2	-0.00036760286
177	0x3bbf2058	0.005832713
178	0xba81f4f7	-0.0009914924
179	0x39f0a10f	0.00045896365
180	0x3beb0da3	0.0071732565
181	0x3a47ae60	0.00076172315
182	0xb8210626	-3.8391117e-05
183	0xb8beafba	-9.0926376e-05
184	0x3a4d173e	0.0007823593
185	0xbaaa91cc	-0.0013013422
186	0xbab2b7bd	-0.001363508
187	0x39f0fc2e	0.00045964256
188	0xbaa10bec	-0.0012286878
189	0xba684194	-0.00088598696
190	0xbb748775	-0.0037312184
191	0x392c0ee7	0.0001640875
192	0x3ae2e8d9	0.0017311826
193	0x3ac7eedf	0.0015253684
194	0x3a05aa2b	0.00050989044
195	0xbaa975a3	-0.0012928735
196	0xbb6f4a37	-0.0036512741
197	0xb939a4b0	-0.00017704326
198	0x3bdb8330	0.0066989884
199	0x3a6606df	0.00087748276
200	0xbb17aa53	-0.0023142293
201	0xbb120c6c	-0.0022285236
202	0xb99583a7	-0.00028517583
203	0x3a2187be	0.000616189
204	0x3b5a4ddb	0.0033310566
205	0xba52d2d8	-0.00080422824
206	0xb91888ff	-0.00014546885
207	0xbaa8a02e	-0.001286512
208	0x3b0e60fa	0.0021725283
209	0xbb5b9a33	-0.0033508658
210	0xbba20f93	-0.0049457042
211	0x3a20c101	0.00061322754
212	0xba2c5a16	-0.0006574703
213	0xb9e9a03b	-0.00044560604
214	0x3aa3aee7	0.0012488038
215	0xba68bd4d	-0.00088783057
216	0x3b1876a8	0.0023264084
217	0x3b96df23	0.0046042367
218	0x3a9d86db	0.001201834
219	0x3914713f	0.00014156567
220	0x3ad961f9	0.0016584984
221	0xbad4f776	-0.0016248066
222	0xbb7d2aea	-0.0038630315
223	0xbbd9d6ae	-0.0066479063
224	0x3bc81230	0.0061056837
225	0xbba24a1d	-0.0049526826
226	0xba342ea8	-0.00068734074
227	0xba8fdc6f	-0.0010975729
228	0xb9fd5570	-0.00048319576
229	0x3996d020	0.00028765295
230	0xb9b3feeb	-0.0003433147
231	0xba951e83	-0.0011376891
232	0x3928504e	0.00016051644
233	0xbb3d5aa0	-0.0028893128
234	0x3985dd35	0.0002553255
235	0xbb732055	-0.0037098129
236	0xba078793	-0.00051700434
237	0xbb0ac7b8	-0.002117617
238	0xbaa70f97	-0.0012745735
239	0x3a49a525	0.000769215
240	0xbadfebb4	-0.0017083795
241	0x3a497ec4	0.0007686431
242	0xbb9a5beb	-0.0047106645
243	0xba778f8f	-0.0009443694
244	0x3b54754d	0.003241855
245	0x398b9841	0.00026625584
246	0x3add9e74	0.0016908185
247	0x3a8944a3	0.0010472726
248	0x3bd886cc	0.006607866
249	0xbb82b920	-0.003989354
250	0xba3adae9	-0.0007127957
251	0xba93d437	-0.0011278455
252	0xbbbaccb8	-0.005700674
253	0xbae67719	-0.0017583101
254	0x3b083853	0.0020785525
255	0x3aad9616	0.0013243582
