models/kinase_baseModel_JAK1_Model3.pkl (torch, 903019 bytes, 25 tensors)

bias f4 [256]
0	0x3d04d90d	0.03243356
1	0x3e7cf1fa	0.24701682
2	0xbe706c1b	-0.23478739
3	0xbf245c48	-0.6420331
4	0xbe1f7249	-0.1557094
5	0xbc609cd9	-0.01370927
6	0xbcb93add	-0.022611076
7	0xbda24663	-0.079235815
8	0x3981f8ff	0.00024790314
9	0x3f40a282	0.7524797
10	0x3f6994ac	0.9124248
11	0x3d851c6d	0.064995624
12	0x3b944074	0.004524285
13	0xbd17e06d	-0.037079263
14	0x3e5e27a0	0.21694803
15	0x3e6c90fc	0.23102182
16	0xbe08c4f8	-0.13356388
17	0xbefaa42f	-0.48953387
18	0x3f80707e	1.003433
19	0xbce38f54	-0.027778305
20	0xbe3f0116	-0.18652758
21	0x3c24c06e	0.010055644
22	0xbe1e412c	-0.15454549
23	0xbd2e7871	-0.04259533
24	0xbf622166	-0.8833221
25	0x3cf86aa6	0.030324291
26	0x3d0d72ae	0.034533195
27	0xbda81bab	-0.08208402
28	0x3ede63a1	0.43435386
29	0x3be8aa21	0.007100359
30	0x3f0d9d3a	0.55318034
31	0x3de185b6	0.110118315
32	0xbeaf43dd	-0.34231463
33	0xba286e49	-0.0006425125
34	0xbc91cf30	-0.01779899
35	0xbf41a76a	-0.7564608
36	0xbde4045b	-0.11133643
37	0xbbd1ba6d	-0.0064003975
38	0xbeea84d2	-0.4580446
39	0xbed7d5ff	-0.42155454
40	0x3dfb6161	0.12274433
41	0x3b40527b	0.0029346037
42	0x3c7b47b3	0.015336919
43	0xbdeb87c5	-0.11500505
44	0x3e9d24c3	0.3069211
45	0x3d0d77de	0.034538142
46	0xbde6c117	-0.11267298
47	0xbe6f1703	-0.23348622
48	0x3dd0339e	0.10166095
49	0xbf438195	-0.763696
50	0xbea14c40	-0.31503487
51	0xbe298a6d	-0.16556711
52	0xbbbae8c9	-0.0057040197
53	0xbbac413d	-0.0052568004
54	0xbf2652c1	-0.6497002
55	0xbc557a4f	-0.013029649
56	0x3f053a21	0.5204182
57	0xbec21cde	-0.3791265
58	0xbc814ec4	-0.015784629
59	0xbd4265be	-0.04746031
60	0xbe4857da	-0.19564763
61	0x3f53b215	0.82693607
62	0x3e097418	0.13423193
63	0xbe380c98	-0.17973554
64	0x3d9c551e	0.07633422
65	0x3dff8220	0.12475991
66	0x3f79d760	0.9759426
67	0x3f6ea6ef	0.9322347
68	0xbcb98420	-0.02264601
69	0xbd598950	-0.053109467
70	0xbd039b0a	-0.03213028
71	0x3f26e047	0.6518597
72	0x3e1a6acc	0.15079802
73	0x3daa3ec9	0.083127566
74	0xbd03664f	-0.03207999
75	0xbed57fdc	-0.4169911
76	0x3d8cf6ad	0.06882987
77	0xbd991a29	-0.07475693
78	0x3ea6d55d	0.32584658
79	0x3d80fc96	0.06298177
80	0x3e14f48c	0.14546412
81	0xbd9cf9b5	-0.07664815
82	0x3e96977b	0.29412445
83	0x3e9610ff	0.29309842
84	0x3f077977	0.52919716
85	0xbf8b910d	-1.0903641
86	0x3e9377fd	0.2880248
87	0x3f50733e	0.81425846
88	0x3f663617	0.89926285
89	0x3d5667c8	0.052345067
90	0xbc6aad62	-0.014323564
91	0xbc7328a8	-0.014841236
92	0x3dad613f	0.08465814
93	0xbd006d98	-0.031354517
94	0x3dcb1611	0.09916318
95	0xbd5a127d	-0.053240288
96	0xbda06a59	-0.07832784
97	0xbe0e5d9c	-0.13902897
98	0xbbcfb638	-0.006338861
99	0xbdb8df57	-0.09026974
100	0xbdf4a10c	-0.1194478
101	0x3c66e41b	0.0140924705
102	0xbe9c601e	-0.30542082
103	0xbd5ff797	-0.05467948
104	0x3e7a04bf	0.24415873
105	0xbe18cb2a	-0.14921251
106	0x3f2f6075	0.68506557
107	0x3d053496	0.032520853
108	0x3d588864	0.052864447
109	0xbea72b7f	-0.32650372
110	0xbe737700	-0.23775864
111	0xbf8707c0	-1.054924
112	0x3f0ed8db	0.55799645
113	0x3e35af30	0.1774261
114	0x3cb1e104	0.021713741
115	0x3ebfc894	0.37457716
116	0xbc342683	-0.01099551
117	0xbe83f9ea	-0.25776607
118	0x3d103719	0.035208795
119	0x3d63ad8f	0.05558544
120	0x3d7895b3	0.06068964
121	0xbf1c8533	-0.61140746
122	0xbdcaeebd	-0.09908817
123	0xbcb85785	-0.02250267
124	0x3d0f5ffc	0.035003647
125	0xbb5f6ade	-0.0034090797
126	0x3dcc7d38	0.09984821
127	0x3e134fdf	0.14385937
128	0xbb7a47b7	-0.0038189718
129	0xbf63d6af	-0.88999456
130	0x3ecacab7	0.39607784
131	0xbcab66e9	-0.020923095
132	0x3e664970	0.22488952
133	0x3db8790b	0.09007462
134	0x3f0fd4af	0.56183904
135	0xbc78eb01	-0.015192748
136	0x3e222b61	0.1583686
137	0x3e3a9d0e	0.18223974
138	0xbb247573	-0.002509442
139	0xbc8d2ed5	-0.017234245
140	0x3d96374d	0.073347665
141	0xbda92163	-0.08258321
142	0x3f257132	0.6462585
143	0x3e3519c8	0.17685616
144	0xbe8892bd	-0.26674452
145	0x3aab9650	0.0013091061
146	0x3bede983	0.007260503
147	0xbeaa5e04	-0.33274853
148	0xbd4754e0	-0.048664927
149	0x3d56a414	0.05240257
150	0x3d51f119	0.05125532
151	0xbe8a91e7	-0.2706444
152	0xbcb1bacd	-0.021695519
153	0xbecb2cf7	-0.39682743
154	0xbe95ddb2	-0.29270703
155	0x3dfea604	0.12434009
156	0xbeb73ac9	-0.35787037
157	0xbe941b9b	-0.2892731
158	0xbd936516	-0.07197015
159	0xbe013a18	-0.12619817
160	0xbf3e3b16	-0.7430891
161	0x3c901630	0.017588705
162	0x3c95098a	0.018193025
163	0x3c1c6215	0.009544869
164	0x3d6b41df	0.057435866
165	0xbddd7e11	-0.10815061
166	0xbdb296bc	-0.087201566
167	0x3f2d1a63	0.6761839
168	0x3c8db36a	0.017297465
169	0xbed43741	-0.41448405
170	0xbf410460	-0.753973
171	0x3a6cf51c	0.00090392097
172	0xbda42a64	-0.08015898
173	0xbeaaf69b	-0.3339127
174	0x3f1b211e	0.6059741
175	0x3e1a5493	0.15071325
176	0x3d9a28ba	0.07527299
177	0x3c8721fa	0.016495693
178	0xbe798516	-0.24367175
179	0xbce9016d	-0.028443063
180	0x3ea3cf16	0.31993932
181	0x3d352687	0.044226196
182	0xbd0024dd	-0.031285156
183	0xbf7a49ea	-0.97769034
184	0x3cb1cbf4	0.021703698
185	0x3d737002	0.05943299
186	0xbd68a7a8	-0.056800514
187	0xbdf0f8f9	-0.11766238
188	0xbe967a12	-0.29390007
189	0xbdb23588	-0.087016165
190	0xbb73e4f4	-0.0037215324
191	0xbe33aafa	-0.17545691
192	0x3f1867ca	0.5953337
193	0xbeab716b	-0.3348497
194	0x3eaad23a	0.33363515
195	0xbe6312d7	-0.22175156
196	0x3ed0664d	0.4070305
197	0x3ca3a927	0.019978119
198	0xbd810052	-0.06298889
199	0xbea08c8b	-0.31357226
200	0xbd000d71	-0.03126282
201	0xbd37f16a	-0.044907965
202	0x3dc43750	0.095808625
203	0x3f230552	0.63679993
204	0xbc90ec4e	-0.017690804
205	0xbc2e6226	-0.010643518
206	0x3ed59f6a	0.41723186
207	0xbddb0957	-0.10695141
208	0x3b9e3ed5	0.0048292675
209	0xbe1a2dc1	-0.15056516
210	0x3f0869f9	0.532867
211	0xbeea7faa	-0.45800525
212	0xbf14e30a	-0.58158934
213	0x3ddeef20	0.10885453
214	0xbc86fc77	-0.016477806
215	0x3f383099	0.71949154
216	0xbd2530da	-0.04032979
217	0xbe159bf7	-0.14610277
218	0x3e5d3ee7	0.21606027
219	0xbf0f17b5	-0.5589555
220	0xbeb93542	-0.36173445
221	0xbf4ffad1	-0.8124209
222	0x3e88b8a4	0.2670337
223	0x3e7383b5	0.23780711
224	0xbd4464bd	-0.047947634
225	0xbe119288	-0.14216053
226	0xbe9b70b3	-0.3035942
227	0xbd895160	-0.06704974
228	0xbdfc8cf6	-0.12331574
229	0x3ded5cf3	0.11589994
230	0xbc7b83df	-0.015351265
231	0x3e364bc4	0.1780234
232	0xbcbc3803	-0.022975927
233	0xbe6224ae	-0.22084305
234	0x3e439b70	0.19102263
235	0x3f58dcc3	0.84711856
236	0x3eab20f3	0.33423576
237	0xbe045ef2	-0.12926844
238	0x3eec5771	0.46160462
239	0x3dc9e8f8	0.098588884
240	0x3c0275fa	0.007962698
241	0x3e3386bc	0.17531866
242	0xbc032f5d	-0.008006898
243	0x3e5234ff	0.20528029
244	0xbd581644	-0.05275561
245	0x3f589080	0.8459549
246	0xbe8b591a	-0.27216417
247	0x3eec6e71	0.4617801
248	0x3d846cd6	0.06466071
249	0x3de3982b	0.11113008
250	0xbf4a3fc5	-0.79003555
251	0x3fbc0d6a	1.4691594
252	0xbd5115e7	-0.05104628
253	0xbd9dd14f	-0.07705938
254	0xbe9a428c	-0.30128896
255	0xbc0f5590	-0.008748427

weight f4 [256, 75]
0	0x3d3d25f5	0.046178777
1	0x3e4bcd1c	0.19902462
2	0x3d8b8fd1	0.0681454
3	0xbeb0dc96	-0.34543294
4	0xbc82c330	-0.015962213
5	0x3e33982c	0.17538518
6	0xbf1973b8	-0.599422
7	0x3e8c11d0	0.2735734
8	0xbd86e774	-0.06587115
9	0xbdb4e540	-0.088327885
10	0xbcbe7923	-0.023251122
11	0xbce8d1cd	-0.028420353
12	0x3cc618d2	0.024181757
13	0x3d68386f	0.056694444
14	0xbc050869	-0.008119681
15	0x3e0c55d9	0.13704623
16	0xbcf97d54	-0.030455269
17	0xbd4b75b9	-0.049672816
18	0xbdb203ed	-0.08692155
19	0xbdf84b74	-0.121237665
20	0x39c0d74d	0.00036781505
21	0xbdb6fe55	-0.08935229
22	0x3d00b503	0.031422626
23	0x3dfabd9c	0.12243196
24	0x3e011418	0.12605321
25	0xbd53664f	-0.05161124
26	0x3dbfef09	0.09371764
27	0x3e098e3f	0.13433169
28	0x3bba8c1c	0.005692972
29	0x3dd829e6	0.105548665
30	0x3db3a45f	0.08771586
31	0x3d0f3c09	0.034969363
32	0xbdb17032	-0.08663978
33	0xbd19cb0a	-0.03754715
34	0x3db8ac1d	0.09017203
35	0x3c7d1726	0.015447414
36	0x3c8d4bb7	0.017248018
37	0x3c06f391	0.008236782
38	0xbda4fad3	-0.080556534
39	0xbde19bb8	-0.11016029
40	0x3ca5b677	0.020228608
41	0xbdec936a	-0.115515545
42	0xbe07e70e	-0.13271734
43	0xbc3da859	-0.011575782
44	0x3dd93da2	0.10607459
45	0x3c98357d	0.018580193
46	0x3e51583b	0.20443814
47	0xbdd2dd52	-0.1029612
48	0x3c280487	0.010254986
49	0x3cbb3d76	0.022856455
50	0x3def83d6	0.116950676
51	0x3d0c004a	0.034179963
52	0x3c86d936	0.016460996
53	0xbded7e93	-0.11596408
54	0xbc6e063a	-0.014527852
55	0x3e4d5c47	0.20054732
56	0xbd9f9a13	-0.07793059
57	0xbe0696e6	-0.131435
58	0x3df6b216	0.12045686
59	0x3dec8d1d	0.11550353
60	0x3ccc7583	0.024958378
61	0x3de92266	0.11383514
62	0x3eee53e2	0.46548373
63	0xbcff8b03	-0.031194216
64	0x3f0f1e3a	0.559055
65	0x3d89805d	0.067139365
66	0xbd8b82f0	-0.06812084
67	0x3d0ecb6d	0.03486197
68	0xbc78aed5	-0.015178402
69	0xbe38d898	-0.18051374
70	0x3da3b5f7	0.079936914
71	0x3e37bbea	0.17942777
72	0x3d39ec9a	0.045391656
73	0x3da9f0c2	0.08297874
74	0x3ddba5f5	0.10725013
75	0x3e919b44	0.2843877
76	0xbe6ccb9f	-0.2312455
77	0x3cc57470	0.024103373
78	0xbe43fd92	-0.19139698
79	0x3dccbc8d	0.09996901
80	0x3efdbfb4	0.4956032
81	0x3e8192dd	0.2530736
82	0x3dbcabcb	0.092124544
83	0xbe955641	-0.2916737
84	0xbdc805ef	-0.09766757
85	0xbcc3f3cf	-0.023919968
86	0xbcad1fc2	-0.021133307
87	0xbd8a4e85	-0.06753258
88	0x3cd543ff	0.0260334
89	0x3dc6d1cf	0.097079866
90	0xbdd84a01	-0.1056099
91	0x3dcccc74	0.09999934
92	0xbbd8c0cd	-0.0066147805
93	0xbdc6e74d	-0.09712086
94	0x3dfe1b1f	0.12407517
95	0x3bb5b77a	0.0055455538
96	0xbdfa0fbb	-0.122100316
97	0xbdc5ce03	-0.09658434
98	0x3cbcf479	0.023065792
99	0x3e09c06e	0.13452312
100	0xbdbd2b52	-0.09236778
101	0xbddaa377	-0.1067571
102	0x3d63bca0	0.05559981
103	0xbdc578b4	-0.09642163
104	0x3ca0d0e7	0.019630862
105	0xbda6e677	-0.081494264
106	0xbd84148b	-0.06449231
107	0xbd79c49e	-0.060978524
108	0xbdb858c4	-0.09001306
109	0xbded5a2e	-0.11589466
110	0x3d8caf13	0.0686933
111	0x3dd3b1ad	0.10336623
112	0x3cb5210e	0.022110488
113	0x3c89f824	0.016841955
114	0xbcc8415e	-0.024445232
115	0xbcf07126	-0.029350828
116	0x3e00de9d	0.1258492
117	0xbda8964e	-0.08231793
118	0x3bc03a51	0.005866327
119	0x3ddbfc62	0.107414976
120	0x3e9e8d67	0.30967256
121	0xbe1ac3fc	-0.15113825
122	0x3ece93f7	0.40347263
123	0xbe2bef0e	-0.16790411
124	0xbe06b419	-0.1315464
125	0xbb03532e	-0.0020038593
126	0xbc973b7f	-0.018460987
127	0x3c87c06a	0.016571242
128	0xbd9fccd0	-0.07802737
129	0x3db93dcb	0.09044989
130	0x3e106343	0.14100365
131	0x3ddb076c	0.10694775
132	0x3dec0a20	0.11525369
133	0x3d9acb26	0.07558279
134	0xbce4a1ee	-0.027909245
135	0xba49741a	-0.0007684842
136	0xbd99a601	-0.07502366
137	0xbef385c6	-0.47563
138	0xbe516128	-0.20447218
139	0x3d86a252	0.06573929
140	0xbb8c5ef2	-0.0042837793
141	0xbd3fb444	-0.046802774
142	0x3d5d38f9	0.05400941
143	0xbcb201b8	-0.021729335
144	0xbe03ab22	-0.1285825
145	0x3e4f7f3d	0.20263381
146	0xbc42fc07	-0.011900908
147	0x3a5d89e4	0.0008451028
148	0xbd39acf5	-0.04533096
149	0xbdabd15f	-0.08389544
150	0x3de3796b	0.11107143
151	0x3dca44ad	0.0987638
152	0xbecc6da6	-0.39927405
153	0xbed0ad52	-0.40757233
154	0x3eb3332b	0.34999976
155	0xbf51ded4	-0.81980634
156	0x3e9a7264	0.30165398
157	0xbe29637f	-0.16541861
158	0x3dde2d75	0.10848514
159	0xbcbd3c4d	-0.023100043
160	0x3b876d58	0.004132908
161	0x3dd662dd	0.104680754
162	0xbbb2f101	-0.005460859
163	0x3cc6e7ed	0.024280513
164	0xbe0896bd	-0.13338752
165	0xbdd383f4	-0.103279024
166	0xbd727531	-0.059193794
167	0x3d63ac0d	0.055584002
168	0x3d5bad13	0.053631853
169	0xbd2d66f2	-0.042334504
170	0xbd9776c5	-0.073957
171	0x3d06353d	0.032765616
172	0xbd27887a	-0.04090164
173	0xbbecdf2c	-0.0072287526
174	0xbccb2280	-0.024796724
175	0xbda7ea21	-0.081989534
176	0xbc305f3d	-0.010764894
177	0xbd2abfe9	-0.041686926
178	0xbcb559b4	-0.0221375
179	0xbdcb09b8	-0.09913963
180	0x3d413656	0.04717096
181	0x3db9f8eb	0.090806805
182	0xbdac7a6f	-0.0842179
183	0x3dbdd0e8	0.09268361
184	0xbd9c285d	-0.07624886
185	0x3dffe571	0.12494934
186	0xbda597e3	-0.08085611
187	0xbde79ca0	-0.11309171
188	0x3dd76a68	0.10518342
189	0xbdd9e914	-0.10640159
190	0xbdb45877	-0.08805936
191	0xbbc41037	-0.0059833783
192	0xbdeeb26b	-0.11655124
193	0xbddb7036	-0.10714762
194	0x3cc8b73e	0.02450144
195	0xbe230e4f	-0.15923427
196	0x3c0d6d55	0.008632024
197	0xbe08d75e	-0.13363406
198	0x3e91368a	0.28361923
199	0xbcc1510c	-0.023598216
200	0x3d9d720b	0.076877676
201	0x3c3ab812	0.011396425
202	0xbdfb3a63	-0.12266996
203	0xbd2e0d7e	-0.042493336
204	0xbd7a6fdc	-0.061141834
205	0xbceafc7c	-0.028684847
206	0xbe3b795a	-0.1830801
207	0xbe1b920f	-0.15192436
208	0x3ddf1a40	0.10893679
209	0x3dd79de1	0.1052816
210	0x3dd9a94f	0.10627996
211	0xbd773940	-0.060357332
212	0x3f109bd6	0.56487787
213	0xbdbd4d08	-0.09243208
214	0xbe82260e	-0.25419658
215	0x3dad8a57	0.08473652
216	0xbd956de9	-0.07296354
217	0xbe07564d	-0.13216515
218	0xbd808bbd	-0.06276653
219	0xbe78769a	-0.24263993
220	0x3d8233f6	0.06357567
221	0x3cef9e36	0.029250246
222	0xbdd77550	-0.105204225
223	0x3d58c485	0.05292179
224	0x3d408fdc	0.047012195
225	0x3e1a3d6d	0.15062495
226	0xbf0e410c	-0.55568004
227	0x3e3d0755	0.18459828
228	0x3d7088b6	0.058724128
229	0x3b3ee166	0.0029126047
230	0x3e47592d	0.19467612
231	0xbee3d295	-0.444966
232	0xbe31c23a	-0.17359248
233	0xbeec264f	-0.46122977
234	0x3e06e5b9	0.1317357
235	0xbdfa7ed4	-0.12231222
236	0xbcd838e3	-0.026394313
237	0xbe05bac5	-0.13059528
238	0xbddf8ff2	-0.10916127
239	0xbdce2174	-0.100649744
240	0x3d2a1fb5	0.041534144
241	0x3d93e4d5	0.072213806
242	0x3db4634f	0.08808004
243	0xbd436ab7	-0.047709193
244	0x3da5a537	0.08088153
245	0xbdbfa294	-0.09357181
246	0x3a28ccd0	0.0006439211
247	0xbd9121c0	-0.070865154
248	0x3da9e672	0.08295907
249	0xbd03cbd5	-0.03217681
250	0xbdc93cc0	-0.0982604
251	0x3d7b153e	0.061299555
252	0xbb2490b9	-0.0025110675
253	0x3b52e083	0.0032177276
254	0xbdcee346	-0.10101943
255	0xbd7e78b8	-0.062126845

weight f4 [256]
0	0x3fb25909	1.3933421
1	0x4003c784	2.0590525
2	0x3fd0254a	1.626138
3	0x40221407	2.5324724
4	0x3fbbc1e8	1.466855
5	0x3f0cf595	0.5506223
6	0x3fe95e83	1.8231968
7	0x3fc096a0	1.5045967
8	0x403e6f59	2.9755461
9	0x403b4122	2.9258504
10	0x404bf3d0	3.1867561
11	0x3fb2c326	1.3965805
12	0x3f97c4e4	1.1856961
13	0x3fd1f569	1.6403018
14	0x400c2e7e	2.1903377
15	0x4050101a	3.2509828
16	0x3fe666c5	1.8000113
17	0x400986d6	2.1488547
18	0x4035206b	2.8301036
19	0x3fc522d6	1.5401256
20	0x3fcb956a	1.5904973
21	0x3fa1eaa6	1.2649734
22	0x3fa01184	1.2505345
23	0x3faa8ce8	1.3324251
24	0x403fa71a	2.994574
25	0x3fb50935	1.4143435
26	0x3f760315	0.9609845
27	0x40085a33	2.1305053
28	0x4007a38b	2.1193569
29	0x3fc1619e	1.5107915
30	0x402bf6f8	2.6869488
31	0x4018d491	2.387974
32	0x4029d2ac	2.6534834
33	0x4001d315	2.0285084
34	0x3fb1b786	1.3884132
35	0x402bdaa0	2.6852188
36	0x4013d045	2.3095868
37	0x3f8aca89	1.0843059
38	0x40095d0d	2.1463044
39	0x40384abe	2.879562
40	0x3fc7ca28	1.5608568
41	0x3f9af709	1.2106639
42	0x3f8deb78	1.1087484
43	0x3f8ca331	1.0987302
44	0x401d61c7	2.4590929
45	0x4012308f	2.2842138
46	0x4027331f	2.6124952
47	0x3fd9f501	1.7027894
48	0x400e4e8f	2.2235448
49	0x4041165b	3.0169895
50	0x4015c4e8	2.3401432
51	0x4003fa7f	2.062164
52	0x3f408e19	0.75216824
53	0x3f20139e	0.62529933
54	0x4022b131	2.542065
55	0x40023f73	2.0351226
56	0x3fe25e0b	1.768495
57	0x4024425f	2.566551
58	0x3f3e58d3	0.74354285
59	0x40226a08	2.5377216
60	0x4007de8b	2.122958
61	0x4035c40e	2.8400912
62	0x3ff4699c	1.909473
63	0x4004dc32	2.0759397
64	0x400b257e	2.1741633
65	0x3f9d3c01	1.2283937
66	0x403acc56	2.9187217
67	0x402bc1db	2.683707
68	0x3fef14c9	1.8678218
69	0x3fc17af9	1.5115653
70	0x401609ae	2.3443408
71	0x4002cfcc	2.043933
72	0x401f16f5	2.4857762
73	0x3fcd7b2c	1.6053214
74	0x3fa18af4	1.262053
75	0x4014acaa	2.3230386
76	0x3fd01775	1.6257159
77	0x3fead47e	1.8346097
78	0x3fe4b300	1.7867126
79	0x3fb4a13b	1.4111704
80	0x403b21fa	2.9239488
81	0x40033487	2.050081
82	0x3ff456ac	1.908895
83	0x4016447e	2.3479304
84	0x40200694	2.5004015
85	0x4058c8ed	3.3872635
86	0x40277810	2.616703
87	0x401fa552	2.4944654
88	0x4033d153	2.8096511
89	0x3fc80ca6	1.562886
90	0x3fe1f50d	1.7652909
91	0x3f883be5	1.0643278
92	0x40031253	2.0479934
93	0x3f95e098	1.1709166
94	0x3fc5d5ba	1.5455849
95	0x3fd32826	1.6496627
96	0x4006a484	2.1037912
97	0x4023cb23	2.5592735
98	0x400bfd7d	2.1873467
99	0x40037506	2.0540175
100	0x3ffb934b	1.9654325
101	0x3f84091a	1.0315278
102	0x40096627	2.14686
103	0x3f6700ea	0.9023577
104	0x40340758	2.8129482
105	0x3fe24af1	1.767912
106	0x40215dd2	2.5213513
107	0x3eca3508	0.39493585
108	0x3fe8c1b3	1.8184112
109	0x400554d3	2.0833023
110	0x40189446	2.38405
111	0x405244a5	3.2854397
112	0x404517e8	3.0795841
113	0x4025d94f	2.5913885
114	0x3fb20d35	1.391028
115	0x401565bb	2.3343341
116	0x3fd1bf46	1.6386497
117	0x401566c6	2.3343978
118	0x3fa035ef	1.2516459
119	0x400099d3	2.0093887
120	0x401fdb77	2.49777
121	0x401180b4	2.2734804
122	0x3fe70ec6	1.8051383
123	0x3fd6ef1c	1.679172
124	0x3fe4f1d1	1.7886297
125	0x3f63ee2d	0.890353
126	0x3fd2caba	1.6468117
127	0x3ff59d48	1.9188623
128	0x3fa7c271	1.3106214
129	0x40378aa0	2.867836
130	0x40420594	3.0315905
131	0x3f285a61	0.6576291
132	0x3f973559	1.1813155
133	0x4008339d	2.1281502
134	0x400eaeb9	2.2294142
135	0x3fbd5d35	1.479407
136	0x3fe682fb	1.8008722
137	0x3fed2728	1.8527575
138	0x3fb52b81	1.4153901
139	0x3f527f2f	0.82225317
140	0x3fe2d51d	1.7721287
141	0x403cbac8	2.9489002
142	0x40274410	2.6135292
143	0x3fee042c	1.8595023
144	0x4015da8d	2.3414643
145	0x3fe91f48	1.8212671
146	0x3fa1f556	1.2652996
147	0x3ff32215	1.8994776
148	0x3f92fff0	1.1484356
149	0x400178b8	2.022993
150	0x3f816586	1.0109107
151	0x3fcdb0cc	1.6069579
152	0x400abd85	2.1678174
153	0x4033afcc	2.8076048
154	0x401af3ec	2.4211378
155	0x3fe09c80	1.754776
156	0x3ff51550	1.9147129
157	0x3fe6228a	1.797929
158	0x3fce19f5	1.6101671
159	0x3fe29733	1.7702392
160	0x402e4a13	2.7232711
161	0x3fa97a60	1.3240471
162	0x3faecb9b	1.3655885
163	0x3f86a1d8	1.0518141
164	0x3f8dfd85	1.1092993
165	0x40051133	2.0791748
166	0x3faa6c2a	1.3314259
167	0x4017040c	2.359622
168	0x3fa47caa	1.2850544
169	0x403d46b9	2.9574416
170	0x404bd3f2	3.184811
171	0x3fc2de25	1.5224043
172	0x3fbd75e9	1.4801608
173	0x401d9eb6	2.462812
174	0x4027311e	2.6123729
175	0x3fd756d2	1.682337
176	0x3fd473be	1.6597822
177	0x3f433975	0.7625955
178	0x40374c69	2.8640387
179	0x3f597b0c	0.8495338
180	0x4020550a	2.5051904
181	0x3fe69bef	1.8016337
182	0x3fa09c54	1.2547708
183	0x405232fa	3.2843614
184	0x3fd0c4dd	1.6310078
185	0x3fb9e384	1.4522557
186	0x40153b66	2.3317504
187	0x400aed5e	2.1707377
188	0x401fbcef	2.4959066
189	0x3fda60d6	1.7060802
190	0x3f1e1b16	0.6176008
191	0x402956c5	2.645921
192	0x402b93b6	2.6808906
193	0x40262512	2.5960126
194	0x401a2a32	2.4088254
195	0x3fead896	1.8347347
196	0x402a6002	2.6621099
197	0x400debc3	2.2175148
198	0x4018fd02	2.3904424
199	0x3ffb9331	1.9654294
200	0x3f72cb79	0.94841725
201	0x3f0b63b8	0.54449034
202	0x3fdd8eb8	1.7309179
203	0x40028eed	2.0399735
204	0x3f903bf5	1.1268297
205	0x3fc8c431	1.5684873
206	0x40177096	2.3662467
207	0x4003336c	2.0500135
208	0x3ef88691	0.48540166
209	0x3fef30da	1.8686783
210	0x4024c784	2.5746775
211	0x40189898	2.3843136
212	0x40269ae2	2.6032033
213	0x3fd9b5c6	1.7008598
214	0x3f29c76c	0.6631992
215	0x40359e19	2.8377745
216	0x3ff09a80	1.879715
217	0x4033ce74	2.809476
218	0x3fef17ae	1.8679101
219	0x401f7948	2.4917774
220	0x401b70af	2.4287527
221	0x4029e025	2.6543057
222	0x40059f37	2.0878427
223	0x3fe64442	1.7989581
224	0x4038de90	2.8885841
225	0x401271ae	2.2881885
226	0x402c4259	2.6915495
227	0x3fd86841	1.6906816
228	0x3fe9b8a6	1.8259475
229	0x40087213	2.1319625
230	0x3fb21670	1.3913097
231	0x3fd1b626	1.6383712
232	0x3f986162	1.1904719
233	0x3fde3a61	1.7361566
234	0x3ff50f83	1.9145359
235	0x404a423f	3.1602933
236	0x401b3f48	2.4257374
237	0x40224bdf	2.5358808
238	0x401b84f5	2.42999
239	0x3fba49ab	1.4553732
240	0x3fd368a7	1.6516312
241	0x40563f33	3.3476074
242	0x3fc12ee7	1.5092438
243	0x401e624c	2.4747496
244	0x3fa7f3c7	1.312127
245	0x40330f81	2.7978213
246	0x4006c69c	2.1058722
247	0x3fdb39be	1.7126997
248	0x3fcfa3d2	1.6221869
249	0x3f9445b5	1.1583773
250	0x40324d04	2.7859507
251	0x4042e14c	3.045001
252	0x4014cd57	2.325033
253	0x402ca783	2.697724
254	0x4020b5c7	2.5110948
255	0x3fe409db	1.7815508

bias f4 [256]
0	0xbf816c8a	-1.0111248
1	0xbe770ee7	-0.24126779
2	0xbe15a11d	-0.14612241
3	0x3ddc2222	0.10748698
4	0xbe8fc13c	-0.28077114
5	0x3ef6d56b	0.482097
6	0x3c914af1	0.01773593
7	0x3ec598a0	0.38593006
8	0x3f3ae573	0.7300636
9	0xbe1305a2	-0.14357617
10	0x3e2ed5b4	0.17073709
11	0xbf03ae62	-0.5143796
12	0xbde39a34	-0.11113396
13	0x3e8ee1bd	0.279066
14	0x3ec9723c	0.39344966
15	0xbe90cdf6	-0.28282136
16	0x3ea5304d	0.32263413
17	0x3e879aa2	0.26485163
18	0x3d97f182	0.07419111
19	0x3f1d240f	0.61383146
20	0x3efc1a3a	0.4923876
21	0x3e9f650d	0.31131783
22	0xbf19abd3	-0.6002781
23	0xbefea6ed	-0.4973673
24	0x3e0edd14	0.13951522
25	0xbe62f83e	-0.2216501
26	0xbf3e9300	-0.74443054
27	0xbf33b27a	-0.7019421
28	0xbe4e9922	-0.20175603
29	0xbddf2c29	-0.10897095
30	0xbe0876c4	-0.13326555
31	0x3ebbf149	0.36707523
32	0xbe32b9cb	-0.17453687
33	0x3f155d99	0.58345944
34	0x3d80fc6a	0.06298144
35	0x3f32bd2f	0.6981992
36	0xbd665f69	-0.056243334
37	0x3f40a85e	0.7525691
38	0x3e7f8b20	0.24955416
39	0x3e8f079c	0.27935493
40	0x3f156e82	0.58371747
41	0xbe877726	-0.2645809
42	0xbf239597	-0.6390013
43	0xbf60ae6c	-0.87766147
44	0x3ee65418	0.44986033
45	0x39ed63a3	0.00045278398
46	0x3db36a41	0.08760501
47	0x3e565870	0.20932174
48	0x3cb0d40d	0.021585489
49	0x3e2a37fa	0.16622916
50	0x3f07e3dd	0.53082067
51	0xbebaba03	-0.3647004
52	0x3f701c53	0.9379322
53	0x3f6125ef	0.8794851
54	0xbe82ae3f	-0.25523564
55	0x3de58889	0.11207683
56	0x3eef62ff	0.46755216
57	0x3f489b1c	0.7836168
58	0x3f5f9fbc	0.8735311
59	0x3e0c4621	0.13698627
60	0xbf26ff63	-0.6523344
61	0x3d20ae50	0.039228737
62	0xbedfc3f0	-0.43704176
63	0x3f58b6f2	0.8465415
64	0x3f5fae05	0.8737491
65	0xbf910b58	-1.1331587
66	0xbed78c91	-0.4209943
67	0xbe889acc	-0.266806
68	0xbdef7bfb	-0.11693569
69	0xbe1b3bb3	-0.15159492
70	0xbea57943	-0.32319078
71	0x3f7884c5	0.9707759
72	0x3e81b004	0.25329602
73	0x3d690c04	0.056896225
74	0xbe2f60fd	-0.17126842
75	0xbe763fad	-0.24047728
76	0x3ea3a1ea	0.31959468
77	0xbeaf2d6a	-0.34214336
78	0xbf35c23a	-0.7099949
79	0xbd0ba5d3	-0.03409369
80	0x3e251a27	0.16123258
81	0x3e425fc6	0.18981847
82	0xbef00dce	-0.46885532
83	0xbd9adb4a	-0.07561357
84	0xbe2421b1	-0.16028477
85	0xbe576b79	-0.21037091
86	0xbefa1cbd	-0.4885005
87	0x3ec12fe2	0.37731844
88	0x3ecd0032	0.40039212
89	0x3ee8bd0b	0.45456728
90	0xbe944d8c	-0.28965414
91	0xbe8cb894	-0.27484572
92	0x3e2fc7d4	0.17166072
93	0xbe94836e	-0.29006523
94	0xbf378e93	-0.71701926
95	0xbf21cf11	-0.63206583
96	0xbca714e0	-0.020395696
97	0x3e5e6bbe	0.21720788
98	0x3e8e78a8	0.27826428
99	0xbf130596	-0.574304
100	0xbf2886cb	-0.6583068
101	0xbf85a013	-1.0439476
102	0x3ef892f4	0.48549616
103	0xbf2ef520	-0.6834278
104	0xbec6c7af	-0.38824221
105	0x3f39845d	0.72467595
106	0x3d9263d7	0.07147949
107	0xbf6c32cf	-0.9226503
108	0x3e1d608e	0.15368864
109	0xbf335efd	-0.70066816
110	0xbf06afa8	-0.5261178
111	0x3df0b159	0.117525764
112	0x3ef46f3b	0.47741112
113	0xbd99de08	-0.07513052
114	0x3e80a6b9	0.251272
115	0xbeb5175b	-0.3536938
116	0x3e2ad881	0.16684152
117	0xbee21735	-0.4415833
118	0xbdd2de2c	-0.10296282
119	0x3eb188b8	0.3467462
120	0xbe7a2ca1	-0.24431087
121	0xbd8996d1	-0.06718219
122	0x3d8869eb	0.06660827
123	0x3e01913e	0.12653062
124	0x3e44b1ee	0.192085
125	0x3ec49901	0.38397983
126	0x3ebb5e82	0.3659554
127	0xbeb2ed21	-0.3494654
128	0xbebb8e3e	-0.3663196
129	0xbe5634ff	-0.20918654
130	0x3e898645	0.26860252
131	0xbf3bed5a	-0.73409045
132	0xbee5d2a5	-0.44887272
133	0x3e577caf	0.21043657
134	0xbe4289fe	-0.18997952
135	0xbee1e2bd	-0.441183
136	0x3ed477a3	0.41497526
137	0xbe48f5de	-0.19625041
138	0xbe71fc58	-0.23631418
139	0x3c742133	0.014900493
140	0x3ee7eec6	0.45299357
141	0xbd5e0c68	-0.05421105
142	0xbe1fb0b5	-0.15594752
143	0xbda648ae	-0.08119331
144	0x3e97abc4	0.29623234
145	0xbf1e2a98	-0.6178374
146	0xbf0a11f9	-0.53933674
147	0x3f0ae1a6	0.5425056
148	0xbf61359b	-0.8797242
149	0x3f1fb052	0.6237842
150	0x3eb73783	0.3578454
151	0x3f2c6be1	0.6735211
152	0x3f35eb80	0.7106247
153	0xbe974a2b	-0.29548773
154	0x3d465658	0.048422188
155	0x3f4c0415	0.7969373
156	0xbdbfc553	-0.093638085
157	0x3f1163a6	0.56792676
158	0x3f243bde	0.6415385
159	0x3f949074	1.1606584
160	0xbe3c0b84	-0.18363768
161	0xbe86bf62	-0.26317888
162	0xbe71439d	-0.23560949
163	0xbeefebcb	-0.46859583
164	0x3eadbd84	0.3393365
165	0xbd80d052	-0.06289734
166	0x3ef77b6d	0.48336354
167	0x3eb829df	0.35969445
168	0x3e56298f	0.20914291
169	0xbde95c68	-0.11394578
170	0xbe5d553e	-0.21614549
171	0x3f307903	0.6893465
172	0xbf1d5b2e	-0.61467254
173	0xbe38783d	-0.18014617
174	0xbf2e7dc4	-0.68160653
175	0x3f3a7dfb	0.7284848
176	0x3e1d4539	0.15358438
177	0xbf484787	-0.7823414
178	0xbe220389	-0.15821661
179	0xbf46013b	-0.7734563
180	0x3f00179a	0.50036013
181	0x3ee85428	0.45376706
182	0x3f1a68f0	0.6031637
183	0x3dcbe233	0.099552535
184	0x3f3861be	0.7202414
185	0x3e158f4d	0.14605446
186	0xbbdda30a	-0.0067638205
187	0xbf3d9662	-0.7405759
188	0xbf150bdf	-0.5822124
189	0xbf1e9f35	-0.6196168
190	0xbe5a5612	-0.21321896
191	0xbe7a96da	-0.24471608
192	0xbeb6c65a	-0.35698205
193	0x3f0bb260	0.54569054
194	0xbde9ec76	-0.114220545
195	0x3f1a0439	0.60162693
196	0x3dfa51e1	0.122226484
197	0xbf1a14ae	-0.60187805
198	0x3e1eb10a	0.15497223
199	0x3ebce7b2	0.3689552
200	0x3ddf1480	0.10892582
201	0x3e8c6ac8	0.27425218
202	0xbd8ce066	-0.06878738
203	0xbe907a89	-0.28218487
204	0x3db546b7	0.088513784
205	0xbe6ba687	-0.23012744
206	0xbe583c98	-0.21116865
207	0x3d6bbcc3	0.057553064
208	0x3f492e95	0.78586704
209	0x3ed4b31b	0.41542897
210	0x3e82811a	0.25489122
211	0x3ed4305d	0.41443148
212	0xbc175b6a	-0.009238103
213	0xbe8d3a14	-0.27583373
214	0xbe07f383	-0.13276486
215	0xbe371193	-0.17877798
216	0xbc483f16	-0.012222072
217	0x3daaf49a	0.08347435
218	0xbd61a100	-0.055085182
219	0xbef3a61c	-0.4758767
220	0x3edf5057	0.43615982
221	0x3ece073b	0.4023989
222	0x3eb5cc27	0.35507318
223	0xbe9f22ec	-0.3108133
224	0xbd81fbad	-0.063468315
225	0xbeefcbd5	-0.468352
226	0x3efb8a7d	0.49129096
227	0xbf48c946	-0.7843212
228	0x3e44ae4c	0.19207114
229	0x3e7a854a	0.24464908
230	0xbea843d9	-0.32864264
231	0xbe3cc490	-0.18434358
232	0x3f2cf7eb	0.6756579
233	0x3e2af825	0.16696222
234	0xbcda9fa6	-0.026687454
235	0x3e7d2858	0.24722421
236	0x3f32035e	0.6953639
237	0x3ed3ba14	0.41352904
238	0x3e9066c0	0.28203392
239	0x3bb50436	0.0055241836
240	0x3e5d0bbd	0.21586509
241	0x3dd60c38	0.10451549
242	0x3f5c7094	0.8610928
243	0xbe4e8044	-0.20166117
244	0x3e7e3e92	0.24828556
245	0xbf07b39f	-0.53008455
246	0x3dba084d	0.090836145
247	0xbf1758bd	-0.5911978
248	0x3d4d4bad	0.050121
249	0xbf4bde54	-0.7963612
250	0xbebc97ed	-0.3683466
251	0xbf23548a	-0.6380087
252	0x3dfd0905	0.12355236
253	0xbef998b0	-0.48749304
254	0xbd3f4126	-0.04669299
255	0xbe8441bb	-0.25831398

running_mean f4 [256]
0	0x3e910898	0.2832687
1	0x3f25858f	0.6465692
2	0xbebd6026	-0.36987418
3	0xbf618d84	-0.8810656
4	0xbeae3098	-0.3402145
5	0x3e118aff	0.14213179
6	0x3df2636a	0.11835368
7	0xbd998e61	-0.0749786
8	0x3c4e4cd6	0.012591561
9	0x3f391b71	0.723075
10	0x3fc91961	1.571087
11	0x3ee682f4	0.45021784
12	0x3d2ddc76	0.042446576
13	0xbea21215	-0.3165442
14	0x3e966c79	0.29379633
15	0x3e9b20b0	0.30298376
16	0xbeb472ee	-0.35243934
17	0xbf8f8848	-1.1213465
18	0x3fac337b	1.345321
19	0x3d63875c	0.05554901
20	0xbeee272b	-0.46514258
21	0x3e63b71d	0.22237821
22	0xbf317a22	-0.69326985
23	0xbbda37d5	-0.0066594877
24	0xbf905980	-1.1277313
25	0xbcd1e5b4	-0.025622226
26	0xbeb32c6c	-0.3499483
27	0xbdb76f9d	-0.089568354
28	0x3f11d80e	0.569703
29	0x3e66f522	0.22554448
30	0x3f58fd7b	0.8476178
31	0x3ef0d6a9	0.47038773
32	0xbf7b8823	-0.98254603
33	0x3cf7c8e8	0.030247167
34	0xbd90ea48	-0.070759356
35	0xbf774cb3	-0.9660141
36	0xbcda0f9e	-0.026618775
37	0xbea2995b	-0.31757626
38	0xbf3448e7	-0.7042374
39	0xbf5b90ae	-0.8576764
40	0x3e6a5a10	0.22885919
41	0x3ca91f08	0.02064468
42	0x3dbace5b	0.091213904
43	0xbf1cb12c	-0.6120784
44	0x3dfdfd44	0.12401822
45	0x3e69b2cd	0.22822113
46	0xbd5c966a	-0.053854384
47	0xbf3e7e26	-0.7441124
48	0x3e113c02	0.14183047
49	0xbf8eddca	-1.1161435
50	0xbf001b68	-0.5004182
51	0xbec14b10	-0.3775258
52	0xbe888f10	-0.26671648
53	0x3d0632f7	0.032763448
54	0xbf8ed6b5	-1.1159273
55	0xbe190cc3	-0.14946274
56	0x3f11c5bb	0.5694234
57	0xbf374997	-0.71596664
58	0xbe020789	-0.12698187
59	0xbe88a3fc	-0.2668761
60	0xbea23bb6	-0.3168618
61	0x3f7b8edf	0.9826488
62	0x3ebc13c2	0.36733824
63	0xbf656fe5	-0.8962386
64	0x3e0b83b3	0.13624458
65	0x3f1f0c9d	0.6212862
66	0x3fb67770	1.42552
67	0x3f91e644	1.1398396
68	0xbdf50884	-0.11964515
69	0xbd783c75	-0.06060453
70	0xbe30e1f8	-0.172737
71	0x3f701e69	0.937964
72	0x3e64f827	0.22360288
73	0x3ec93904	0.39301312
74	0x3e803d03	0.25046548
75	0xbf43df59	-0.76512676
76	0x3e6d2384	0.2315808
77	0xbf2d4569	-0.67684036
78	0x3f31efb4	0.6950638
79	0x3e61a87c	0.22036928
80	0x3eaa2b1e	0.3323602
81	0xbec53ab9	-0.38521364
82	0x3f50fc66	0.8163513
83	0x3f2f2cf5	0.68427974
84	0x3f4ad9b7	0.79238456
85	0xbfd01bd4	-1.6258492
86	0x3f0f57af	0.5599317
87	0x3fa3c536	1.2794559
88	0x3f9be4bb	1.2179178
89	0x3ee37b43	0.4442998
90	0x3d248c39	0.04017279
91	0x3d493e4a	0.04913167
92	0xba03875f	-0.0005017425
93	0xbc90233a	-0.017594922
94	0x3eb38b46	0.35067195
95	0xbd5c74c2	-0.053822286
96	0xbd24a4c6	-0.040196203
97	0xbf1dddac	-0.6166637
98	0xbd48f119	-0.049058054
99	0xbe36d41d	-0.17854352
100	0xbe99980f	-0.29998824
101	0x3e83f0f7	0.2576978
102	0xbecc3379	-0.3988302
103	0xbd3ee219	-0.046602342
104	0x3efb5a93	0.4909254
105	0xbef3fc23	-0.47653303
106	0x3f91d2c1	1.1392442
107	0x3e402d80	0.18767357
108	0x3efdc502	0.49564368
109	0xbf77efcb	-0.9685027
110	0xbf09fc74	-0.5390084
111	0xbf909932	-1.1296751
112	0x3f95962e	1.1686456
113	0x3e28949f	0.16462944
114	0x3e3e0d50	0.18559766
115	0x3f196ac2	0.59928524
116	0x3d100726	0.035163067
117	0xbe9de6c9	-0.30840138
118	0x3e2d355d	0.16914888
119	0x3eb050bb	0.34436592
120	0x3e91b810	0.2846074
121	0xbf561c40	-0.83636856
122	0xbe4232b8	-0.1896466
123	0xbd8f2168	-0.069887936
124	0x3e003fdd	0.12524362
125	0xbe819429	-0.2530835
126	0x3ea322d6	0.31862515
127	0x3d0efaae	0.034907036
128	0xbd1bcada	-0.03803525
129	0xbfba4843	-1.4553303
130	0x3f11dd03	0.5697786
131	0x3ef9c2dc	0.48781478
132	0x3f081b09	0.5316625
133	0x3ebbc9f9	0.3667753
134	0x3f58c7bc	0.8467977
135	0x3b45e9ed	0.0030199245
136	0x3edddf16	0.43334264
137	0x3e5fcd05	0.21855552
138	0x3c89afd7	0.01680748
139	0x3ce71b6d	0.02821132
140	0x3e5db658	0.2165159
141	0xbd99bec7	-0.07507091
142	0x3fa16ce5	1.2611357
143	0x3f03e5a1	0.5152226
144	0xbe94f337	-0.29091808
145	0xbeb7b068	-0.35876775
146	0xbee134e6	-0.4398567
147	0xbf01f6a4	-0.5076697
148	0x3d8914d9	0.066934295
149	0x3dc2aabf	0.095052235
150	0x3e24a84d	0.16079827
151	0xbee684ff	-0.45023343
152	0x3d433e87	0.047667053
153	0xbeaccf1f	-0.3375177
154	0xbed5aa17	-0.4173133
155	0x3dd48e9f	0.10378765
156	0xbf6c6135	-0.92335826
157	0xbf56247d	-0.83649427
158	0xbece9897	-0.40350792
159	0xbe89bead	-0.26903287
160	0xbf8c8129	-1.0976917
161	0x3ea74d4d	0.32676163
162	0x3e708363	0.2348762
163	0x3ea0e93b	0.3142794
164	0xbeda28f0	-0.42609358
165	0xbddfb601	-0.10923386
166	0xbeeb5819	-0.4596565
167	0x3f693a54	0.91104627
168	0x3db91be1	0.090385206
169	0xbf1cdbfe	-0.6127318
170	0xbf8ea5f5	-1.1144396
171	0xbe8a2e74	-0.26988566
172	0xbef68af8	-0.481529
173	0xbf15b854	-0.5848439
174	0x3f63edf8	0.89034986
175	0x3ed7dba1	0.4215975
176	0x3e0bb5c2	0.13643554
177	0xbe0a2845	-0.13491924
178	0xbf1ddd19	-0.61665493
179	0x3e5a80e9	0.21338238
180	0x3f1e647c	0.61872077
181	0x3df38caf	0.11892068
182	0xbe385f48	-0.18005097
183	0xbfaaca3a	-1.3342965
184	0x3e8ce2a2	0.27516657
185	0x3e8100c6	0.25195903
186	0xbe327225	-0.17426355
187	0xbec1398c	-0.37739217
188	0xbf00b706	-0.5027927
189	0xbdae9031	-0.08523596
190	0xbcea04c1	-0.02856672
191	0xbde2c352	-0.11072411
192	0x3f2e57b2	0.6810256
193	0xbf0347a7	-0.5128121
194	0x3f25756d	0.646323
195	0xbeeeef86	-0.46667117
196	0x3f0f2f32	0.5593139
197	0x3e4a5643	0.19759469
198	0xbdb39a81	-0.08769704
199	0xbf0ff245	-0.5622905
200	0xbec4c0fc	-0.38428485
201	0x3e12d475	0.14338858
202	0x3e867b67	0.26266024
203	0x3f8ae264	1.0850339
204	0xbed41ea4	-0.41429627
205	0x3bf56a75	0.0074894973
206	0x3efe1707	0.49626943
207	0xbe9b928b	-0.3038524
208	0x3dbdc8dd	0.09266827
209	0xbe179864	-0.14804226
210	0x3f40ab2c	0.7526119
211	0xbf491e1d	-0.78561574
212	0xbf866c39	-1.0501777
213	0x3ef20b57	0.47274277
214	0x3e231e77	0.1592959
215	0x3fa342ad	1.2754723
216	0xbe3c399d	-0.18381353
217	0xbe94fbcc	-0.29098356
218	0x3f061ef6	0.5239099
219	0xbf5f387e	-0.87195575
220	0xbf193f05	-0.59861785
221	0xbfabca0e	-1.3421037
222	0x3f5f5db6	0.87252367
223	0x3f11c52b	0.5694148
224	0x3b8314c8	0.00400028
225	0xbf01daaa	-0.5072428
226	0xbeb1b2be	-0.34706682
227	0xbeb02ff8	-0.34411597
228	0xbecc854f	-0.39945456
229	0x3ebcfddb	0.36912426
230	0xbe203500	-0.15645218
231	0x3f0d79e2	0.55264103
232	0xbd6a0786	-0.05713608
233	0xbeed5b45	-0.46358696
234	0x3ec3e834	0.38263094
235	0x3f848b02	1.0354922
236	0x3f18b1d7	0.5964636
237	0xbdf252d1	-0.11832202
238	0x3f13e9c8	0.57778597
239	0x3dcad144	0.099031955
240	0xbe4c2b44	-0.1993838
241	0x3e769d9b	0.24083559
242	0x3c2bcb8a	0.010485539
243	0x3e7e636e	0.24842617
244	0xbd3dae39	-0.04630873
245	0x3f9297e6	1.1452606
246	0xbf10d307	-0.56572
247	0x3f4487d8	0.7676978
248	0x3eb33b93	0.3500639
249	0x3f1ae5dd	0.60506994
250	0xbfa5f9b3	-1.2966827
251	0x3fd58c52	1.6683447
252	0xbe1fb320	-0.15595675
253	0x3b4cdcb2	0.0031259474
254	0xbebadca9	-0.36496475
255	0x3d8f31ef	0.06991946

running_var f4 [256]
0	0x3ca724bb	0.020403257
1	0x3d1aff27	0.03784099
2	0x3bf6da03	0.0075333132
3	0x3cb6f53c	0.022333734
4	0x3caed682	0.02134252
5	0x3d57d385	0.052691955
6	0x3d0cc741	0.03436971
7	0x3cb75bcc	0.02238264
8	0x3c9a180e	0.018810298
9	0x3c2d16a0	0.010564476
10	0x3c9bd75d	0.019023592
11	0x3c88936a	0.016671855
12	0x3d0f4e18	0.034986585
13	0x3ce1b635	0.027552703
14	0x3d3725a9	0.04471365
15	0x3ba00f67	0.0048846486
16	0x3c91f699	0.017817782
17	0x3c3917d2	0.011297183
18	0x3c100a27	0.008791483
19	0x3e8705c1	0.26371577
20	0x3c961429	0.01832016
21	0x3d4b0200	0.049562454
22	0x3d13e1d6	0.036104046
23	0x3d2615ba	0.040548064
24	0x3cbd3914	0.023098506
25	0x3cd54d89	0.026037948
26	0x3cf201b7	0.029541833
27	0x3d0ba36e	0.034091406
28	0x3ca33b38	0.019925699
29	0x3c3396f8	0.010961287
30	0x3d12ebc3	0.03586937
31	0x3d04a512	0.032383986
32	0x3d3206f0	0.043463647
33	0x3d86af3c	0.06576392
34	0x3d0fe0ab	0.03512637
35	0x3c290604	0.010316376
36	0x3c45f41d	0.012082127
37	0x3d2a9105	0.041642208
38	0x3c65a569	0.014016488
39	0x3ce208c8	0.027592078
40	0x3cfe5143	0.031044608
41	0x3d14b710	0.036307395
42	0x3cbee9a5	0.02330477
43	0x3cebf733	0.028804397
44	0x3d153a8d	0.03643279
45	0x3c45d605	0.012074952
46	0x3c7bfe14	0.015380401
47	0x3c644324	0.013932023
48	0x3c930260	0.017945468
49	0x3d02cab6	0.0319316
50	0x3cc63de2	0.02419943
51	0x3d86837a	0.06568046
52	0x3ca8a836	0.020588022
53	0x3d5b87e3	0.05359639
54	0x3c463b78	0.012099139
55	0x3d7aba71	0.06121296
56	0x3c877ae0	0.016538084
57	0x3c228f12	0.009921806
58	0x3d59225b	0.05301128
59	0x3da6a558	0.081370056
60	0x3c9e3fab	0.019317469
61	0x3c3b9fa8	0.011451639
62	0x3cd19348	0.025582924
63	0x3cb6848f	0.022280006
64	0x3d319155	0.04335149
65	0x3c49329d	0.012280134
66	0x3c470d72	0.012149202
67	0x3c4901b6	0.012268474
68	0x3d82abcc	0.06380424
69	0x3d1d2936	0.03836938
70	0x3d1115b0	0.035421073
71	0x3cd97d66	0.026549052
72	0x3ca95262	0.020669166
73	0x3ca2da8a	0.019879598
74	0x3c400fe9	0.011722543
75	0x3ca287c3	0.019840127
76	0x3d3be7ea	0.045875467
77	0x3cd4b08b	0.025963088
78	0x3c44729d	0.011990217
79	0x3d351d51	0.04421741
80	0x3d6529cb	0.05594806
81	0x3c814149	0.0157782
82	0x3c95b0af	0.018272726
83	0x3d1bf608	0.03807643
84	0x3cbb4433	0.022859668
85	0x3c72fa28	0.01483015
86	0x3cda6f07	0.02666427
87	0x3ce567cd	0.028003598
88	0x3c872701	0.01649809
89	0x3ce241e0	0.027619302
90	0x3d7b1e6e	0.061308317
91	0x3d8b5122	0.06802584
92	0x3cec0711	0.028811963
93	0x3d017b71	0.031611864
94	0x3c12e42e	0.008965535
95	0x3c871e91	0.016494067
96	0x3d521e80	0.05129862
97	0x3d3b42e5	0.045718092
98	0x3d10b3ed	0.03532784
99	0x3c686a26	0.014185464
100	0x3d357ca4	0.04430832
101	0x3d368047	0.04455593
102	0x3d089ba8	0.03335157
103	0x3d75114d	0.059830952
104	0x3d22cc4c	0.039745614
105	0x3bb6ba66	0.0055764196
106	0x3c2555fd	0.010091302
107	0x3cebda6a	0.028790671
108	0x3d341e13	0.043973994
109	0x3ca57700	0.020198345
110	0x3cad4a03	0.021153456
111	0x3c865d44	0.016401894
112	0x3d05c81b	0.03266154
113	0x3d4fed04	0.050763145
114	0x3d364c62	0.044506438
115	0x3c2db128	0.010601319
116	0x3c8b026d	0.01696893
117	0x3cad534f	0.021157889
118	0x3d7eb59b	0.06218491
119	0x3dd2eddf	0.102992766
120	0x3de31aad	0.110890724
121	0x3c29aa1c	0.010355499
122	0x3cd7aa6e	0.026326384
123	0x3d5ca7a8	0.053870827
124	0x3d153ced	0.036435056
125	0x3d4d3c71	0.05010647
126	0x3c964860	0.018345058
127	0x3cbdd9d5	0.02317516
128	0x3c17fcfb	0.009276624
129	0x3cbd4191	0.023102554
130	0x3c83866d	0.01605531
131	0x3d04b223	0.032396447
132	0x3cd8749f	0.026422797
133	0x3da4ab26	0.080404565
134	0x3c23cc4d	0.00999744
135	0x3c840be5	0.016118953
136	0x3c631544	0.013860051
137	0x3c98fa58	0.01867406
138	0x3d07f719	0.033194635
139	0x3d2e7ba1	0.04259837
140	0x3d3c6496	0.045994364
141	0x3d13aa28	0.036050946
142	0x3c3b7134	0.011440564
143	0x3cf328f2	0.02968261
144	0x3ccd00d4	0.025024809
145	0x3d7e2b5b	0.062053066
146	0x3d394c0b	0.045238536
147	0x3c2b463a	0.010453755
148	0x3dc8bff5	0.09802238
149	0x3cb22e77	0.021750672
150	0x3ce475af	0.027888147
151	0x3c0e6370	0.0086907
152	0x3d0ff389	0.035144363
153	0x3c317c1d	0.010832814
154	0x3d074f60	0.033034682
155	0x3cedafc6	0.02901448
156	0x3d015502	0.03157521
157	0x3c995747	0.018718375
158	0x3c96842f	0.018373577
159	0x3d4c65a7	0.04990163
160	0x3cb3c271	0.021943303
161	0x3d1b1159	0.03785834
162	0x3c456173	0.0120471595
163	0x3d4316d4	0.047629192
164	0x3c8b729f	0.017022429
165	0x3ccc055d	0.024904901
166	0x3cae66b3	0.021289205
167	0x3c3ab2de	0.011395184
168	0x3d56c79e	0.052436464
169	0x3cf52ef5	0.029929617
170	0x3d0432d8	0.03227505
171	0x3d37474f	0.04474574
172	0x3d32303b	0.043503027
173	0x3ca9108d	0.020637775
174	0x3bd1d9ed	0.0064041526
175	0x3d5a645a	0.05331836
176	0x3d4f7539	0.0506489
177	0x3d70c853	0.058784794
178	0x3d6edbdf	0.058315154
179	0x3c873124	0.016502924
180	0x3d2da350	0.042392075
181	0x3c1e9801	0.009679795
182	0x3dfa43a0	0.1221993
183	0x3c5f6509	0.0136349285
184	0x3d425314	0.04744251
185	0x3d504160	0.050843596
186	0x3d186703	0.037207615
187	0x3d69c2f4	0.057070687
188	0x3c54cde1	0.0129885385
189	0x3cc85172	0.024452899
190	0x3d813bfc	0.06310269
191	0x3d15373a	0.03642962
192	0x3c39ad40	0.01133281
193	0x3d01f564	0.031728163
194	0x3cb0be19	0.02157502
195	0x3c3f88fa	0.011690373
196	0x3c27c0c9	0.010238835
197	0x3cfe7cea	0.031065423
198	0x3d5ef7bc	0.054435477
199	0x3c660bbe	0.0140408855
200	0x3d841b69	0.064505406
201	0x3d10256a	0.03519193
202	0x3d22c54c	0.03973894
203	0x3c4fe5f9	0.012689107
204	0x3d05686e	0.032570295
205	0x3c6c885e	0.014436809
206	0x3c751e3c	0.014960822
207	0x3ce0e966	0.027455043
208	0x3d686a5e	0.056742065
209	0x3cd95d17	0.026533647
210	0x3c4cf10f	0.012508645
211	0x3cb0cda1	0.021582427
212	0x3ce30f08	0.027717128
213	0x3d225a6a	0.039637007
214	0x3d29a9c8	0.04142168
215	0x3c9f416b	0.019440373
216	0x3c6a33cb	0.014294575
217	0x3dc7f924	0.09764317
218	0x3d2cf289	0.042223487
219	0x3c8f1903	0.017467981
220	0x3c8945de	0.016756948
221	0x3c55a050	0.01303871
222	0x3c2c6b34	0.010523606
223	0x3ccf5c80	0.025312662
224	0x3c85b014	0.016319312
225	0x3cccf70b	0.025020143
226	0x3d278048	0.040893823
227	0x3dcbb0d1	0.099458344
228	0x3cb816b9	0.022471773
229	0x3d51f7db	0.051261764
230	0x3da20ea6	0.0791295
231	0x3cabb474	0.02096007
232	0x3ccedf1d	0.025252873
233	0x3c7e0809	0.015504845
234	0x3cd64c73	0.0261595
235	0x3cff44a4	0.03116066
236	0x3d232cba	0.039837576
237	0x3d08b02b	0.033371132
238	0x3ccd051d	0.025026852
239	0x3d0d4791	0.03449208
240	0x3d12f899	0.035881612
241	0x3d8faf88	0.07015902
242	0x3cf4556e	0.029825892
243	0x3cee3147	0.029076232
244	0x3cc0fbe3	0.023557609
245	0x3c3310d0	0.010929301
246	0x3c83717e	0.016045328
247	0x3c76e432	0.015069054
248	0x3cb36545	0.021898875
249	0x3c6759d8	0.0141205415
250	0x3c8d6903	0.017261988
251	0x3bd6c3b0	0.0065540895
252	0x3d1d7850	0.038444817
253	0x3cdc8a23	0.026921337
254	0x3ccdb57e	0.025110956
255	0x3d7c03a9	0.061526928

bias f4 [256]
0	0x3c200899	0.009767675
1	0xba2c2156	-0.0006566247
2	0xba098b9c	-0.00052469387
3	0x3b57dbf4	0.0032937499
4	0x3ae5e140	0.0017538443
5	0x3b76a04b	0.0037632163
6	0x3a79caf3	0.0009528838
7	0xba2d10b7	-0.0006601917
8	0x3c43a192	0.011940377
9	0xbc2409f0	-0.010012135
10	0xbb8a6a6d	-0.0042241127
11	0x3b55f2e0	0.0032645985
12	0xbaa1020d	-0.0012283936
13	0xb9b7a2ec	-0.00035025866
14	0x3a405b9c	0.00073378696
15	0xbbc85f15	-0.0061148503
16	0xbb3810ee	-0.0028086263
17	0xbaed5f56	-0.0018110077
18	0xbb6da636	-0.00362624
19	0x3b97b893	0.0046301573
20	0xbb58b2f9	-0.003306566
21	0x39b2feac	0.0003414055
22	0xbacca96c	-0.0015614456
23	0x3c685199	0.014179611
24	0xb94f915a	-0.00019795206
25	0x3bca9cdc	0.00618325
26	0x3c20108c	0.00976957
27	0xbc3cab1a	-0.011515403
28	0x3b20a4a6	0.00245122
29	0x3b992883	0.004674019
30	0x3b243fd6	0.0025062463
31	0x3b2db929	0.002650807
32	0x3b0cc7fc	0.0021481505
33	0x3a5d0b18	0.0008432134
34	0xbb1d981f	-0.002404697
35	0xbc10cc70	-0.008837804
36	0x3b972514	0.0046125744
37	0x3be6aab7	0.0070393938
38	0xbbb60da1	-0.005555824
39	0xba10ea25	-0.00055280543
40	0x3b199da9	0.002343992
41	0x3af08ea8	0.0018353062
42	0xba34b9b0	-0.00068941247
43	0xbc3228c4	-0.010873977
44	0xb8dcedcd	-0.00010534711
45	0xbbee5d88	-0.0072743334
46	0x3a7af9e2	0.00095739786
47	0x3c9505f4	0.018191315
48	0xbac03056	-0.0014662843
49	0xbb95e111	-0.004573949
50	0x3b9ad278	0.004724797
51	0xbb265597	-0.0025380605
52	0xbbac5cf2	-0.0052601034
53	0xbbbdd868	-0.00579362
54	0x3c7d8b2f	0.0154750785
55	0x3c02f5f5	0.007993211
56	0xba22d8cd	-0.00062121154
57	0x3a7a2be0	0.0009543281
58	0x39fd6f4e	0.0004833885
59	0x3b5cc184	0.003368468
60	0xbacb87e6	-0.0015528172
61	0x3a326e21	0.00068065716
62	0xbb3e8c55	-0.0029075344
63	0x3bfd5c8f	0.007731981
64	0xba2721f9	-0.0006375607
65	0x3ca72a4d	0.020405913
66	0x3b3059ce	0.0026908997
67	0x3b5db23e	0.0033828164
68	0x3aa3f388	0.0012508491
69	0x3b2da388	0.0026495177
70	0xbbdda72a	-0.0067643123
71	0x3adc2dcc	0.0016798317
72	0xbc8b53f4	-0.017007805
73	0x3b913966	0.0044318913
74	0xbbd3eb86	-0.0064672856
75	0xba0975ef	-0.0005243709
76	0x3b0d8316	0.0021593026
77	0xba07ff33	-0.0005187869
78	0xbaa50b3e	-0.0012591851
79	0x3c2c1653	0.010503369
80	0x3ae8fb58	0.0017775102
81	0x3b53cdca	0.0032318705
82	0xbc00d165	-0.007862424
83	0xbb9bccb9	-0.0047546295
84	0xba9c0d3c	-0.00119058
85	0xba167496	-0.00057394186
86	0x3b6cee75	0.0036152874
87	0x3c983ead	0.018584574
88	0x3a30d183	0.0006745087
89	0x3c103d85	0.00880373
90	0x3c02decd	0.00798769
91	0x3990c1b1	0.00027610132
92	0xbb58135c	-0.0032970523
93	0xbaa8716c	-0.0012851185
94	0x3b73de81	0.003721148
95	0xbb819a4b	-0.0039551607
96	0x3b4c1df4	0.0031145783
97	0x39a5a4a3	0.00031593916
98	0x3a864540	0.0010244027
99	0xbb9eae05	-0.004842522
100	0x3b6b53f5	0.0035908197
101	0xbb108d0f	-0.0022056734
102	0x3be6e232	0.0070460076
103	0xbaec3a06	-0.0018022663
104	0xbb1623d2	-0.0022909534
105	0xbb38b90e	-0.0028186473
106	0xba95fd23	-0.0011443238
107	0x3ab19ba1	0.0013550409
108	0x3a880014	0.0010376
109	0x3b19f282	0.0023490493
110	0x3c02b49a	0.007977629
111	0xbb60dcb2	-0.0034311232
112	0x3b5c385a	0.0033602924
113	0x3a1060ef	0.00055076083
114	0x3ad71f2f	0.0016412492
115	0x3bc43076	0.0059872223
116	0xbc33e8e2	-0.010980817
117	0x3b121360	0.002228938
118	0x3994d494	0.00028387143
119	0x3b727349	0.0036994985
120	0xbb371dc9	-0.0027941337
121	0xb8d34423	-0.000100739555
122	0x3c0ba822	0.008523973
123	0xbad5c3b7	-0.0016308938
124	0x3b019116	0.0019770316
125	0xbbb9a2fa	-0.0056651803
126	0x3b66e39a	0.0035230876
127	0x3aa222fb	0.0012370044
128	0x3a944bc1	0.001131408
129	0x3be0d647	0.0068614813
130	0x3b8d810f	0.0043183635
131	0x3b2275cb	0.0024789448
132	0xbabda62d	-0.001446908
133	0x3a5853d4	0.00082522375
134	0xbab5ac4e	-0.0013860555
135	0x3a5852cc	0.0008252084
136	0xbc3ad204	-0.011402611
137	0xbb714b51	-0.0036818574
138	0xbc0a173a	-0.008428389
139	0x3b0ea476	0.0021765507
140	0xb9ea2d6d	-0.00044665803
141	0x3b0cf95c	0.0021510934
142	0xbbf0208d	-0.007328099
143	0x3b968308	0.004593257
144	0xbc85576b	-0.016277036
145	0x3b22e6d6	0.0024856827
146	0xbc0cec85	-0.0086013125
147	0x3b9c1c07	0.0047640833
148	0x3ab3c008	0.0013713846
149	0xbbd55745	-0.0065106475
150	0xbadca781	-0.0016834588
151	0x3b86fb52	0.004119315
152	0x3b355783	0.002767057
153	0x3b589f7f	0.0033054051
154	0xbba405ac	-0.005005559
155	0x3b926397	0.0044674384
156	0xb93dce93	-0.000181014
157	0x3b2cdf66	0.0026378273
158	0xb9b7ff27	-0.00035094583
159	0xbae2e639	-0.0017311043
160	0x3c238223	0.0099797575
161	0x3c4608f8	0.012087099
162	0xb8c08c0e	-9.181361e-05
163	0xbbe87582	-0.007094086
164	0x39ed0af9	0.00045212338
165	0xbab2b8a5	-0.0013635351
166	0x3b0f9a2e	0.0021911967
167	0xbc174618	-0.00923302
168	0x3b802da8	0.0039116926
169	0x3b64c4d1	0.003490735
170	0x3ba219b3	0.0049469112
171	0x3c40bef0	0.011764273
172	0xbb9b2cad	-0.0047355504
173	0xbb3f0ae7	-0.0029150785
174	0x3b3e4741	0.002903417
175	0x3b1a845f	0.0023577434
176	0x3af82e02	0.001893461
177	0xbb2430c7	-0.0025053488
178	0x3b09d8b7	0.0021033713
179	0x3a99ff11	0.0011748989
180	0xbcabf526	-0.02099092
181	0xba89f0ff	-0.0010524093
182	0xb9973592	-0.00028840877
183	0x3a8f44d3	0.0010930545
184	0xbb263f8b	-0.0025367464
185	0xbc207840	-0.009794295
186	0xbb905e7b	-0.004405794
187	0xbb398ef2	-0.0028313962
188	0xba8b2b15	-0.0010617698
189	0x3ad75ccd	0.0016430855
190	0x3b63c60f	0.0034755503
191	0xbac1d720	-0.0014788844
192	0xbb6b9c95	-0.0035951484
193	0xb959dd60	-0.00020777201
194	0xb9fb703e	-0.00047958078
195	0xb8a8773e	-8.033075e-05
196	0xba3353b3	-0.000684078
197	0x3c2cd2f0	0.010548338
198	0xbc3a4bac	-0.011370581
199	0xbb3594e0	-0.0027707145
200	0x3b17df92	0.002317403
201	0x3bb139cd	0.0054085017
202	0xbc1346f0	-0.008989081
203	0xbb58f5d0	-0.00331055
204	0x3c0091e0	0.007847279
205	0xbb85505e	-0.0040684184
206	0xb953f4bf	-0.00020213703
207	0xbb1bcac7	-0.0023771988
208	0x3b1a65bc	0.0023559174
209	0x3829c1b6	4.0473147e-05
210	0xbbf97856	-0.007613222
211	0x3ba805ac	0.0051276293
212	0xbb75a690	-0.0037483312
213	0xbb31820c	-0.002708557
214	0xba996933	-0.0011704325
215	0x3b8669b0	0.0041019544
216	0x3add1ab2	0.0016868918
217	0xbb782a22	-0.003786691
218	0xbb64a90f	-0.0034890806
219	0x3b6166d1	0.0034393559
220	0x3b54ca9b	0.0032469395
221	0xbb03f3de	-0.002013437
222	0xbc0b9d1b	-0.008521344
223	0x3983e765	0.0002515867
224	0xbc3c22f0	-0.011482939
225	0x3c23d5b8	0.009999685
226	0x3ad02faf	0.0015883351
227	0x3bba2b63	0.0056814416
228	0xbbe2fb84	-0.0069269557
229	0xba60652b	-0.0008559997
230	0x3b4e7272	0.003150132
231	0x3aaa724e	0.0013004036
232	0x3b0de7ac	0.002165298
233	0x3ad09846	0.0015914522
234	0x3b499062	0.0030756225
235	0xba81a294	-0.0009890371
236	0xbb2a29f0	-0.0025964938
237	0xbac7a8d5	-0.0015232811
238	0xbb8e2fca	-0.004339193
239	0x3b48e3b2	0.0030653295
240	0x3c5e0d5a	0.013552988
241	0xba347a60	-0.00068846904
242	0x3c9d7de9	0.019225078
243	0x3a673252	0.0008819449
244	0x3b6b58ad	0.003591101
245	0xbb851ce4	-0.004062282
246	0xbba24c86	-0.00495297
247	0x3a87c1b3	0.001035741
248	0x3b9a635f	0.004711553
249	0xbafee908	-0.0019448111
250	0x3baa226b	0.005192091
251	0x3b26dd67	0.0025461556
252	0xbbe8a3fc	-0.0070996266
253	0x3b0d1d69	0.0021532422
254	0x3bcd81b5	0.006271566
255	0xbc4cfb1a	-0.012511039
