models/kinase_baseModel_JAK2_Model3.pkl (torch, 903019 bytes, 25 tensors)

bias f4 [256]
00000000: c86a 073f ab23 a13e 3a5c bfbe 339a d9bd
00000010: 92a5 c7bc 5b4b cf3b 6c22 babd e933 8dbe
00000020: 3667 3b3e c93c b8bd 7faf d23e 5545 d13e
00000030: ef20 543c 875a 2dbd 298f 8f3e 2fe3 fd3c
00000040: d569 1ebf daee 99bf 2bb8 323f 2c3e 04bc
00000050: 7e73 16be 5642 f8ba a11a 09be b6b4 86bc
00000060: 7266 0fbe 0524 223d 5ef0 9bbd bdcf 22bf
00000070: 12f2 73bb 464d 1d3d 88d6 6b3d 167d c33d
00000080: 9ca2 82be 1fb8 6f3c cd46 f83c 8c19 a2be
00000090: 2d4a 923e 8c69 9b3c 4064 a5be 1b54 67bf
000000a0: 22aa bc3e d90b 76bf 704d 893c 6be7 c6be
000000b0: 45eb 643d 421a 87be ca6e 3c3e cb81 e5be
000000c0: 0a01 f53d d064 78be 98a1 0fbf e800 b4bd
000000d0: b18f abbe 65f9 6e3c 1e58 9fbe 1c6e 53bd
000000e0: 90cb 943e 2ea1 f5be 78bf ea3d 1028 8c3d
000000f0: b324 b7bd 9782 a83e 49b8 b93e bb10 0dbf
00000100: 057e 6e3c a4d3 aa3e 1366 903e 5b3a a53f
00000110: 28e5 9bbc 13b6 c33d 604c cfbc 78ab b93e
00000120: 844b 81bd b9e0 533f aa20 ad3b 6ad3 a2be
00000130: dbb8 8c3c 9757 f0be 89ba 873e 77ba f93d
00000140: a9ac 163e b477 d4be a3b8 443f 7f16 0b3f
00000150: 11ba 043f 3beb 20bf 5c2a a33d 1b2a b83c
00000160: 749e 3f3f 352c 143e d8fe d83c 85d6 15bc
00000170: d886 18bd 322a 6cbc 1839 f33e e5ba c33e
00000180: 6c46 08bf 66ff b1bd 4cc3 85be e49c 1e3d
00000190: 4c51 78bd 7277 373e cd44 85be a36b 78bd
000001a0: 9607 d23c 2ad9 85be 370a d43e 7926 543d
000001b0: 16d9 e23d 0d10 87be ac8b 273d 7842 37bf
000001c0: ff60 9c3d 6209 9f3b 6b47 ff3b 8d4c 603f
000001d0: a991 f73d cc87 20bd 74f0 85bc 2732 8e3c
000001e0: db9a d3bc 6a7d ccbe 84e4 98bc e261 0a3a
000001f0: 5619 80bd 7638 39ba 4bd6 bdbb 30b1 c63e
00000200: e3b9 65be 5e5d 8dbe 1f7f 47bc 6a9d 573d
00000210: 7705 f53e 4550 5e3d 2fe2 d13d 7383 a0bd
00000220: c142 7f3e 00da 7ebd 89fb 323d bbbc a43b
00000230: 6e98 0e3e 22ab 3cbe 2c0a 163f 2934 3b3e
00000240: 9b07 8dbe d3ad 123c 2211 4c3d 0d0a a9be
00000250: 3ecb 21bd e7ca 8a3e dce0 3a3e dffe 1cbf
00000260: 165e a2b9 5d8c 88be b9bd 9ebe 4869 533d
00000270: d35f b9be f0a4 39bd 1097 24bd a92f 77bd
00000280: 4bb5 52bf de3f 433b 94fa eebc 0753 973d
00000290: a9a0 bfbd 65f9 6bbe 8bb1 fdbb 06aa 9c3e
000002a0: 3758 aabd 9b04 7b3d 3367 41be 85e6 8d38
000002b0: edc0 9ebd f7ea 5abf 6625 a23d 5b3c 413f
000002c0: 7d9f f5bc ace5 7dbd 5d66 a5bd 46e3 a03c
000002d0: 86c7 473e 30e9 d83d af0f 5fbd 4519 eebd
000002e0: 476a ee3c f3f1 523d 844a 8e3c 81a6 f2bd
000002f0: 6e45 dabd bb21 cebd e524 a7bd 8632 1dbe
00000300: 66b7 eb3e 881f 10be 4f1b b03e 257b 0bbf
00000310: c334 d3be 0279 e43c a01c 46bd c2b4 ccbe
00000320: 2671 04be f3b9 713c b967 073e 772d 8fbc
00000330: c377 97bd cf7f cb3e e301 923e f8cd c8bd
00000340: 6ea6 a1bc 7e60 c5bb 065c 853e 1ba3 99bf
00000350: bb8f 38be 8b05 f73e d777 cabc adb0 363e
00000360: bddc 503d 6da2 4ebc 333b 523e faab 32bf
00000370: fbe6 0ebf c4a7 10bf 3945 403f df53 2cbd
00000380: bd2d 7d3e 4e8c 00bf ee8b 57be 4aa5 80bd
00000390: 8c75 0ebf 7400 b33b c7da 55bb 6e61 813c
000003a0: b236 cc3c a33d 2fbe 4975 dfbc a870 da3e
000003b0: ba07 ea3e 354c 86be 2b73 ad3e 0c44 c0bc
000003c0: 9d4b 11be a6e6 b7bc fe67 c2bc a828 573e
000003d0: e20d 61be f5a4 973c 5d4b 19bf 978c cd3e
000003e0: 3589 513f 6b79 113e 9d7c 2cbf 88f6 1f3f
000003f0: 6a99 49be da38 15bc 43ea 95be f90f b7bc
0.5289731 0.31472525 -0.3737505 -0.10625114 -0.024370942 0.0063261217 -0.09088597 -0.27578667
0.1830109 -0.08995969 0.41149518 0.4087321 0.012947305 -0.04232266 0.2803891 0.030992119
-0.61880237 -1.2026017 0.6981227 -0.008071464 -0.14692494 -0.0018940668 -0.13389064 -0.016443592
-0.14003924 0.039585132 -0.07614206 -0.63598233 -0.0037223143 0.03840377 0.05757764 0.095453426
-0.25514686 0.0146313 0.030307198 -0.31660116 0.28572217 0.018971227 -0.32303047 -0.9036271
0.3684855 -0.9611183 0.016760558 -0.38848433 0.055888433 -0.2638722 0.18401638 -0.44825587
0.11963089 -0.24257207 -0.5610595 -0.08789235 -0.33508065 0.0145858275 -0.31121916 -0.05161868
0.29061556 -0.47974533 0.11462301 0.06843579 -0.08942547 0.32912132 0.3627341 -0.55103654
0.014556413 0.33364594 0.28202876 1.2908434 -0.019030169 0.09556212 -0.025304973 0.36263633
-0.063132316 0.82764775 0.005283435 -0.3180192 0.01717799 -0.46941826 0.26509503 0.121937685
0.14714302 -0.41497576 0.76844233 0.543312 0.51846415 -0.62858933 0.07967064 0.022481015
0.74851155 0.14469989 0.026488706 -0.009145384 -0.037237972 -0.014414357 0.47504497 0.38228527
-0.53232455 -0.086912915 -0.26125562 0.03872384 -0.060624406 0.17916659 -0.26029053 -0.060649525
0.025638383 -0.26142246 0.41414043 0.051794503 0.11076562 -0.26379433 0.040904686 -0.715858
0.07635688 0.0048534134 0.007790496 0.8761681 0.12088329 -0.039192006 -0.016350009 0.017357899
-0.025830677 -0.39939433 -0.018663652 0.0005278868 -0.062548324 -0.0007065603 -0.005793368 0.38807058
-0.22434191 -0.27610296 -0.012176304 0.052640356 0.47855732 0.05427577 0.10248219 -0.07837572
0.24927808 -0.06221962 0.043696914 0.0050273812 0.13925335 -0.18424657 0.5860927 0.18281616
-0.27544865 0.008952576 0.049821027 -0.3301548 -0.039500467 0.27107927 0.1824984 -0.613264
-0.00030969147 -0.2666959 -0.31004122 0.051614076 -0.3620592 -0.045323312 -0.040183127 -0.060348187
-0.8230788 0.0029792706 -0.02917222 0.07388883 -0.09356815 -0.23044355 -0.007742112 0.30598468
-0.08317607 0.06128369 -0.18887024 6.7663415e-05 -0.077516414 -0.8551478 0.079172894 0.7548272
-0.029983277 -0.06198661 -0.08076165 0.019639622 0.19509706 0.10591352 -0.054458316 -0.116259135
0.029103411 0.051500272 0.017369516 -0.11848164 -0.10657774 -0.10065027 -0.08161334 -0.15351304
0.4603836 -0.14074528 0.34395835 -0.5448478 -0.41251191 0.027889732 -0.048367143 -0.39981657
-0.12933788 0.014753806 0.13223161 -0.017477734 -0.073958896 0.39745948 0.28517064 -0.098049104
-0.01973268 -0.0060234657 0.2604677 -1.2002901 -0.18023579 0.48246416 -0.024715347 0.17840834
0.050991762 -0.0126119675 0.20530395 -0.69793665 -0.558212 -0.5650599 0.75105625 -0.042072173
0.24724479 -0.5021409 -0.21049473 -0.062815264 -0.5564811 0.0054627005 -0.0032631622 0.015793528
0.024928425 -0.17113356 -0.027277606 0.42664075 0.4570902 -0.26230016 0.3387693 -0.023469947
-0.14189 -0.022448849 -0.023731228 0.21011603 -0.21977952 0.018511275 -0.5988062 0.40146324
0.81849986 0.14206474 -0.67377645 0.6248555 -0.19687429 -0.009107793 -0.2928029 -0.022346484

weight f4 [256, 75]
00000000: 2e91 613e 1fed c73d 5de0 083e 0951 3dbe
00000010: db07 273e d440 0a3e ebf5 15be 16fb 003e
00000020: 7d7e 80be 40e5 b4bd 2379 bebc cdd1 e8bc
00000030: d218 c63c 6f38 683d 6908 05bc 59cc c0ba
00000040: 547d f9bc b975 4bbd ed03 b2bd 744b f8bd
00000050: 4dd7 c039 55fe b6bd 03b5 003d 9cbd fa3d
00000060: 1814 013e 4f66 53bd 09ef bf3d 3f8e 093e
00000070: 1c8c ba3b e629 d83d 5fa4 b33d 093c 0f3d
00000080: 3270 b1bd 0acb 19bd 1dac b83d 2617 7d3c
00000090: b74b 8d3c 91f3 063c d3fa a4bd b89b e1bd
000000a0: 77b6 a53c 6a93 ecbd 0ee7 07be 59a8 3dbc
000000b0: a23d d93d 45b1 8e3e 7c37 823e 112f 04be
000000c0: 781a 54be 763d bb3c d683 ef3d 4a00 0c3d
000000d0: 36d9 863c 937e edbd 3a06 6ebc 3189 233e
000000e0: 3427 34bd a42e aa3c 1c81 2c3e 1d8d ec3d
000000f0: 8375 cc3c 6622 e93d 6a9c 153e 790b 3ebe
00000100: 25a9 ec3d 13a0 2f3e 1f40 92bb 6dcb 0e3d
00000110: d5ae 78bc 2626 a8bd 88b1 463e 9397 ba3d
00000120: c957 4a3e 4f20 063e f5a5 db3d a493 3f3e
00000130: 4a43 04be ff47 833e a369 52be 08a7 fbbd
00000140: 982a ff3d 6de5 663f df30 53be 594c 153f
00000150: ef05 c8bd cff3 c3bc c21f adbc 854e 8abd
00000160: ff43 d53c cfd1 c63d 22b8 1dbd 74cc cc3d
00000170: cdc0 d8bb 4de7 c6bd 1f1b fe3d 7ab7 b53b
00000180: bb0f fabd 03ce c5bd 79f4 bc3c 6ec0 093e
00000190: 522b bdbd 77a3 dabd a0bc 633d b478 c5bd
000001a0: e7d0 a03c 77e6 a6bd 8b14 84bd 9ec4 79bd
000001b0: c458 b8bd 2e5a edbd 13af 8c3d adb1 d33d
000001c0: 0e21 b53c 24f8 893c 5e41 c8bc 2671 f0bc
000001d0: 9dde 003e 4e96 a8bd 513a c03b 62fc db3d
000001e0: 6adc c93e d7ec 2fbe 7f60 aa3e 6d4e 7d3b
000001f0: 19b4 06be 2e53 03bb 7f3b 97bc 6ac0 873c
00000200: d0cc 9fbd cb3d b93d 6053 113e 8e60 423e
00000210: bae0 ba3d 023a ac3d eea1 e4bc 1a74 49ba
00000220: 01a6 99bd ef37 1c3e 5829 14be 768b bc3d
00000230: 44e1 0bbd acb1 1c3c f938 5d3d b801 b2bc
00000240: 430c e6bd c298 283e b4dd ea3d 85ba bdbc
00000250: f4ce 16bd 5fd1 abbd 88d4 3d3e 82d5 3b3e
00000260: 1204 6cbe 8987 52be fee0 3a3e c0af 10bf
00000270: fc52 883c 0941 8dbe ab94 433e 4d3c bdbc
00000280: 586d 873b dd62 d63d 01f1 b2bb ede7 c63c
00000290: bd96 08be f361 6abe 3175 72bd 0dac 633d
000002a0: 13ad 5b3d f266 2dbd c576 97bd 3d35 063d
000002b0: 7a88 27bd 2cdf ecbb 8022 cbbc 21ea a7bd
000002c0: 3d5f 30bc e9bf 2abd b459 b5bc b809 cbbd
000002d0: 5636 413d ebf8 b93d 6f7a acbd e8d0 bd3d
000002e0: 5d28 9cbd 71e5 ff3d e397 a5bd a09c e7bd
000002f0: 686a d73d 14e9 d9bd 7758 b4bd 3710 c4bb
00000300: 6bb2 eebd 3670 dbbd 3eb7 c83c f5a9 d9bd
00000310: 469a b43c 11bb 8ebc b1f4 f33d 0c51 c1bc
00000320: 0b72 9d3d 12b8 3a3c 633a fbbd 7e0d 2ebd
00000330: dc6f 7abd 0c7a 8d3d a539 5cbe 0367 05be
00000340: 6d55 273e e19d d73d 4fa9 d93d 4039 77bd
00000350: b55c 40be e6e7 c8bd 947d 51be d33c 133d
00000360: b496 2e3d 4d56 07be bd8b 80bd d3ed 8abe
00000370: 52d9 333e b660 61bb 841f abbd 31f4 db3d
00000380: dc8f 403d 253d 843e 9dc6 00bf 5211 3b3e
00000390: 9501 1dbe a35d 8c3d 4471 e0be 7cab 253f
000003a0: fdab 8ebe 5ed2 573e b9e5 063e d47e fabd
000003b0: e338 d8bc c5ba 05be f28f dfbd 7421 cebd
000003c0: 0e64 ac3e d5e4 933d 4f63 b43d b76a 43bd
000003d0: 37a5 a53d 94a2 bfbd d0cc 283a c021 91bd
000003e0: 72e6 a93d d5cb 03bd c03c c9bd 3e15 7b3d
000003f0: b990 24bb 83e0 523b 46e3 cebd b878 7ebd
0.22028038 0.09762024 0.13366838 -0.18487944 0.1631159 0.13501292 -0.14644592 0.12595782
-0.25096503 -0.088327885 -0.023251122 -0.028420353 0.024181757 0.056694444 -0.008119681 -0.0014709338
-0.030455269 -0.049672816 -0.08692155 -0.121237665 0.00036781505 -0.08935229 0.031422626 0.12243196
0.12605321 -0.05161124 0.09371764 0.13433169 0.005692972 0.105548665 0.08771586 0.034969363
-0.08663978 -0.03754715 0.09017203 0.015447414 0.017248018 0.008236782 -0.080556534 -0.11016029
0.020228608 -0.115515545 -0.13271734 -0.011575782 0.10607459 0.2786962 0.25432956 -0.1290858
-0.20713222 0.022856455 0.116950676 0.034179963 0.016460996 -0.11596408 -0.014527852 0.15970303
-0.0439827 0.020774193 0.16846126 0.11550353 0.024958378 0.11383514 0.14610448 -0.18559064
0.11555699 0.17150907 -0.0044632102 0.03486197 -0.015178402 -0.08210401 0.1940366 0.09110942
0.1976005 0.13098262 0.10725013 0.18708664 -0.12916294 0.25640866 -0.2054811 -0.12287718
0.12459296 0.90193826 -0.20624112 0.5831962 -0.09766757 -0.023919968 -0.021133307 -0.06753258
0.0260334 0.097079866 -0.03850568 0.09999934 -0.0066147805 -0.09712086 0.12407517 0.0055455538
-0.122100316 -0.09658434 0.023065792 0.13452312 -0.09236778 -0.1067571 0.05559981 -0.09642163
0.019630862 -0.081494264 -0.06449231 -0.060978524 -0.09001306 -0.11589466 0.0686933 0.10336623
0.022110488 0.016841955 -0.024445232 -0.029350828 0.1258492 -0.08231793 0.005866327 0.107414976
0.39425975 -0.17180191 0.33276746 0.0038651482 -0.1315464 -0.0020038593 -0.018460987 0.016571242
-0.07802737 0.09044989 0.14191961 0.18982145 0.091248944 0.084095016 -0.027909245 -0.0007684842
-0.07502366 0.15255712 -0.14468896 0.092062876 -0.034150377 0.009563845 0.05400941 -0.021729335
-0.112328075 0.16464522 0.11468068 -0.023160229 -0.03681846 -0.08389544 0.18538105 0.18343166
-0.23048428 -0.20559515 0.1824989 -0.56518173 0.016641133 -0.2758868 0.19099681 -0.023100043
0.004132908 0.104680754 -0.005460859 0.024280513 -0.13338752 -0.22888927 -0.059193794 0.055584002
0.053631853 -0.042334504 -0.073957 0.032765616 -0.04090164 -0.0072287526 -0.024796724 -0.081989534
-0.010764894 -0.041686926 -0.0221375 -0.09913963 0.04717096 0.090806805 -0.0842179 0.09268361
-0.07624886 0.12494934 -0.08085611 -0.11309171 0.10518342 -0.10640159 -0.08805936 -0.0059833783
-0.11655124 -0.10714762 0.02450144 -0.1062812 0.02204622 -0.017423185 0.119119056 -0.023598216
0.076877676 0.011396425 -0.12266996 -0.042493336 -0.061141834 0.06908044 -0.21506365 -0.13027577
0.16341181 0.1052816 0.10627996 -0.060357332 -0.18785365 -0.09809856 -0.2045806 0.03594668
0.04262419 -0.13216515 -0.06276653 -0.2713457 0.1756337 -0.003438992 -0.083556205 0.10739935
0.047012195 0.258279 -0.5030306 0.18268326 -0.15332635 0.06853797 -0.43836415 0.6471479
-0.27865592 0.21076342 0.1317357 -0.12231222 -0.026394313 -0.13059528 -0.10916127 -0.100649744
0.33670086 0.072213806 0.08808004 -0.047709193 0.08088153 -0.09357181 0.0006439211 -0.070865154
0.08295907 -0.03217681 -0.0982604 0.061299555 -0.0025110675 0.0032177276 -0.10101943 -0.062126845

weight f4 [256]
00000000: 389b 0a40 b0d8 0640 9151 3840 f03c 1240
00000010: 09c7 0d40 aec4 0f3f 424a e43f bce3 1440
00000020: 6cff 2a40 e1bb 0540 036f 1540 a5da 0e40
00000030: dcd7 333f 23bd 1b40 9c26 0c40 35e1 4c3f
00000040: 2ea6 2c40 db7b 3640 08ca 1a40 58b3 c13f
00000050: b286 d63f 293b 4f3f 70ea be3f 10be a23f
00000060: 8388 a53f 7787 d53f 14f2 c93f 5938 1840
00000070: 98f8 903f 4458 bf3f cf8d 1a40 bcfd 0940
00000080: eb24 0b40 a116 f63f 472e 853f c038 1440
00000090: d5ad 2e40 5c90 7d3f 5d95 3340 ed11 5640
000000a0: d03d 2a40 4d76 3f40 1d2c ea3f 4af6 1d40
000000b0: eb9a da3f 5a35 2440 7686 4540 2bb1 1240
000000c0: 6ad7 0c40 9c99 cc3f 63a3 3540 e2a0 d73f
000000d0: 0fc5 1840 e773 b73f 513a 1340 e5ba f23f
000000e0: a3f1 f43f 03cd 1040 9dfd 0e40 6e0b 2240
000000f0: 4598 af3f 87f6 2640 5a85 1f40 875e 2a40
00000100: 96e1 953f 6499 1840 f7aa e63f e1a9 7140
00000110: d000 9c3f 2da5 dd3f 62fe c33f ea0b 1940
00000120: c4c0 0640 9bda 3240 992a 913f 998a f83f
00000130: 1424 813f 9fac 1940 863d e23f d93f a63f
00000140: d8de f43f 5d21 2640 e098 3d40 7e84 4640
00000150: f344 2b40 14df 4140 b3d1 bf3f 3826 c93f
00000160: 8f45 3040 c01f bd3f 9bc6 b83f fe4f 1840
00000170: fead a33f 07f1 0740 3e63 0140 7c11 1c40
00000180: 64da 4540 1024 c73f bf6e 1440 7958 0840
00000190: 3c3a f83f 8f02 3340 2c5a 1540 8720 0240
000001a0: 2c92 c93f c4e0 0340 e3d1 0340 bf3b 833f
000001b0: bcf7 c53f 59ca 0240 492c 963f 243e 3840
000001c0: f978 b23f 6997 6b3f a350 8c3f 4520 2b40
000001d0: 3741 eb3f 3c4e da3f 51ce 323f 38c7 d33f
000001e0: 60d9 9b3f c98e 1840 24d4 1040 9a7c e13f
000001f0: bd62 2440 fb82 913f 1519 bb3f 0b62 0440
00000200: 276a 2b40 90d6 0c40 cd33 f43f 8c4e f83f
00000210: 15be fc3f 4dfd eb3f 9563 f33f 80f5 ee3f
00000220: 820d ff3f 5d00 f73f 4bba e43f c558 823f
00000230: 199c 1240 e433 1c40 0110 0840 4658 3040
00000240: efc4 1e40 4ab2 ba3f 18eb 1f3f 553e f53f
00000250: badf 433f 3fb5 2c40 f67b 0540 f340 2540
00000260: a3b4 0940 6fdb 2140 a777 1d40 8439 e73f
00000270: 8241 1c40 7013 aa3f f44d f23f 47cb f53f
00000280: 371f 1a40 d104 ac3f c345 5c3f bb42 a33f
00000290: 2b90 9b3f 0adf fb3f f958 353f 12bd 2b40
000002a0: 54e9 2c40 26e8 e73f 293d 1240 8639 863f
000002b0: 24b5 c53f d507 3b40 7bc9 1a40 d294 3940
000002c0: 4b88 3d3f 9069 9d3f 7701 f83f aea5 a93f
000002d0: 4fb2 2f40 d865 ae3f 98d9 f83f ed5b 0a40
000002e0: 32ae ee3f f041 ee3f bc26 0c40 071e 0240
000002f0: fd97 bc3f 485a 1440 1b19 3840 366c 0a40
00000300: 94f9 2440 bd28 f53f eae0 0240 1729 0b40
00000310: da81 0e40 4fc1 af3f 5c5f 0c40 3624 1b40
00000320: f570 e13f c120 033f fa73 e63f 54f5 843f
00000330: d9a1 e13f 8f22 3640 7b7e 0240 2ef3 d93f
00000340: 5585 753f a0b0 8a3f 9cd0 e63f 5a3a 4d40
00000350: f0e5 0040 0101 3540 9a1f 623f 9cbc fd3f
00000360: 3b6d 2440 1cca 2040 2671 fa3f feee 2640
00000370: 3f58 2440 5806 3340 c1be 2940 e2eb 743f
00000380: b0e8 1b40 2bca 2740 4ee6 6d40 8929 e23f
00000390: 9510 1940 f55d 883f 0d1f d13f c5d0 993f
000003a0: 9182 a33f 7dc6 dc3f 0d18 ab3f 813f 2140
000003b0: 6e63 1940 6328 0f40 5c7d 3440 1603 773f
000003c0: 1d85 1740 bca4 1d40 f6b2 1040 9d02 d73f
000003d0: 0463 2c40 48ba 943f 7ae5 1d40 24b4 fe3f
000003e0: 9fff 5740 9415 ab3f 713f 1e40 bdfd 2340
000003f0: f9ab 2b40 5ac0 d13f 1857 2140 cde6 c73f
2.1657238 2.1069756 2.8799784 2.2849693 2.2152731 0.56159484 1.7835162 2.3263998
2.6718397 2.0895922 2.3349006 2.232095 0.7025125 2.433419 2.1898565 0.8003114
2.6976428 2.8513095 2.418581 1.5132856 1.6759856 0.80949646 1.4915295 1.2714252
1.2932285 1.6681966 1.5777001 2.3784392 1.1325865 1.4948812 2.4149053 2.1561117
2.1741283 1.9225656 1.0404748 2.3159637 2.7293599 0.990484 2.8059914 3.344844
2.6600227 2.9915955 1.8294712 2.4681573 1.7078527 2.5657563 3.0863318 2.2920635
2.2006478 1.5984378 2.8380973 1.6845973 2.3870275 1.4332246 2.3004344 1.8963286
1.9136242 2.262513 2.2342293 2.5319476 1.3718344 2.6087968 2.4925141 2.6620195
1.1709468 2.3843622 1.8020924 3.7759936 1.2187748 1.7316033 1.5312006 2.3913522
2.1055155 2.7945926 1.1341125 1.9417297 1.0089135 2.401161 1.7675025 1.2988235
1.9130507 2.5957863 2.9624557 3.1018367 2.6760833 3.0292406 1.498587 1.5714788
2.7542455 1.4775314 1.443561 2.3798823 1.2787473 2.1240861 2.0216823 2.4385672
3.0914545 1.555788 2.3192594 2.1304 1.9392772 2.7970312 2.3336287 2.0332353
1.5747733 2.0605936 2.0596855 1.0252608 1.5466228 2.0436003 1.1732265 2.8787928
1.3943168 0.9202791 1.0962108 2.6738446 1.8379277 1.7055125 0.69846064 1.6545172
1.2175713 2.383715 2.262948 1.761615 2.5685265 1.1368097 1.461703 2.068484
2.678354 2.2005959 1.9078308 1.9398971 1.9745508 1.8436676 1.9014765 1.8668671
1.9925997 1.9296986 1.7869352 1.018334 2.2907774 2.4406672 2.1259768 2.7553878
2.4807699 1.458566 0.624681 1.9159647 0.76513255 2.6985624 2.085691 2.5820892
2.1516502 2.5290182 2.460428 1.8064427 2.4414983 1.3287182 1.893004 1.920266
2.4081552 1.343897 0.8604395 1.275474 1.2153372 1.9677441 0.70838886 2.683415
2.7017412 1.8117721 2.284983 1.0486305 1.5445905 2.922353 2.4185474 2.8997083
0.7403609 1.229784 1.9375447 1.3253686 2.745258 1.362483 1.9441404 2.1618607
1.864691 1.8613873 2.1898642 2.0330827 1.4733883 2.3180103 2.8765323 2.1628547
2.577733 1.9153057 2.0449777 2.174383 2.2266755 1.3730868 2.1933203 2.4240851
1.7612597 0.51221853 1.8004143 1.0387368 1.7627517 2.8458593 2.0389698 1.7027338
0.95906574 1.0835152 1.8032413 3.2066865 2.0140343 2.8281863 0.8832947 1.9823184
2.569167 2.5123358 1.956578 2.608337 2.567886 2.7972622 2.6522677 0.9567243
2.436077 2.6217144 3.7171817 1.7668926 2.391637 1.0653673 1.6337601 1.2016836
1.2774221 1.7248074 1.3366715 2.519501 2.3966937 2.23684 2.8201513 0.96489084
2.3674996 2.4631796 2.260923 1.6797673 2.6935434 1.1619349 2.4671311 1.9898725
3.3749769 1.336596 2.4726222 2.562362 2.6823714 1.6386826 2.5209408 1.561731

bias f4 [256]
00000000: 7cff eebe a9c1 aabd 5b91 b8be 4781 9a3f
00000010: 8dc9 e83e 30f4 4a3f c51c 04be 0b95 a8be
00000020: 6c08 54bf 6dd6 853e 114a de3e 577a 8abe
00000030: b244 1f3f 6ff6 263d 0e42 95be af45 bcbe
00000040: 225a fdbd 279a 29bd c650 d7be fc6d e83e
00000050: 0af4 97be 273b 4fbf db71 10bf 4841 2ebf
00000060: 9148 a93d 7cbe 4ebb 820d 49be 6611 36bf
00000070: fd3d 373d 07f1 49be d128 a13e ba17 84be
00000080: 7108 14bf 2176 db3e 1403 c03e 1957 8c3f
00000090: be11 3a3d c82d 943d b127 cabe df65 0cbb
000000a0: 5a54 2a3f 2057 023e 01ef cbbd b31a 40bf
000000b0: 7c9c 75be e660 143f 7b63 bdbe 5fb0 293b
000000c0: 449c 3dbe 4261 ea3e d9ea f13d d8f7 bcbe
000000d0: 90ca 8dbd ee24 acbd be2e e7be ce88 8cbe
000000e0: 8761 c13e dabd eb3e 18af 1dbe 88b3 b3bd
000000f0: 4406 3dbe d1ab b2bd e90e cebe de45 f83e
00000100: 9fc0 00be 6240 d6bd 0853 52be 5a42 943e
00000110: bfce 1a3f c993 b43d d96e 773e a446 563e
00000120: 0c57 f1be 70be 6bbf 33cb abbe 393b 83be
00000130: af55 7b3e d5ff d23e 508c 12bf 7f7c b0be
00000140: b743 113f 1c21 813e d12f aa3d a790 adbe
00000150: 5bea 1bbe e343 803d a6a6 64bf 7faa 40bf
00000160: b77e 8e3e 281b 4bbf f7b4 fcbe ff21 34bd
00000170: 5d18 2e3f 5676 34be 7685 ebbe 4fc8 a03b
00000180: 75cc b0bd d56b d0be 7fc4 8bbd b82e be3e
00000190: 9072 d53d a5b5 623e 1b6d a03d e5d0 fa3e
000001a0: 772b 233f 2b9b 313f 6c46 2e3e 215a 403f
000001b0: ae0a 00bd 53d0 a4bc 7c30 21bf b516 133e
000001c0: d374 00bf 45a6 4e3f ee7c af3e 4719 b63e
000001d0: 2da4 bc3e 574e 68be 0b16 403e eaf6 b43e
000001e0: 6a74 f13e b9f2 d4bd 505c ccbe 8fb9 fdbe
000001f0: c443 fd3b cdab b9be a99e 7abe 45cd f0be
00000200: 702c 5b3e 4933 dfbe d374 05bf ab14 1a3f
00000210: 610f a4be 1948 823e aa29 09bf d4e8 42be
00000220: 56da ca3e a88e a13d 96df 9a3d 5848 3abf
00000230: f244 92bd c707 d4bd 0853 873e 93b1 eb3e
00000240: 6d8b fb3e bad0 2fbe 5a26 1c3f e5f9 28be
00000250: 157a 41bf 9a56 e03e b598 b43d cf69 c7be
00000260: 0c76 1e3f 73b9 febe efab 403d 1da0 01bf
00000270: 7458 9fbd 771c b93e 33f6 2d3f 583a 8a3f
00000280: 9d9d 24bd ef8f 0e3e 2acc c0be c7dd b03d
00000290: 59a9 3a3f c789 0b3f 02d2 903e 5ba4 c1bd
000002a0: 0836 0fbf 5a35 ab3d 3a68 1abf 7103 063f
000002b0: 5a12 0cbf cf8a b03e 72db 09bf 1491 20bd
000002c0: 3eb3 2fbe d799 283e 343c 55be 7ac8 35be
000002d0: 0d19 a43e d35c f33e 16b0 d43e 77eb a83e
000002e0: 4890 2d3e 7594 093f 112c 6cbd 70d7 4cbf
000002f0: 41ff b6bd 2eb0 8b3d abff c6be 2257 6bbe
00000300: ca3a bfbe 91a2 a2be fbcf a8bd 49e3 833e
00000310: 484d b4be 1f3e 04be 8cf3 72be d729 09bf
00000320: 1c00 613e af4a 92be 49e5 3d3d a20b df3e
00000330: 2ea5 003e 1283 fe3e ecde c1bd 5991 243b
00000340: 7b09 3b3f 6173 d6bc 42ec 253f 7f33 403d
00000350: 0572 99be 1e2c 0bbe 767e d63e b7e7 4a3f
00000360: a4a8 33be 8529 babe ab29 9f3e 5507 353e
00000370: aed3 323f 149f 99bd 7b40 6fbe 877d 253f
00000380: c485 813d a916 06bf bc50 10bc 6057 0fbf
00000390: 69cf e43e fbb7 173f d5b2 b4be b541 e8be
000003a0: 4bc8 11be dfc1 96be 916a e6be dcd9 6f3e
000003b0: 1257 523f 32ea 5cbd 348e cb3e bf70 01bf
000003c0: 822d 8f38 8884 97be de78 2dbf bfcc 21bd
000003d0: 13a0 de3e eeac 5abf 4779 eb3e 4bd6 0abe
000003e0: 2d15 44bf 67cf e0be 3cc9 bcbe 7d12 bf3d
000003f0: 44db 92be b728 983d b2d2 1b3f 6644 83bf
-0.46679294 -0.08337719 -0.36048397 1.2070702 0.4546627 0.7927885 -0.129016 -0.3292621
-0.8282535 0.26140156 0.43415883 -0.27046463 0.62214196 0.04076236 -0.29151958 -0.36771914
-0.12370707 -0.041406777 -0.42053813 0.4539641 -0.29678375 -0.80949634 -0.5642373 -0.6806836
0.08265794 -0.0031546643 -0.19634059 -0.711203 0.04473685 -0.19720851 0.31476453 -0.25799352
-0.5782538 0.42863563 0.37502348 1.096408 0.045427077 0.072352946 -0.39483407 -0.0021423025
0.6653496 0.12728548 -0.09957696 -0.7504074 -0.23985475 0.57960355 -0.3698996 0.002589248
-0.18516642 0.45777327 0.11812372 -0.3690784 -0.06923401 -0.08405481 -0.4515285 -0.27448124
0.3776972 0.46043283 -0.15398824 -0.08774477 -0.18459421 -0.08724178 -0.4024575 0.48490804
-0.12573479 -0.10461499 -0.20539486 0.28956872 0.6047172 0.0881725 0.24163379 0.20925385
-0.47136724 -0.9208746 -0.33553466 -0.2563112 0.24544404 0.4121081 -0.5724535 -0.34469983
0.5674395 0.25220573 0.083099015 -0.33899423 -0.15226118 0.06262948 -0.89316785 -0.75260156
0.2783105 -0.7933831 -0.49356815 -0.043977734 0.68005925 -0.17623267 -0.4600026 0.004906691
-0.08632747 -0.4070727 -0.06824588 0.3714502 0.10422242 0.22139604 0.0783331 0.489875
0.637382 0.6937739 0.17019051 0.75137526 -0.031260185 -0.020118868 -0.62964606 0.14364131
-0.5017826 0.8072246 0.34275 0.3556616 0.36844006 -0.22686134 0.18758409 0.3534463
0.4715913 -0.10397858 -0.3991418 -0.49555632 0.0077290256 -0.36263886 -0.24474587 -0.47031608
0.2140367 -0.43593815 -0.52131385 0.60187787 -0.32042983 0.2544563 -0.535792 -0.1903413
0.39619702 0.07888538 0.07562177 -0.7276664 -0.071420565 -0.10353046 0.26430535 0.46033916
0.4912981 -0.17169467 0.6099602 -0.16501577 -0.7557691 0.43816072 0.08818189 -0.38947913
0.61898875 -0.49750862 0.04703897 -0.5063494 -0.07780543 0.3615453 0.67953795 1.0799055
-0.040189374 0.13922094 -0.37655765 0.08636051 0.72914654 0.54507107 0.28285223 -0.094551764
-0.5594182 0.083597854 -0.6031529 0.52349 -0.547155 0.34480903 -0.5385047 -0.039200857
-0.17158219 0.16464935 -0.20823747 -0.17752257 0.32050362 0.47531757 0.41540593 0.32992145
0.1694957 0.5374215 -0.057659212 -0.8001623 -0.089354046 0.06820713 -0.38866934 -0.22982457
-0.3734954 -0.31764653 -0.08242794 0.25759342 -0.3521521 -0.12914322 -0.23725718 -0.5357947
0.21972698 -0.28572604 0.04636124 0.43563563 0.12563011 0.49709374 -0.09466347 0.0025111048
0.7306134 -0.026178064 0.64813626 0.04692411 -0.29969802 -0.13591048 0.41893357 0.7925982
-0.175448 -0.36359802 0.31086478 0.17678578 0.6985425 -0.07501045 -0.23364441 0.64644665
0.06324342 -0.52378327 -0.008808311 -0.559927 0.4468949 0.59265107 -0.35292688 -0.4536263
-0.14236562 -0.29444787 -0.4500318 0.2342295 0.8216411 -0.053934284 0.3975693 -0.5056266
6.827248e-05 -0.295933 -0.67762554 -0.0395019 0.43481502 -0.8542012 0.45990965 -0.13558309
-0.7659481 -0.43908235 -0.3687228 0.09329698 -0.2868291 0.07429641 0.6086837 -1.0255249

running_mean f4 [256]
00000000: 9e8b 903f 7cbb 303f c9e0 96be d2d6 3fbe
00000010: 0e67 a63d 22c3 c33d 86b9 e3bd 816f a4be
00000020: 217a e13e 7623 58be 48a9 5d3f bfa7 553f
00000030: 1fae 04be 1d18 37be 3e24 343f b62e 733e
00000040: 25b9 79bf cfab e1bf fea1 963f b137 b93d
00000050: b295 9ebe 49ac 753d a2ba 89be 5a2d 913d
00000060: 3fd1 61be 304a cc3d 0b56 04bf 1ae5 6dbf
00000070: 9f89 3a3e 24cd 493d ca6a f2bd c2e5 dd3e
00000080: c811 45bf dfde 85bd 05e0 f4bd 3e07 3bbf
00000090: 3691 c33e ada3 26be 4239 2fbf 158a c1bf
000000a0: 7b26 c73e 8f6c a8bf 1e7c a13d 6b51 76bf
000000b0: dbf3 ff3d 0bc9 86be fac6 493e 8a19 69bf
000000c0: b7de c23e 688c 0dbf efc0 49bf 0c78 56be
000000d0: ca91 69bf 9151 bdbd 602d 4dbf 28bb b5be
000000e0: 411a c83e 3ede 54bf bd4c 493e 22e5 d4bb
000000f0: 5f97 4ebe 394e ce3e b1fa 173f e30b 99bf
00000100: 3533 1f3e b2aa 713f 9cf5 463f 6081 ad3f
00000110: a3ae f8bd afa5 573e bc87 51be f03e 2b3f
00000120: ff6e 8abe 3bdc 9e3f f2c1 623e 9ece 41bf
00000130: c5b6 933e ed66 7ebf bc87 363f 9747 c93e
00000140: 4310 8f3e 0060 11bf 1b23 af3f eaf1 533f
00000150: 97a5 7d3f dc4e 98bf b4fb 063f 04fc 2b3e
00000160: 1a9a 7d3f 6ac5 013f 4751 abbd 90b4 f93d
00000170: 6f2a c9bd 6b09 f73c eca1 4a3f cb28 d63e
00000180: f330 4fbf 4205 8abe da59 e2be 1797 b93d
00000190: de6c f4bd 45f3 d93e 8d7e ffbe f61e 74be
000001a0: 41ee 5e3e f0b9 52bf 7487 2e3f b4a8 cabe
000001b0: ed69 203f 5304 20bf 6daf 0c3e 828b 68bf
000001c0: dbaa 943e 5ba6 283e 5bbc ec3d 8d2e 573f
000001d0: a30a 943e 95cb 69bd 4782 193e f64c a93d
000001e0: fd0b b5bd 7714 efbe c785 66be dbf3 02be
000001f0: 0f5b 26be 5193 273e acbe 513d a6a9 053f
00000200: 292e 81be 21a1 0ebf 424d 9ebe 135f 0e3f
00000210: 7408 613f cfb9 a43e e0b3 013f c609 63be
00000220: d8c4 df3e 322d a23d 8e8c 38bd 675c 93bd
00000230: f603 ba3e 24c5 0dbf 5372 803f 1b10 0a3f
00000240: ecbf 1cbf ff44 fc3d e6d8 b6be debc 30bf
00000250: 2e78 b93e 3208 de3e 6b18 823e 647d 72bf
00000260: 7e7e 86bd 7ee2 cdbe f62c 23bf b801 55bd
00000270: 159d 80bf 4d3d 1fbf 8b55 b2be 65bd e0be
00000280: 876f 8dbf a0d0 db3e e2a2 9f3b 57e4 9e3e
00000290: fe29 06bf f010 e0be 09b3 b4bd ca68 883e
000002a0: 3547 c7bd a3b8 ab3d 0a0f c0be 16c3 96bd
000002b0: 9d02 18bf e139 89bf c815 7b3d 113b 853f
000002c0: fa5d 083e 13c0 9fbe 381c b1be 8c17 8d3e
000002d0: 8227 ad3e 5f15 e83e 53e4 11be 54e2 c5be
000002e0: 76ef 1d3e b697 8f3c f37c aa3c a483 adbe
000002f0: 0829 8ebe 8b2b 92be b10d 21be a7ce 9ebe
00000300: b12e 533f c42a fcbe 44d0 063f 535d 6abf
00000310: 48cd 36be 2161 9e3e 5749 09be 4344 2cbf
00000320: db5f 23bf f1fc 323e 418a e23e 2a55 f93d
00000330: 2e33 04bf af88 233f b738 d23e 0d6b 23be
00000340: 7e0e 013e a892 14be cea6 f63e 92a3 e8bf
00000350: fa71 1dbf 2c1e 4e3f 0c5a 003e 2e36 cd3e
00000360: 755d d3bd 9fd6 893d 4e44 b93e 41f4 71bf
00000370: 5a14 67bf 5067 79bf 82eb b13f c424 c43e
00000380: b21b 8f3e f2b6 8cbf 7421 57be 164c 6ebe
00000390: aa39 90bf d395 0d3f 5e28 463c 3567 963e
000003a0: cbd0 113e 66f0 8cbe ae44 15be ad4f 303f
000003b0: 1fde 533f e82f c7be 9c91 bf3e e256 92bd
000003c0: e4ca b2be 208b 0ebb 4108 06bc 3301 9c3e
000003d0: 562c cdbe 7c88 393e e53e 6ebf 3b9c 2d3f
000003e0: 1c3d 933f 59b8 2e3f f29f 88bf aced 753f
000003f0: 3bc9 05bf 1889 663d 95af 24bf c98d 2d3d
1.1292608 0.6903608 -0.29468372 -0.18734291 0.08125125 0.09558703 -0.1111937 -0.3211632
0.4403849 -0.21107277 0.8658643 0.83459085 -0.12957047 -0.17880292 0.703678 0.23748288
-0.97548133 -1.7630557 1.1768186 0.090438254 -0.30973583 0.059978757 -0.26900202 0.07088728
-0.22052477 0.09975088 -0.5169379 -0.92927706 0.18216561 0.049267903 -0.11836775 0.43339354
-0.7698026 -0.0653665 -0.11956791 -0.73057926 0.38196725 -0.16273375 -0.68446743 -1.5120264
0.38896546 -1.315813 0.078850016 -0.96217984 0.124976836 -0.2632526 0.1970481 -0.91054595
0.38060543 -0.5529237 -0.7881002 -0.20944232 -0.9123808 -0.09244073 -0.8014736 -0.3549435
0.3908253 -0.83151615 0.1965818 -0.0064970413 -0.20174931 0.40294054 0.593669 -1.1956753
0.15546878 0.94401085 0.7771852 1.3555107 -0.12142684 0.21059297 -0.20461935 0.6689291
-0.27037808 1.2410959 0.22144297 -0.757059 0.2885038 -0.993758 0.71300864 0.3931243
0.27942094 -0.5678711 1.3682588 0.82791007 0.99080795 -1.1899066 0.5272782 0.16795355
0.99063265 0.50691855 -0.08365112 0.12192643 -0.09822547 0.030155858 0.79153323 0.41827998
-0.80934066 -0.26957136 -0.44209176 0.09062021 -0.11934827 0.42568412 -0.49901238 -0.23839936
0.21770574 -0.8231497 0.68175435 -0.39581835 0.6266163 -0.625066 0.13738795 -0.9083787
0.29036602 0.1646971 0.115593635 0.84055406 0.28914365 -0.057078917 0.14991103 0.08266632
-0.08840177 -0.466953 -0.2251197 -0.12788336 -0.16245674 0.1636479 0.05120723 0.5221199
-0.2523053 -0.55714613 -0.30918318 0.5561382 0.87903523 0.3217301 0.5066509 -0.22171697
0.43704867 0.079187766 -0.04505592 -0.07195359 0.36331147 -0.5537894 1.0034889 0.53930825
-0.6123035 0.123178475 -0.35712355 -0.6903819 0.36224502 0.43365628 0.25409254 -0.9472258
-0.06567095 -0.40211862 -0.6374048 -0.052003592 -1.0047938 -0.6220291 -0.3483089 -0.43894497
-1.104966 0.42932606 0.004871712 0.31033584 -0.52407825 -0.43762922 -0.08823211 0.26642448
-0.097303785 0.08384826 -0.37511474 -0.073614284 -0.5937899 -1.0720788 0.06130007 1.0408651
0.13317099 -0.31201228 -0.34591842 0.27557027 0.33819205 0.45328805 -0.14247255 -0.38649237
0.15423378 0.017528396 0.020811534 -0.33889496 -0.2776568 -0.28548846 -0.15727879 -0.31017038
0.8249312 -0.49251378 0.5266154 -0.9154865 -0.17851746 0.30933478 -0.13406883 -0.6729166
-0.6381814 0.17479302 0.44246104 0.12174447 -0.51640594 0.6388044 0.41058895 -0.15958805
0.12603185 -0.1450907 0.48174137 -1.8174918 -0.6150204 0.8051479 0.1253435 0.40080398
-0.1032056 0.06730389 0.36184925 -0.94513327 -0.9026543 -0.9742327 1.3899996 0.383093
0.27950817 -1.099333 -0.21008855 -0.23271212 -1.1267598 0.5530674 0.012094585 0.29375616
0.14239804 -0.2752716 -0.1457698 0.68871576 0.82760805 -0.38903737 0.3741578 -0.07145478
-0.34920418 -0.0021750405 -0.008180679 0.30469665 -0.40072888 0.18118471 -0.9306472 0.67816514
1.1503024 0.6825004 -1.0673811 0.96065784 -0.5226018 0.056283087 -0.64330417 0.042371545

running_var f4 [256]
00000000: f920 4b3c 2893 023d 8ef5 963c b2ca e33c
00000010: b272 4a3c 8aa1 653d e8d2 d23c 737e 003d
00000020: bc14 9f3c 0678 093c 1824 d03c 4338 f83b
00000030: b431 f43c 9ee5 033d 17f9 b43d 4a2b 273d
00000040: 8e04 d43c 684e 363c 8021 4d3c e0bb 6a3e
00000050: b85f 873c 1b92 ea3d b4d9 2c3d 27b1 413d
00000060: 10de 4d3c f586 be3c c916 3a3d 11f4 a53c
00000070: 951e 203d 8535 303c bebb c33c 2213 f43c
00000080: 173d d33c 7e20 7c3d 53cf 373d e251 533c
00000090: 1638 703c 4eed 1c3d 9b40 fe3c 5960 913c
000000a0: 7f4a e13c 1a68 663c ff62 083d 8bcf 063d
000000b0: 301e 2d3d ecd5 353c 9de5 e13c ee33 683c
000000c0: 228f f93c d3b7 7f3c 922b b33c c724 283d
000000d0: ab14 003d f67b 013d 73d4 8e3c 6175 353d
000000e0: 75d0 b43c 1a6d 713c 6b8f 3b3c cb31 3d3d
000000f0: f461 583c 7c22 1b3c 0faf a43c 7626 0c3d
00000100: 86c5 0d3d 32d0 1a3d 7ede 783c 6f4c b03b
00000110: 3522 d33c 2860 d33c cc3e 553d fb32 cc3c
00000120: 74c8 bc3c 8798 813c 740b 983c f4c7 b03c
00000130: 0042 823d 01ba 9e3c 79f9 373c a22c 113d
00000140: 3792 4e3d 7604 783c d631 813c e006 d93c
00000150: 040d c93c 10b8 8c3c 8986 143d 6b99 913d
00000160: 176d c53c 3113 453d ab65 273e 74f5 6f3d
00000170: b2f4 1c3d 5a4b 383d e391 e93b 9b47 cb3c
00000180: 4146 ae3c 1030 7d3d b28d 943c 0931 213d
00000190: b2e3 9c3c 902e 243d aefe 913c 87be a43d
000001a0: d90e e53d 0ae1 8b3c b50b 953c ed0e 4f3c
000001b0: d6af cb3c afae 083d ae19 dc3c 70d1 853c
000001c0: d026 203d 3936 613d bdb9 2e3d 4e3f aa3b
000001d0: ab48 bf3c dca1 983c 9cdf 063d d52b 893d
000001e0: 38b3 9b3d aeee 0d3c 0b16 e73c be51 353d
000001f0: a590 c33c 66de ee3c b250 5a3d a196 593c
00000200: 0ad1 d43c b881 cd3c b2e6 1b3d df91 f13c
00000210: a51c 043c daf6 b23d 5d35 1a3d ef45 e43c
00000220: d2e9 b73c aa1e 013d a2e1 d53c 707d 213d
00000230: b974 f63c a267 a03c 7b74 7c3c 7736 293d
00000240: fdc6 d63c d957 913c bb7f 9d3c 53a6 573c
00000250: 6856 8a3c 589a ba3c fd38 bc3c f62f 7e3c
00000260: b6b4 5b3d fe74 a63c 0068 953c 736d 813c
00000270: 565a d63c a20e a23c 3260 bb3c 1b16 e03c
00000280: 4ce4 093c 5d03 9c3d b614 443c 46fd 333d
00000290: 1f91 fa3c f968 1a3d cf4b ca3c 6308 213c
000002a0: 72c5 da3c 0347 833c b751 f33c c2d5 0d3d
000002b0: 2a88 053d c8d7 3d3c 426c 6b3c 49af 013c
000002c0: 1705 413d c4e5 8e3c 4844 863d 006a 093d
000002d0: 4cd0 2d3d 0ab7 2f3c 6c3d 913d 79a9 943c
000002e0: 9196 5d3d 72a2 e43c 2eac 0c3d 8d1d 713d
000002f0: b22b 2a3c 35cd ec3c a411 393d a566 4c3d
00000300: 842a 473c abc0 a93c 02f9 243c 9277 1b3c
00000310: ccec f13b 7b7f d23c be02 6d3d 8e77 9f3c
00000320: 639f 1d3d dde3 313d f774 333d 2eb6 ff3c
00000330: fd92 123d b1f7 413d 9c33 a83c 1e01 943c
00000340: e4d5 123e f5c1 a13c 5113 a93c ea73 8d3c
00000350: 31c4 b83c 950b 073d 7b66 fb3c cb23 c83c
00000360: 2ebf a93c 6d64 5a3d 2b7e 373d 27d5 a83c
00000370: 5bdb 813c 3af8 0f3d d84d 813c 78af ec3c
00000380: 688c 983c f97b 1a3d 0920 fb3c 6956 543d
00000390: fbf4 703c 87da 1f3d aeeb f43d 44c8 733c
000003a0: 57be d83c 2672 6b3c 0959 ba3c 83ae b63c
000003b0: 6888 303d 451e 8b3c d250 8f3c 4b92 c73c
000003c0: 61cc 403d e125 413d d24b d03c 5244 683c
000003d0: cd36 fb3c 01fa 223d 9e0c a03c 8978 633c
000003e0: 35a7 9e3c 13d4 623c 4cfa a63c 31f4 4d3c
000003f0: 24c5 e73c d2df 0b3d 9082 ba3c 5282 603d
0.012397998 0.03187862 0.018427636 0.027806614 0.012356447 0.05606226 0.025735334 0.03137059
0.019419067 0.008390432 0.025407836 0.0075750663 0.029808857 0.032201402 0.088365726 0.040812768
0.025881078 0.011127092 0.012520194 0.22923231 0.016525134 0.11453649 0.042199805 0.047288086
0.012565151 0.023257712 0.045431886 0.020257981 0.039091665 0.010754948 0.023893233 0.02979428
0.025785966 0.061554424 0.044875454 0.01289794 0.014661809 0.03831225 0.031036666 0.017746137
0.027501343 0.014062906 0.033297535 0.032912772 0.042265117 0.011098366 0.027575308 0.014172537
0.030463759 0.015607792 0.021871362 0.0410507 0.03126971 0.03161236 0.017435288 0.044301394
0.022072056 0.0147354845 0.011447768 0.046190064 0.013206948 0.009468671 0.020103006 0.034216367
0.0346122 0.037796207 0.015189765 0.0053802053 0.025773147 0.025802687 0.05206184 0.024926653
0.023044802 0.015819801 0.018560149 0.02157972 0.06360245 0.019375803 0.0112289125 0.035442956
0.05043241 0.015137782 0.015770834 0.026492536 0.02454234 0.017177612 0.036261115 0.0710934
0.02409987 0.048114005 0.16347377 0.05858369 0.038319297 0.044993736 0.0071279868 0.024814418
0.021273734 0.061813414 0.018133972 0.039353404 0.019151542 0.040083468 0.017821636 0.08044153
0.111844726 0.01707508 0.018194059 0.012637836 0.024864119 0.033369716 0.026867714 0.01633522
0.039099514 0.05498335 0.042657603 0.005195535 0.02335008 0.018631868 0.032928094 0.066978134
0.07602543 0.008662863 0.028208753 0.04426741 0.023872683 0.029158782 0.053299613 0.013280542
0.025978584 0.025086269 0.038061805 0.029488502 0.00806347 0.087384894 0.037648547 0.027865378
0.022450361 0.031523384 0.026108567 0.039426267 0.030084955 0.019580666 0.0154086305 0.041311707
0.026217932 0.017742084 0.019225946 0.013162213 0.016886905 0.022778675 0.022976393 0.0155143645
0.053639136 0.020319458 0.018238068 0.01579926 0.026166122 0.019782368 0.022873018 0.02735429
0.008416247 0.07617829 0.0119678285 0.043942712 0.030586777 0.037697766 0.024694351 0.00982866
0.026705477 0.016025072 0.02970205 0.034627683 0.03260056 0.011587091 0.014369072 0.007915326
0.047123995 0.017443545 0.06555992 0.033548355 0.042434976 0.010724792 0.070917934 0.018147217
0.05409867 0.027909491 0.03434389 0.058866072 0.010386394 0.028906444 0.04518284 0.049902577
0.012156133 0.020721754 0.010069134 0.009488957 0.0073829647 0.025695553 0.057863943 0.019466188
0.03848208 0.043430198 0.04381272 0.0312148 0.03578471 0.047355358 0.020532422 0.018066939
0.14339405 0.019745806 0.020639094 0.017267186 0.022554489 0.03297003 0.030688515 0.02443113
0.020721044 0.05331843 0.044798058 0.020609451 0.015851667 0.035148837 0.01578419 0.028892264
0.018621638 0.037715886 0.030654924 0.05184022 0.014706845 0.039026763 0.11959015 0.01487929
0.026457949 0.014370477 0.022747533 0.02230001 0.043098837 0.016982207 0.017494593 0.02436175
0.04706991 0.047155265 0.025426779 0.014176445 0.03066578 0.039789204 0.019537266 0.013883718
0.01936684 0.013844508 0.020383023 0.012570427 0.028292246 0.034149 0.022767335 0.054811783

bias f4 [256]
00000000: 1181 2c3a e7b1 603b d65a 53ba 620c 77bb
00000010: 31e7 25ba 0622 f73a 1052 f239 db81 90ba
00000020: d226 d6bb 358b ef3b e0eb 29ba d6a5 5a3b
00000030: fffb 1b3a 130d 34bb 9094 1f3b 1812 c5bb
00000040: d167 d63b 5474 61bb edfc 6f3b bfd2 faba
00000050: a396 663c 995c ac3b eed8 9eba 3511 57bb
00000060: c589 0cbb b665 12bb be97 ea3a dbba e5bb
00000070: 3b7f 82ba 9682 803b 10f9 89bb 423a 07bc
00000080: ddf2 3cbb 9ed2 84bb ef6b c53b 503a 59bb
00000090: 277b 00bb ca18 683c 43d6 32ba 1998 383b
000000a0: 7555 d237 35bb ab38 1bf3 f63b a7f7 ac3b
000000b0: ce65 8eba 6d43 8bbb 4826 653b 1ee9 453b
000000c0: a742 4dba e85c dcba 289c 9dba fc95 023c
000000d0: bcb4 ca3a 388b 883c 44f4 523c 009d a1bb
000000e0: 384d e33b 5409 143a 3179 9c3a e98f a13a
000000f0: 12e7 32bb a553 003c 1cda b33a 69c4 32ba
00000100: 5e07 023c 4fa4 15bb 9647 87ba 92d7 b63a
00000110: c032 b73a 5d90 793c 85dd 513b 1273 8e3b
00000120: d44f c93a b777 aeb9 acc7 39bb fed9 1a3b
00000130: 4dd8 a23a 35b2 dab9 7c60 ce3b df3f 8ebb
00000140: f892 3b3c bf23 b13a 282f c4ba 1f48 38ba
00000150: ae08 dcbb 0523 c3ba c0f0 323a 9d11 38bc
00000160: a6b7 2abb f3cf 663a 3223 20bb 3566 563a
00000170: 1f85 713a 3fcf 4cbb 6936 74b9 bbdf a43b
00000180: 0cdb d0bb 6fe2 ad3b 0a8e 9abb 3c52 103b
00000190: 3e7f e63b 58d3 893b 0852 dd3b 6e2a 21bb
000001a0: 4461 4b3a b022 823b 16bd e53a 4582 f23b
000001b0: 97c9 9d3b 425b fa3c 7abb 65bb 7945 1a3b
000001c0: 596e 0bbb 7fd9 3c3b 53c9 3c3b af8b c83b
000001d0: 0500 08bc 7b45 b43a 1021 03ba 06c6 bb3b
000001e0: e6b1 dbba 9d5e 02ba f0c9 55bb e73b 4b3c
000001f0: 99f4 1e3c 5172 8ebb e03e e7bb 6e88 66bc
00000200: 7027 8dbb 2754 69bb 3b86 8abb b35a 183b
00000210: 9cbf d83b f9dc 7ebb 3e9c f0b8 3135 683b
00000220: 7362 c4bb ce8a 3e3b d993 bb3a ebf3 de3b
00000230: 05a6 26ba 30d9 143b 56e4 5ebb 0812 c13a
00000240: 4ac3 923b 7cb9 b13b a45f 943b b509 643b
00000250: 9da5 863b e549 c73a f840 38ba cd5a aa3b
00000260: 58e1 c938 4c8f 55bc c38f 81bb 6746 69b7
00000270: 891a 7e3b 41e0 c33b 94e1 443a 52ba 12bc
00000280: cfbd 0db9 d762 573c 9b28 853b d192 533b
00000290: 1cd7 3bbc f8d0 d13b c24d 93bc 3f10 143b
000002a0: 15b9 f73a 52d2 133d 4656 2d3c 4861 383c
000002b0: 2b08 853b 4991 94bb c5d0 d8ba 65c9 d7b9
000002c0: 9474 abbb b01e 013c ac28 83bb 670f e43c
000002d0: 5f87 933a 0f77 803b de8d 2dbc a5e9 563b
000002e0: 1451 0dbb 8313 c9bb 6c88 3aba 7a6c 97bb
000002f0: 814b 26bb 7627 b4bb 7c37 a2ba 856e 42bb
00000300: 0432 05bc 3900 613a 9f19 05bb 7280 25bc
00000310: b42b 313b c17d 963b 03cd 69bc 3160 adba
00000320: 7584 f1bb 3f6c 883b fcca 4c3a e42f 0639
00000330: 8607 41bb 8a08 ccbb 097c d53a 0e9e 07ba
00000340: e72f 3fbc 9fad 76bb 189d 5139 8366 8a3b
00000350: e03c 9fbb 28a8 89bb 0e3d 8ab9 f31a 6cbb
00000360: 912e 9639 c297 4b3b 2aae a43a af67 8539
00000370: 5a47 233b 9c04 03bb f1ea 683b 7f99 6b3b
00000380: e93a 3e3b 1a30 0c3c b2c0 773b 6848 37bb
00000390: b348 183a 9d58 13ba 3bd5 12bc c0a1 bb3a
000003a0: 8a23 cb39 c1d1 cbbb a6da 7eba e892 a73b
000003b0: 2a44 62bb 3373 ec3b 8906 4dbb 9003 c3bb
000003c0: d2ef 8cba 9650 ff3a c588 b4bc 60e6 0abb
000003d0: cf1a fab9 ec8b 583a 7e09 d43a 58d3 373a
000003e0: 750a 403c d61b b63a 4413 1b3b 0a80 5338
000003f0: fd69 7a3b ade3 c23a 872d 1e3b 657a 393c
0.00065805117 0.0034285726 -0.0008062547 -0.003769659 -0.00063287007 0.0018854744 0.00046218978 -0.0011025028
-0.0065353895 0.007310296 -0.00064819865 0.0033363006 0.0005950331 -0.0027473613 0.0024350025 -0.00601412
0.0065431376 -0.0034401612 0.0036619261 -0.0019136294 0.0140740005 0.005260062 -0.0012119093 -0.0032816653
-0.0021444422 -0.0022338456 0.0017898006 -0.0070108003 -0.000995613 0.003921817 -0.0042105988 -0.008253636
-0.0028831281 -0.004053428 0.0060248296 -0.003314633 -0.0019604655 0.014166066 -0.00068220886 0.002816683
2.5073745e-05 8.1887854e-05 0.0075363046 0.005278546 -0.001086408 -0.004249981 0.0034965444 0.0030198763
-0.00078300614 -0.0016812356 -0.0012024688 0.007970329 0.001546524 0.016667947 0.01287562 -0.004932046
0.0069366954 0.0005647142 0.0011937973 0.0012326214 -0.0027298373 0.007832442 0.0013721618 -0.00068194285
0.007936327 -0.0022833531 -0.0010321017 0.0013949743 0.0013976917 0.015232173 0.0032022905 0.0043472135
0.0015358874 -0.0003327706 -0.0028347773 0.0023628469 0.0012424082 -0.00041712975 0.006298123 -0.00434111
0.011448614 0.0013514681 -0.0014967667 -0.000702979 -0.006714902 -0.0014887756 0.00068260357 -0.011234668
-0.0026049404 0.00088047906 -0.002443504 0.0008178682 0.0009213257 -0.0031251458 -0.00023289923 0.0050315536
-0.0063737687 0.005306534 -0.0047166394 0.0022021672 0.0070342114 0.0042061023 0.0067541637 -0.002459194
0.0007758329 0.00397142 0.0017527665 0.0074007832 0.004815291 0.030561093 -0.0035054372 0.0023539944
-0.002127549 0.0028816161 0.0028806522 0.006120167 -0.008300786 0.0013753617 -0.000500218 0.0057303933
-0.0016761392 -0.0004973205 -0.0032621585 0.012404419 0.009701871 -0.0043471237 -0.007057056 -0.014070613
-0.00430768 -0.0035603137 -0.0042274273 0.002324742 0.0066146385 -0.0038889034 -0.00011473194 0.0035432095
-0.0059931814 0.0029074433 0.001431103 0.0068039796 -0.00063571363 0.0022712462 -0.003401061 0.0014730105
0.0044788467 0.005423723 0.004528003 0.0034795825 0.004109098 0.0015204517 -0.0007028724 0.0051988126
9.6264004e-05 -0.013034653 -0.0039539053 -1.3904274e-05 0.003877314 0.005977661 0.00075104204 -0.008955555
-0.00013517517 0.013146124 0.0040636784 0.0032283554 -0.01146486 0.006403085 -0.017981414 0.0022592691
0.0018899763 0.03608925 0.010579651 0.011253662 0.0040598116 -0.004533921 -0.001654171 -0.00041158046
-0.005232403 0.007880852 -0.004002651 0.027839376 0.0011255554 0.003920443 -0.010592906 0.0032793072
-0.002156322 -0.006136359 -0.00071156654 -0.0046210857 -0.0025374594 -0.005497868 -0.0012376155 -0.0029667926
-0.0081296 0.0008583102 -0.002030946 -0.0101014245 0.0027034106 0.0045926278 -0.01427007 -0.001322752
-0.0073705264 0.0041632946 0.00078122295 0.00012797076 -0.0029453947 -0.006226604 0.0016287576 -0.00051733933
-0.011669136 -0.0037640107 0.00019990315 0.004223646 -0.004859552 -0.004200954 -0.000263669 -0.0036026805
0.00028644924 0.0031065797 0.0012564112 0.00025444987 0.0024914355 -0.001999176 0.0035540427 0.0035949645
0.0029026812 0.00855639 0.0037804064 -0.0027966741 0.0005809173 -0.00056208094 -0.008961971 0.0014315173
0.00038745656 -0.006220073 -0.0009721912 0.005113948 -0.0034525492 0.0072158813 -0.0031284413 -0.0059513524
-0.0010752624 0.0019478973 -0.022037873 -0.0021194443 -0.0004770369 0.0008260596 0.0016177145 0.00070123887
0.011721243 0.0013893794 0.0023662606 5.0425566e-05 0.0038210147 0.0014868878 0.0024136023 0.011320685

weight f4 [256, 256]
00000000: d584 a83d c0e1 b1bc 2aac 413d 463f 813d
00000010: 1259 cd3d 707c 993d 4868 eabd 98df 593b
00000020: a060 fabc 206c 1b3d f723 cebd 8572 743d
00000030: 2fe6 413d d6f8 57be ba59 c6bc cdd6 4b3e
00000040: d2a7 43be 88d9 78be d7a4 c2bc a485 a63b
00000050: 0a3b 013e 3579 e0bd 6754 4b3d 95f2 15bd
00000060: 77ca a6bd 29bd 16be a408 73be 5136 84bc
00000070: 5efe 913c fe86 6bbd aa87 2cbe 63b7 f63c
00000080: b8e1 21be 28b0 1dbd c207 323d d128 3e3c
00000090: 9fe0 df3d 11cd 2abe a91e 8c3d c788 a1bc
000000a0: 621b 4ebd 7eb6 113e 4e81 18be f55e 89be
000000b0: 8b63 0fbd 14bb c9bd 1395 d6be 234f 713d
000000c0: e4d8 b53b c07f 863d 2de5 26be 08fc dbbd
000000d0: f62c 96be b02b 483c fd84 5ebe 8b92 66be
000000e0: 9112 83be 1596 8f3d b805 98bd 89de 96be
000000f0: 1b59 acbc 3f42 433e 78a7 d1bd 1b07 fbbd
00000100: 726d 953d 69a2 b0bd 82ab efbc e578 263d
00000110: 166e 363e 0085 1c3e e36e acbe 69ac 333e
00000120: 801d f33d f747 f13c 62db 44be f055 813d
00000130: 0c6b 073d 44c5 87bd c199 5fbc da7b 01bd
00000140: 7bc9 3dbe 4033 b53d 4505 d4bd e8d9 fabd
00000150: 3555 53bd b5e4 5cbe a881 94bd 1fc4 e23d
00000160: b5bd 2cbd 634a 8c3e ae44 88bd b738 73be
00000170: 9599 d93d 3f3f 10be 6e13 563e 5eaa 1b3e
00000180: eb09 b1be 0b50 ba3d 4469 a8bd 766c 15bc
00000190: c709 b6bc 3b18 f63d 1eb0 293d 5f9e cc3c
000001a0: 8e80 d13d 9848 3abe 90e1 8c3e c976 a23d
000001b0: 4b6c 4bbe 614b 223e e53a 243e 91cb 803c
000001c0: 47c6 40be fe22 3f3e 7644 a73d dd99 0dbe
000001d0: 4eb1 6f3e 46eb 2cbe d41b 0e3d 21eb e23d
000001e0: b2b9 393e 6a1e 31bd 3507 4abe ba64 e13d
000001f0: e40a 163e e92c a2be b20d 1abe 484c 223e
00000200: 8778 473e 177e 04be 8b74 32be 2507 4d3d
00000210: c96d ca3d a03c 443e d20c 21be 3d82 f83a
00000220: a755 b8bd d662 13be 3a3b 853d 5704 e23c
00000230: d805 083e eb20 7ebe 9da6 08be acdb 6b3e
00000240: 1ecd 233e 4379 033d ef23 0ebe bdfd f2bd
00000250: d59f 6a3a ed88 f2bd 0efb e23d c6d0 1f3e
00000260: c7b8 0e3e adca 1abe 6fd7 bfbd e204 f4bd
00000270: e02a 47bd 769a 81bd 86ef 1b3f 1f9c f33d
00000280: 2a83 5abe b300 16be 7f10 bebd 6782 953e
00000290: 4882 8abb 71d0 d1bd 3427 0e3e 4a11 a23d
000002a0: 19ad 79be 4c7a 1a3e 3295 e03d 90bf 193e
000002b0: 131a 01be 56b7 24be 7e63 34be 8b41 f9bd
000002c0: a927 1b3e 3e29 ba3d 684c 163e b8d2 37bd
000002d0: b6be bbbd 9735 5d3e a216 b63d 1c73 b53d
000002e0: 008f 5bbd 7577 333d a38c f53d 7a8f 38bb
000002f0: 56f5 9f3d 8c66 ebbc 0a40 c83c fd39 37bd
00000300: b835 60be bbc9 b8bd 072f a1bd 205c 0c3e
00000310: 413f 0abd 2eba d7bd 0a2e c5bd 7758 2fbe
00000320: 1047 52bc e8bf 8e3e 562b 32be a608 f9bd
00000330: 06fa 3abd aeef 413e 5837 b0be 0c52 8fbe
00000340: c461 75bc feca 01be ed43 bdbe 22cd 83be
00000350: e6df debd fee0 073d 3d91 553e d1a7 823e
00000360: 66a0 24bd fae4 a2bd 582d b33c dec6 243e
00000370: 7936 ca3e 7a90 bb3d 0894 fcbd c316 dd3d
00000380: f64c 6f3e b413 cb3d 1f5a 103d 8dae 333d
00000390: 7187 bfbd 4055 ea3d 7b28 cc3c 8736 c2bd
000003a0: 7f44 763d df0a 2d3e 1974 dcbc 5f02 583d
000003b0: d888 3d3e 6506 f33d adb2 a53e 668f 6fbe
000003c0: 0fd0 21be a098 9ebd c273 1cbe 5462 983d
000003d0: 60a0 713e c6b4 d3bd cb85 8cbe a22c c13d
000003e0: 3133 be3d d432 eb3d ca26 cc3c 9773 45be
000003f0: 8597 97bd 9c10 903c aa1a 633c 427e 8fbe
0.08228461 -0.021714091 0.04728333 0.063108966 0.100267544 0.07494438 -0.11445671 0.0033244845
-0.030563653 0.037944913 -0.100654535 0.059679527 0.04733866 -0.21091017 -0.024212707 0.19906159
-0.19106987 -0.24301732 -0.023760242 0.005081849 0.12620178 -0.109606184 0.04964104 -0.036608297
-0.08144086 -0.14720596 -0.23733765 -0.016139181 0.017821487 -0.057501785 -0.16848627 0.030116742
-0.15808761 -0.038498074 0.04346443 0.011606411 0.10931515 -0.16679789 0.068417855 -0.01971854
-0.050319083 0.14229771 -0.14893076 -0.2683026 -0.03500704 -0.098501354 -0.4191061 0.05891336
0.005549537 0.06567335 -0.16298361 -0.107414305 -0.29331177 0.012217447 -0.21730419 -0.22516839
-0.25600103 0.07011048 -0.07422966 -0.29466656 -0.021038583 0.1906824 -0.1023702 -0.12257215
0.07296266 -0.08624727 -0.029256586 0.040642638 0.17815432 0.1528511 -0.3367835 0.17546238
0.11870861 0.02945326 -0.19224313 0.063152194 0.033061072 -0.06629422 -0.013647498 -0.031612255
-0.1853389 0.08847666 -0.103525676 -0.122485936 -0.05159493 -0.2157162 -0.072512925 0.110725634
-0.042173106 0.27400503 -0.066537246 -0.23752104 0.106249966 -0.14086626 0.2090585 0.15201709
-0.3457788 0.09097298 -0.08223203 -0.009120097 -0.02222146 0.1201634 0.041427724 0.024977861
0.10229598 -0.18191755 0.2751584 0.07932813 -0.19865529 0.15849067 0.16038091 0.015722068
-0.18825637 0.18665692 0.08167355 -0.13828225 0.2340748 -0.16886625 0.034694508 0.110800035
0.18137243 -0.043241896 -0.19729312 0.1100554 0.14652592 -0.3167489 -0.15044287 0.15849411
0.19479571 -0.12938724 -0.1742727 0.05005564 0.09884221 0.19163752 -0.15727547 0.0018959712
-0.09000712 -0.14393172 0.06505437 0.02758996 0.13283479 -0.24817245 -0.13344808 0.23033017
0.15996215 0.032098066 -0.13880895 -0.11864803 0.00089502084 -0.11842523 0.11083041 0.15606984
0.13937674 -0.15116377 -0.093672626 -0.11914994 -0.048624873 -0.06328289 0.6091236 0.11895012
-0.21339098 -0.14648704 -0.0928049 0.29201052 -0.0042269565 -0.10244835 0.13882142 0.07913454
-0.24382438 0.15085715 0.10965957 0.15014482 -0.12607603 -0.16085562 -0.17616078 -0.121707045
0.15151848 0.090898976 0.14677584 -0.04487869 -0.091672346 0.21602474 0.088910356 0.08859846
-0.053603172 0.043815095 0.11989715 -0.002816169 0.07810466 -0.028735422 0.024444599 -0.044733036
-0.21895492 -0.09022852 -0.07870298 0.13707018 -0.03375173 -0.10533558 -0.09627922 -0.1712359
-0.012834325 0.27880788 -0.17399344 -0.12159853 -0.045648597 0.18939087 -0.34417224 -0.27992284
-0.014976922 -0.12675092 -0.36965886 -0.2574244 -0.10882549 0.033173554 0.20856185 0.2551866
-0.04019203 -0.0795383 0.021872208 0.16091487 0.39494684 0.09158416 -0.12332922 0.10795357
0.23369202 0.099158674 0.035242196 0.043867636 -0.09352005 0.114420414 0.024921646 -0.094830565
0.060123917 0.16898678 -0.026910828 0.052736636 0.18509233 0.11866454 0.3236288 -0.23394546
-0.15802024 -0.07743955 -0.15278533 0.074406296 0.23596334 -0.10337214 -0.27445826 0.09432341
0.09287108 0.11484304 0.02492084 -0.19282375 -0.07401947 0.017586045 0.013861338 -0.28026015
