models/kinase_baseModel_ALL_Model3.pkl (torch, 902987 bytes, 25 tensors)

bias f4 [256]
-0.1162867 0.5361934 0.6605931 -0.25756344 -0.051180173 0.0065006055 0.049983516 -0.101287894
0.7944115 1.664238 1.5497272 0.124562554 -0.020236576 -0.1090056 0.042513937 0.03264512
-0.47388697 -2.0594666 0.40483284 -0.010616382 -1.0079788 -0.020887656 -0.13393967 -0.052629028
-0.9429727 0.3251624 -0.0021122573 -0.12735161 -0.015281255 0.41581807 1.0504375 0.18659352
-0.6995695 -0.45478514 -0.052881684 -1.4544194 0.6975174 -0.013209328 -0.29314676 -1.605587
0.3591552 -0.09735591 0.27087682 -0.30246592 0.48485067 -0.3578954 1.8973899 -0.46488282
0.46688637 -0.7487598 -0.57810533 -0.42923558 -0.13445352 0.03239059 0.051558387 -0.19563146
0.4679441 -1.9502261 -0.17755608 0.022097139 -0.46044827 -1.4180413 0.62165415 0.041580893
0.25944257 0.27356488 1.3316696 3.2039666 -0.081764385 0.010275608 -0.82109 1.0315448
0.32499334 1.5320244 0.14449346 -0.5789906 -0.05203246 -0.55374086 0.5381268 0.19713235
-0.016408317 -1.4991298 0.18637364 0.254903 1.1475644 -2.0029087 -0.07699936 0.08938276
2.3720365 -0.13851207 0.03997244 -0.048285045 0.0070110383 -0.03675488 0.9056755 0.037263494
-1.0378131 -0.28438315 -0.07721432 1.1677619 -0.12093281 0.4314726 0.21053848 0.009373334
0.02753302 -1.4153348 1.6058894 0.06561541 -0.0026258787 -1.2540064 0.09474564 -1.028224
1.3574873 0.07994365 0.35666868 0.12483963 0.047038153 0.66643167 -0.004909518 0.19114494
0.03934052 -1.0300072 -0.017686456 -0.0070993504 -0.341772 0.030928198 -0.012955257 0.19088411
0.3616414 -1.0658017 0.054339796 0.24272688 0.23603576 -0.049517497 1.0891559 -0.33137718
0.32138705 -0.086808905 0.091140635 0.038292106 0.9563717 -0.018305363 0.6831311 0.3206827
-0.65546876 -0.47467557 -0.46801922 -0.9011102 0.005411154 0.5731081 0.14758264 -0.8266281
-0.6827918 -1.1556586 0.014273086 -1.0682324 -0.19446172 -0.008439641 -0.23608774 0.0736589
-1.2456474 0.17771117 -0.10082073 0.09441565 -0.0043907496 -0.49465236 -0.10907316 1.4693753
-0.06200765 -0.3464202 -0.8346107 0.040084828 -0.25209284 -1.1422366 -0.23799874 0.5205081
0.08642454 0.021437535 -0.84024066 0.06941443 0.3511209 0.46254915 -0.27370125 -1.9976709
0.13171315 -0.013009341 0.05887691 -0.56592643 -0.4208962 -0.64875996 0.008451475 -0.044753503
1.5527083 -0.12978347 0.21300116 -0.8052152 0.27378526 0.07896472 -0.13415222 -0.7720761
-0.6237116 -0.06513555 1.4068649 -0.10685532 0.003699239 0.70148975 0.1692624 -0.34497195
-0.030021738 -0.26273182 0.1812138 -1.5354426 -0.98779297 0.9840383 -0.039109997 2.3436968
-0.02795296 0.17856315 0.13045526 -0.7451226 -0.13789287 -0.52908653 0.5043387 -0.084925115
0.7225626 -0.76995885 0.16566478 -0.07856582 -0.923447 0.43828186 -0.0012380078 0.4897546
0.06291086 -0.20321774 -0.091823235 0.85057694 0.4925174 0.118943624 1.5775222 -0.002391133
-0.28232095 0.42154112 0.038524296 0.12470291 -0.5916582 0.11578108 -0.20342956 1.7762405
0.460553 0.2588953 -1.4694291 0.4818823 -0.18443304 0.3608987 -0.014887187 -0.056696538
00000000: b927 eebd f843 093f a11c 293f 5bdf 83be
00000010: 4da2 51bd 0803 d53b 84bb 4c3d 0770 cfbd
00000020: 8d5e 4b3f c005 d53f 765d c63f a71a ff3d
00000030: 2dc7 a5bc 543e dfbd 1823 2e3d e4b6 053d
00000040: 50a1 f2be 4dce 03c0 4046 cf3e 55f0 2dbc
00000050: 7305 81bf 971c abbc 7b27 09be 8991 57bd
00000060: a966 71bf b07b a63e cc6d 0abb 7668 02be
00000070: 3b5e 7abc 1be6 d43e bc74 863f 5f12 3f3e
00000080: fd16 33bf 99d9 e8be 779a 58bd 6a2a babf
00000090: 8090 323f f06b 58bc 5517 96be e083 cdbf
000000a0: 31e3 b73e 8962 c7bd 5eb0 8a3e d0dc 9abe
000000b0: 593e f83e 113e b7be acdd f23f 1f05 eebe
000000c0: bb0b ef3e b9ae 3fbf b6fe 13bf c4c4 dbbe
000000d0: 2fae 09be ffab 043d e32e 533d 9d53 48be
000000e0: 5e96 ef3e 02a1 f9bf 43d1 35be 0f05 b53c
000000f0: e0bf ebbe 6182 b5bf ba24 1f3f ba50 2a3d
00000100: a8d5 843e b210 8c3e 2674 aa3f ca0d 4d40
00000110: 1674 a7bd 065b 283c f432 52bf a909 843f
00000120: 8765 a63e 6019 c43f 18f6 133e ba38 14bf
00000130: fd1f 55bd f6c1 0dbf aec2 093f 10dd 493e
00000140: bc6a 86bc 7ce3 bfbf bbd8 3e3e a582 823e
00000150: 64e3 923f a82f 00c0 d7b1 9dbd 4f0e b73d
00000160: 72cf 1740 1cd6 0dbe 24ba 233d 8ac6 45bd
00000170: dabc e53b 498c 16bd 59da 673f 9ba1 183d
00000180: 0fd7 84bf ab9a 91be 8b22 9ebd 3979 953f
00000190: 9fab f7bd fae9 dc3e 6697 573e 9d92 193c
000001a0: ee8c e13c b129 b5bf c98d cd3f 5f61 863d
000001b0: ef16 2cbb 4883 a0bf 010a c23d d89c 83bf
000001c0: 25c2 ad3f 7fb9 a33d 479d b63e ecab ff3d
000001d0: 14ab 403d 449b 2a3f 06e0 a0bb 80bb 433e
000001e0: 8623 213d 47d7 83bf 30e3 90bc aba1 e8bb
000001f0: bdfc aebe 225d fd3c 4942 54bc 2077 433e
00000200: 1029 b93e 316c 88bf 6893 5e3d 658d 783e
00000210: 5cb3 713e dcd2 4abd 7669 8b3f 45aa a9be
00000220: d88c a43e dec8 b1bd f1a7 ba3d 2fd8 1c3d
00000230: c7d4 743f 21f5 95bc aee1 2e3f 8630 a43e
00000240: cdcc 27bf ad08 f3be 37a0 efbe 28af 66bf
00000250: 0d50 b13b 36b7 123f e71f 173e e69d 53bf
00000260: 72cb 2ebf 9fec 93bf a9d9 693c d7bb 88bf
00000270: f920 47be 6c46 0abc fcc0 71be 7ada 963d
00000280: 6071 9fbf ebf9 353e 197b cebd fe5c c13d
00000290: 47e0 8fbb 1343 fdbe c061 dfbd 7d14 bc3f
000002a0: bcfb 7dbd fd5d b1be 0ca9 55bf fd2f 243d
000002b0: 5012 81be cf34 92bf f1b5 73be 0540 053f
000002c0: 59ff b03d c59d af3c 031a 57bf 2729 8e3d
000002d0: 1ec6 b33e 3ed3 ec3e 9222 8cbe aeb3 ffbf
000002e0: d0df 063e 2225 55bc ea28 713d 8ee0 10bf
000002f0: b57f d7be 2215 26bf 0e78 0a3c 734f 37bd
00000300: 25bf c63f f5e5 04be fa1c 5a3e 9522 4ebf
00000310: 952d 8c3e 41b8 a13d 335f 09be c7a6 45bf
00000320: 90ab 1fbf ca65 85bd 2614 b43f f6d6 dabd
00000330: ef6e 723b d594 333f 1f53 2d3e 2aa0 b0be
00000340: 26f0 f5bc c984 86be 1c90 393e 6289 c4bf
00000350: 00e0 7cbf efe9 7b3f ce31 20bd 21ff 1540
00000360: 9bfd e4bc 42d9 363e 1096 053e 5bc0 3ebf
00000370: ca33 0dbe 3772 07bf 571c 013f 38ed adbd
00000380: ddf9 383f 061c 45bf 07a4 293e 1ee7 a0bd
00000390: 0667 6cbf 7b66 e03e a644 a2ba 1dc1 fa3e
000003a0: 69d7 803d 5018 50be d20d bcbd 69bf 593f
000003b0: 3e2b fc3e b798 f33d 3fec c93f 8eb4 1cbb
000003c0: 5f8c 90be 3dd4 d73e a7cb 1d3d 3d64 ff3d
000003d0: e976 17bf a21e ed3d d74f 50be d95b e33f
000003e0: 9acd eb3e ed8d 843e 4116 bcbf 47b9 f63e
000003f0: 04dc 3cbe b7c7 b83e 63e9 73bc a13a 68bd

weight f4 [256, 75]
0.31201765 0.40427986 0.2671934 -0.5230146 0.089666195 0.5170274 -1.1748374 -0.010309635
-0.0058433153 -0.088327885 -0.023251122 -0.028420353 0.024181757 0.056694444 -0.008119681 -0.36350554
-0.030455269 -0.049672816 -0.08692155 -0.121237665 0.00036781505 -0.08935229 0.031422626 0.12243196
0.12605321 -0.05161124 0.09371764 0.13433169 0.005692972 0.105548665 0.08771586 0.034969363
-0.08663978 -0.03754715 0.09017203 0.015447414 0.017248018 0.008236782 -0.080556534 -0.11016029
0.020228608 -0.115515545 -0.13271734 -0.011575782 0.10607459 0.45557755 0.37080818 -0.09316833
-0.019335657 0.022856455 0.116950676 0.034179963 0.016460996 -0.11596408 -0.014527852 0.18101014
0.1429393 0.023758516 0.16642804 0.11550353 0.024958378 0.11383514 -0.10243594 -0.7958804
1.3175552 0.13672672 0.08910275 0.03486197 -0.015178402 -0.07500835 0.25074795 0.24283803
0.20058507 0.1289481 0.10725013 0.55302656 -0.39067143 0.6152485 -0.64602983 -0.15723558
0.12607926 -0.48007664 -0.33251905 -0.26194805 -0.09766757 -0.023919968 -0.021133307 -0.06753258
0.0260334 0.097079866 -0.4712659 0.09999934 -0.0066147805 -0.09712086 0.12407517 0.0055455538
-0.122100316 -0.09658434 0.023065792 0.13452312 -0.09236778 -0.1067571 0.05559981 -0.09642163
0.019630862 -0.081494264 -0.06449231 -0.060978524 -0.09001306 -0.11589466 0.0686933 0.10336623
0.022110488 0.016841955 -0.024445232 -0.029350828 0.1258492 -0.08231793 0.005866327 0.107414976
0.53555644 -0.3300763 0.3071675 0.16024262 -0.1315464 -0.0020038593 -0.018460987 0.016571242
-0.07802737 0.09044989 0.17780446 0.14094959 0.07800668 0.20825896 -0.027909245 -0.0007684842
-0.07502366 -0.6995709 0.27397102 -0.10712985 0.09009147 -0.072529204 0.05400941 -0.021729335
-0.26039147 0.24980323 0.010164984 -0.03640084 0.08734835 -0.08389544 0.44287556 0.0903221
-0.5163144 -0.25523248 0.10675489 -1.1069949 0.9952067 -0.5928591 -0.11536369 -0.023100043
0.004132908 0.104680754 -0.005460859 0.024280513 -0.13338752 -0.10464286 -0.059193794 0.055584002
0.053631853 -0.042334504 -0.073957 0.032765616 -0.04090164 -0.0072287526 -0.024796724 -0.081989534
-0.010764894 -0.041686926 -0.0221375 -0.09913963 0.04717096 0.090806805 -0.0842179 0.09268361
-0.07624886 0.12494934 -0.08085611 -0.11309171 0.10518342 -0.10640159 -0.08805936 -0.0059833783
-0.11655124 -0.10714762 0.02450144 -0.19165091 -0.009795155 -0.007771968 0.41471052 -0.023598216
0.076877676 0.011396425 -0.12266996 -0.042493336 -0.061141834 0.101526044 -0.07587483 -0.26112714
0.08358786 0.1052816 0.10627996 -0.060357332 0.56434214 0.14921004 -0.21971488 0.08741743
-0.044773616 -0.13216515 -0.06276653 -0.437604 0.36023992 -0.041895464 -0.21441315 0.027573777
0.047012195 0.32851532 -0.95989394 0.26692793 0.07382719 0.192099 0.056438625 0.80548865
-0.55022013 -0.27559784 0.1317357 -0.12231222 -0.026394313 -0.13059528 -0.10916127 -0.100649744
-0.24179643 0.072213806 0.08808004 -0.047709193 0.08088153 -0.09357181 0.0006439211 -0.070865154
0.08295907 -0.03217681 -0.0982604 0.061299555 -0.0025110675 0.0032177276 -0.10101943 -0.062126845
00000000: c7c0 9f3e c5fd ce3e 93cd 883e 49e4 05bf
00000010: e9a2 b73d e85b 043f 1261 96bf bee9 28bc
00000020: 4879 bfbb 40e5 b4bd 2379 bebc cdd1 e8bc
00000030: d218 c63c 6f38 683d 6908 05bc 661d babe
00000040: 547d f9bc b975 4bbd ed03 b2bd 744b f8bd
00000050: 4dd7 c039 55fe b6bd 03b5 003d 9cbd fa3d
00000060: 1814 013e 4f66 53bd 09ef bf3d 3f8e 093e
00000070: 1c8c ba3b e629 d83d 5fa4 b33d 093c 0f3d
00000080: 3270 b1bd 0acb 19bd 1dac b83d 2617 7d3c
00000090: b74b 8d3c 91f3 063c d3fa a4bd b89b e1bd
000000a0: 77b6 a53c 6a93 ecbd 0ee7 07be 59a8 3dbc
000000b0: a23d d93d 7641 e93e 92da bd3e 0acf bebd
000000c0: d065 9ebc 763d bb3c d683 ef3d 4a00 0c3d
000000d0: 36d9 863c 937e edbd 3a06 6ebc b95a 393e
000000e0: ae5e 123e 38a1 c23c 1d6c 2a3e 1d8d ec3d
000000f0: 8375 cc3c 6622 e93d efc9 d1bd d1be 4bbf
00000100: a6a5 a83f 1702 0c3e 817b b63d 6dcb 0e3d
00000110: d5ae 78bc fa9d 99bd 0962 803e 88aa 783e
00000120: 2c66 4d3e f90a 043e f5a5 db3d 2693 0d3f
00000130: 1606 c8be ed80 1d3f 3662 25bf 5d02 21be
00000140: ec1a 013e 9bcc f5be f03f aabe 0e1e 86be
00000150: ef05 c8bd cff3 c3bc c21f adbc 854e 8abd
00000160: ff43 d53c cfd1 c63d c449 f1be 74cc cc3d
00000170: cdc0 d8bb 4de7 c6bd 1f1b fe3d 7ab7 b53b
00000180: bb0f fabd 03ce c5bd 79f4 bc3c 6ec0 093e
00000190: 522b bdbd 77a3 dabd a0bc 633d b478 c5bd
000001a0: e7d0 a03c 77e6 a6bd 8b14 84bd 9ec4 79bd
000001b0: c458 b8bd 2e5a edbd 13af 8c3d adb1 d33d
000001c0: 0e21 b53c 24f8 893c 5e41 c8bc 2671 f0bc
000001d0: 9dde 003e 4e96 a8bd 513a c03b 62fc db3d
000001e0: 3a1a 093f c3ff a8be 0f45 9d3e a416 243e
000001f0: 19b4 06be 2e53 03bb 7f3b 97bc 6ac0 873c
00000200: d0cc 9fbd cb3d b93d 5f12 363e 1755 103e
00000210: f7c1 9f3d d641 553e eea1 e4bc 1a74 49ba
00000220: 01a6 99bd 1417 33bf ee45 8c3e e566 dbbd
00000230: e081 b83d 318a 94bd f938 5d3d b801 b2bc
00000240: 0852 85be 6bcc 7f3e 088b 263c 0c19 15bd
00000250: b1e3 b23d 5fd1 abbd 96c0 e23e cbfa b83d
00000260: 2e2d 04bf d5ad 82be 4fa2 da3d 02b2 8dbf
00000270: dec5 7e3f 9dc5 17bf cc43 ecbd 4d3c bdbc
00000280: 586d 873b dd62 d63d 01f1 b2bb ede7 c63c
00000290: bd96 08be ff4e d6bd 3175 72bd 0dac 633d
000002a0: 13ad 5b3d f266 2dbd c576 97bd 3d35 063d
000002b0: 7a88 27bd 2cdf ecbb 8022 cbbc 21ea a7bd
000002c0: 3d5f 30bc e9bf 2abd b459 b5bc b809 cbbd
000002d0: 5636 413d ebf8 b93d 6f7a acbd e8d0 bd3d
000002e0: 5d28 9cbd 71e5 ff3d e397 a5bd a09c e7bd
000002f0: 686a d73d 14e9 d9bd 7758 b4bd 3710 c4bb
00000300: 6bb2 eebd 3670 dbbd 3eb7 c83c 2340 44be
00000310: dc7b 20bc feab febb f054 d43e 0c51 c1bc
00000320: 0b72 9d3d 12b8 3a3c 633a fbbd 7e0d 2ebd
00000330: dc6f 7abd e3ec cf3d 4364 9bbd 75b2 85be
00000340: 1d30 ab3d e19d d73d 4fa9 d93d 4039 77bd
00000350: ba78 103f 84ca 183e f0fc 60be e907 b33d
00000360: 8a64 37bd 4d56 07be bd8b 80bd a20d e0be
00000370: 5e71 b83e 949a 2bbd 1f8f 5bbe 67e2 e13c
00000380: dc8f 403d 2933 a83e 9cbb 75bf c7aa 883e
00000390: b632 973d 9ab5 443e 302c 673d 8134 4e3f
000003a0: 3adb 0cbf 291b 8dbe b9e5 063e d47e fabd
000003b0: e338 d8bc c5ba 05be f28f dfbd 7421 cebd
000003c0: 7c99 77be d5e4 933d 4f63 b43d b76a 43bd
000003d0: 37a5 a53d 94a2 bfbd d0cc 283a c021 91bd
000003e0: 72e6 a93d d5cb 03bd c03c c9bd 3e15 7b3d
000003f0: b990 24bb 83e0 523b 46e3 cebd b878 7ebd

weight f4 [256]
0.008875417 3.5854836 2.4706614 2.9749112 3.796441 0.34617865 1.7106671 1.5769595
3.195649 4.3019137 4.232829 1.2802869 0.6753702 3.1126163 0.89853346 1.548711
2.1264515 4.0373826 1.4464356 0.9044902 3.2024932 0.9387013 1.673374 0.7951857
2.6317456 5.2344465 0.970208 2.0309846 0.21020822 1.9822847 4.034477 2.073776
4.3786364 2.7363415 0.8436635 3.7925339 4.0902114 0.7667193 1.6158556 4.95104
1.776366 1.735973 3.355028 1.9089197 2.984049 2.0422692 5.495233 1.9723598
3.042526 1.9040163 3.3328555 3.131152 1.4195336 0.89977455 0.8355097 1.96687
1.6185822 4.4877586 2.9641628 0.8255646 2.7944736 3.3168242 2.826699 1.104208
3.2855537 1.6596665 3.7761881 5.834538 2.6216617 0.9621601 4.6456265 2.3452418
2.2068481 4.5523944 1.7273445 1.8885417 1.5198847 2.4502556 2.5979161 2.4192867
2.0554612 3.6034064 1.3792461 1.7289149 4.131783 4.7640643 0.022257343 0.9292488
5.2478657 0.06520507 1.7948923 1.1296574 1.0026968 1.1926361 2.2373838 1.8610871
4.9414563 2.2393243 1.9709361 3.743287 1.8764437 2.1210313 2.3598948 1.9167382
0.9481959 3.095089 3.6181912 0.6612763 1.4376591 3.6037216 2.5256088 3.349366
3.5207682 2.8587263 2.948354 1.4099463 1.7053057 3.1476655 2.3855183 2.6565971
1.8013495 3.2406147 1.102163 0.7474647 3.4744298 0.7148845 1.0942127 1.9478986
2.9513113 3.0879116 4.235352 2.2511208 1.1816301 0.49560285 3.1507695 2.8685458
1.4748989 2.3433022 1.8790367 1.5889491 3.9402328 2.5832393 2.6819456 2.2882135
3.2398856 2.9999342 2.3277714 2.8318465 1.0569121 3.041172 1.9027603 3.2274547
4.5122895 3.5827563 1.6596876 3.7347257 1.6887467 1.2891399 2.6115108 1.6370156
3.4393828 2.0934448 0.35916585 1.577417 0.78562826 2.861251 1.5846329 4.3214054
3.3096256 3.1999676 3.6506352 1.5959427 2.0559733 4.410951 4.1586523 3.1812344
1.7644318 0.7646651 3.1874423 1.0562627 2.753006 3.3521943 1.8988733 4.3674493
2.3178444 1.4342295 1.2229463 3.210817 2.6287258 3.1951685 0.10171827 2.0649135
3.472945 1.1144232 1.9766183 3.6798687 2.1242135 2.5694504 3.1616561 2.2717774
3.029273 0.38578197 4.409843 0.435489 0.9690949 2.523898 2.111368 1.6206584
0.79358107 2.497298 2.027225 3.2626512 3.328044 2.9105537 1.0688164 5.2998347
1.2494354 2.0049934 2.1269503 4.230348 2.9922478 3.0633957 1.7779969 0.044689365
3.0825632 3.669733 1.97316 1.9620587 3.6478715 3.2138581 1.058761 2.4676282
1.6691351 1.8553814 1.0981914 2.9684336 2.5020597 2.8987653 3.986607 1.6469109
2.164307 4.00244 2.6327152 1.9676204 3.517825 2.652029 1.8053874 4.6314
3.2200482 1.9538994 3.2541075 2.0044074 2.0313005 2.248803 2.9442153 1.9735439
00000000: 326a 113c 9078 6540 511f 1e40 f264 3e40
00000010: e4f8 7240 543e b13e 24f7 da3f cfd9 c93f
00000020: 8385 4c40 47a9 8940 5673 8740 71e0 a33f
00000030: 10e5 2c3f 1b35 4740 4a06 663f 293c c63f
00000040: c817 0840 3d32 8140 cd24 b93f ab8c 673f
00000050: a6f5 4c40 ba4e 703f 1f31 d63f 4a91 4b3f
00000060: 856e 2840 9680 a740 8d5f 783f a7fb 0140
00000070: d340 573e 81bb fd3f 701a 8140 bfb8 0440
00000080: ca1d 8c40 3820 2f40 55fa 573f e0b8 7240
00000090: 03e3 8240 b747 443f 5bd4 ce3f eb6e 9e40
000000a0: f65f e33f 5d34 de3f c7b8 5640 7b57 f43f
000000b0: a9fa 3e40 8ab4 0240 f3d8 af40 4976 fc3f
000000c0: bfb8 4240 ceb6 f33f 814d 5540 cb64 4840
000000d0: 47b3 b53f a057 663f f7e3 553f 65c2 fb3f
000000e0: b42d cf3f b89b 8f40 d8b4 3d40 3458 533f
000000f0: a8d8 3240 d946 5440 a3e8 3440 b056 8d3f
00000100: 8346 5240 f46f d43f 11ad 7140 89b4 ba40
00000110: 4ec9 2740 2050 763f f9a8 9440 7118 1640
00000120: 003d 0d40 37ad 9140 a019 dd3f bcbb f13f
00000130: 958b c23f fdd0 1c40 4244 2640 98d5 1a40
00000140: ad8c 0340 369e 6640 238b b03f 154d dd3f
00000150: 9137 8440 3773 9840 0855 b63c 40e3 6d3f
00000160: 84ee a740 3c8a 853d 08bf e53f 9d98 903f
00000170: 5e58 803f 4da8 983f 4c31 0f40 1a38 ee3f
00000180: 6920 9e40 1751 0f40 a247 fc3f 0492 6f40
00000190: 4f2f f03f fabe 0740 8408 1740 ad57 f53f
000001a0: f7bc 723f f015 4640 7290 6740 6749 293f
000001b0: 3705 b83f 60a3 6640 93a3 2140 035c 5640
000001c0: 4454 6140 5ff5 3640 d5b1 3c40 1f79 b43f
000001d0: 7547 da3f 5a73 4940 55ac 1840 b005 2a40
000001e0: 9f92 e63f 3b66 4f40 ad13 8d3f d959 3f3f
000001f0: 0f5d 5e40 ac02 373f 290f 8c3f be54 f93f
00000200: 49e2 3c40 58a0 4540 0188 8740 5d12 1040
00000210: a83f 973f a8bf fd3e 35a6 4940 4196 3740
00000220: 7dc9 bc3f aaf8 1540 4684 f03f af62 cb3f
00000230: c62c 7c40 cb53 2540 ffa4 2b40 1772 1240
00000240: 495a 4f40 ecfe 3f40 35fa 1440 f93c 3540
00000250: e548 873f 90a2 4240 a68d f33f 9e8e 4e40
00000260: ad64 9040 e14b 6540 a570 d43f bf05 6f40
00000270: da28 d83f 8902 a53f fe22 2740 ba89 d13f
00000280: d91e 5c40 00fb 0540 96e4 b73e cde8 c93f
00000290: ef1e 493f bd1e 3740 40d5 ca3f f448 8a40
000002a0: e8d0 5340 45cc 4c40 02a4 6940 da47 cc3f
000002b0: 1195 0340 8326 8d40 ae13 8540 5899 4b40
000002c0: e7d8 e13f 18c1 433f 0eff 4b40 9e33 873f
000002d0: 4031 3040 5a8a 5640 480e f33f 25c2 8b40
000002e0: 9057 1440 d594 b73f 8189 9c3f 077e 4d40
000002f0: 0b3d 2840 a47d 4c40 ab51 d03d 8b27 0440
00000300: bb44 5e40 6ba5 8e3f d401 fd3f f882 6b40
00000310: 1df3 0740 e071 2440 9358 4a40 cd64 1140
00000320: 9cdf 4140 3785 c53e 6f1d 8d40 6af8 de3e
00000330: 9a16 783f 8b87 2140 a720 0740 bc71 cf3f
00000340: 2128 4b3f bbd3 1f40 0ebe 0140 47cf 5040
00000350: acfe 5440 8346 3a40 face 883f 3f98 a940
00000360: 80ed 9f3f d051 0040 f41f 0840 035f 8740
00000370: fd80 3f40 ad0e 4440 6795 e33f 320c 373d
00000380: b748 4540 e8dc 6a40 8290 fc3f bd24 fb3f
00000390: ba76 6940 daaf 4d40 7b85 873f 9fed 1d40
000003a0: 38a6 d53f 237d ed3f 8991 8c3f d1fa 3d40
000003b0: bf21 2040 5f85 3940 9224 7f40 facd d23f
000003c0: 0284 0a40 fd13 8040 687e 2840 fcda fb3f
000003d0: 0b24 6140 d8ba 2940 ef16 e73f 6e34 9440
000003e0: 4515 4e40 6019 fa3f 4c43 5040 3648 0040
000003f0: d400 0240 63ec 0f40 066e 3c40 169d fc3f

bias f4 [256]
0.32033512 -0.34234083 0.09035694 1.2128816 0.057976097 1.1541159 0.59993374 0.8549337
-0.64477676 -0.9419055 0.029258484 -0.9448044 -1.0449392 -0.1007386 -0.9787379 -0.702985
0.5054526 -0.062773705 0.67695326 0.967408 -0.49233863 1.452541 0.7174834 -1.0426394
0.30013102 0.06104716 -1.2636175 -0.47965682 0.40771365 -1.2813116 -0.17307717 -0.6305492
0.0494012 -0.2062423 -0.87065065 0.037372638 -0.10868721 -0.8025863 -0.08694731 0.48188013
0.92374736 0.28746542 -0.721723 -0.6530393 0.7989119 1.0508885 -0.3353576 0.9520533
0.9347032 0.6769186 0.3550227 -0.041861914 1.1878552 1.4103309 0.7695368 -0.5637994
0.5211281 0.26426792 0.3764381 1.0386473 -0.53512836 0.1715337 -0.73197216 0.19516161
0.61790836 0.32706782 -1.058639 0.0066200774 -0.6862254 0.018639296 -0.27374676 1.1669946
-0.59032965 0.019003378 -0.8250674 0.20324266 0.39055783 0.19871652 -0.7292066 0.20001319
-1.6603322 0.88896483 -0.92170155 -0.24181336 -0.5624661 -0.4284504 0.6147398 0.92671174
0.049993105 -1.0631453 -0.75244653 -0.29262415 1.4237295 -0.98688006 -1.450369 -0.47714424
0.09744603 -0.31874588 0.57401735 -0.8965868 -0.9923591 -1.189555 0.78365546 -0.2564613
0.86205894 -0.89611095 -0.42841125 0.83410716 0.21561764 -0.38921255 -0.2665936 -0.49039936
1.0295993 -0.5470784 0.1076755 -0.82199675 -0.16788417 0.013315755 0.17550653 0.25003877
-0.5209059 -1.0877378 0.40586874 0.57558626 0.20615543 -0.88284326 0.57556015 0.35712287
-0.48072731 -0.8304616 0.07716437 0.37684682 -0.5226815 -0.043440726 0.45374143 0.016889831
-0.22676602 -0.2294805 -0.6275136 -0.95544887 0.11216809 -0.6708569 -0.1146954 1.0814035
0.67091775 -0.59627956 0.5027082 -0.6436837 -1.1267827 -0.088174015 0.25793672 -0.17474458
0.099879004 -0.12049508 0.85179126 0.6788823 -0.2326208 -0.6183588 0.6504989 0.96548635
-0.46243817 0.25116712 -0.30293706 -0.09465739 0.30309844 0.28345746 0.8846431 -0.3858035
-1.0626941 -0.41074023 -0.5774111 1.3639723 -0.6559636 -0.00033889728 -0.6959283 0.9275206
-0.091572315 -0.045004934 0.1438022 -1.2004097 0.43401772 0.2044376 0.13357139 0.6674519
0.10374079 0.6201537 -0.6319615 -0.63290423 -0.47013238 0.008405937 1.0749582 -1.3994713
-0.39087445 0.24881157 0.34002268 0.18714881 -0.031989492 -1.1644608 -0.6039351 0.10082234
-0.084926836 0.83930844 0.2956069 -0.343534 1.0107954 -0.8339024 -0.32289824 0.353352
1.1774839 0.5593698 -0.12358454 0.7017683 0.1788284 -0.53851646 1.0713212 0.664388
0.83303946 -1.5973173 0.30898547 0.28447992 0.40160102 -0.59662354 -0.9324895 -0.85650015
-0.07039786 0.48451725 -1.4827225 -1.0051252 0.43288895 0.85380125 0.31484348 -0.28110063
-0.86070955 -0.4144505 0.8563613 0.26507738 1.5330503 0.43419322 0.6868238 -0.6028795
0.85216385 -0.1851989 -0.07384238 -1.2029272 0.2612886 -1.018764 0.532045 0.26325765
0.1751752 -0.8004305 -0.007295604 -0.43947774 -0.8071255 -0.671734 0.3686118 -0.9525148
00000000: f702 a43e 4c47 afbe 0f0d b93d b43f 9b3f
00000010: 5878 6d3d 12ba 933f 4295 193f efdc 5a3f
00000020: 1710 25bf b820 71bf 7daf ef3c b3de 71bf
00000030: 91c0 85bf 0a50 cebd 918e 7abf d3f6 33bf
00000040: 5765 013f 808f 80bd cf4c 2d3f 0da8 773f
00000050: cf13 fcbe ddec b93f feac 373f 3575 85bf
00000060: c6aa 993e 960c 7a3d 38be a1bf 9495 f5be
00000070: d8bf d03e 0502 a4bf 243b 31be ac6b 21bf
00000080: ea58 4a3d 2e31 53be f6e2 5ebf 0d14 193d
00000090: 6697 debd 4c76 4dbf 6e11 b2bd feb8 f63e
000000a0: b57a 6c3f ab2e 933e d7c2 38bf 952d 27bf
000000b0: 7e85 4c3f 8483 863f feb3 abbe c4b9 733f
000000c0: b548 6f3f 8a4a 2d3f 89c5 b53e 6677 2bbd
000000d0: a40b 983f b985 b43f 5d00 453f 2855 10bf
000000e0: a768 053f 204e 873e 7fbc c03e 65f2 843f
000000f0: 2cfe 08bf 88a6 2f3e 8762 3bbf 72d8 473e
00000100: 3e2f 1e3f 6f75 a73e 7c81 87bf 3ced d83b
00000110: 78ac 2fbf 70b1 983c 8928 8cbe 1460 953f
00000120: d81f 17bf f9ac 9b3c 9e37 53bf d81e 503e
00000130: 32f7 c73e 587c 4b3e 49ad 3abf 42d0 4c3e
00000140: c485 d4bf 3393 633f a2f4 6bbf ec9d 77be
00000150: c7fd 0fbf da5d dbbe 965f 1d3f fb3c 6d3f
00000160: 92c5 4c3d 2515 88bf 56a0 40bf d5d2 95be
00000170: c53c b63f 2ca4 7cbf b1a5 b9bf 404c f4be
00000180: c991 c73d a932 a3be cdf2 123f b686 65bf
00000190: 3f0b 7ebf 5743 98bf a59d 483f e54e 83be
000001a0: e5af 5c3f 8767 65bf b858 dbbe 0c88 553f
000001b0: dfca 5c3e de46 c7be f57e 88be a015 fbbe
000001c0: e9c9 833f 540d 0cbf f984 dc3d 616e 52bf
000001d0: d4e9 2bbe 532a 5a3c fcb7 333e 1505 803e
000001e0: 175a 05bf fe3a 8bbf 07ce cf3e 9f59 133f
000001f0: 691a 533e 0402 62bf e957 133f cfd8 b63e
00000200: e421 f6be 2299 54bf 5a08 9e3d 11f2 c03e
00000210: 74ce 05bf e7ee 31bd cc50 e83e 8b5c 8a3c
00000220: 5a35 68be f0fc 6abe bba4 20bf 4c98 74bf
00000230: 62b8 e53d 47bd 2bbf 6ce5 eabd 6e6b 8a3f
00000240: 44c1 2b3f c7a5 18bf 7cb1 003f 74c8 24bf
00000250: 6a3a 90bf 9494 b4bd 4810 843e 3ef0 32be
00000260: 5d8d cc3d 20c6 f6bd fe0e 5a3f 3bcb 2d3f
00000270: 2634 6ebe c34c 1ebf 1987 263f 1d2a 773f
00000280: b2c4 ecbe fa98 803e 911a 9bbe bcdb c1bd
00000290: b82f 9b3e 5621 913e f877 623f 0988 c5be
000002a0: 5c06 88bf 8b4c d2be 37d1 13bf a596 ae3f
000002b0: 3bed 27bf 06ae b1b9 5b28 32bf fd71 6d3f
000002c0: 448a bbbd 1857 38bd e240 133e 06a7 99bf
000002d0: 9237 de3e 1758 513e f0c6 083e 21de 2a3f
000002e0: 0d76 d43d 65c2 1e3f 3bc8 21bf 0306 22bf
000002f0: 31b5 f0be 0eb9 093c 3b98 893f e021 b3bf
00000300: b220 c8be 76c8 7e3e 7417 ae3e f0a3 3f3e
00000310: 6a07 03bd 0d0d 95bf 7e9b 1abf f17b ce3d
00000320: 1fee adbd ebdc 563f ca59 973e b0e3 afbe
00000330: be61 813f a17a 55bf eb52 a5be 8eea b43e
00000340: cbb7 963f dc32 0f3f e419 fdbd 16a7 333f
00000350: cb1e 373e 37dc 09bf 0e21 893f 5515 2a3f
00000360: 1342 553f e574 ccbf 5833 9e3e 5aa7 913e
00000370: a69e cd3e 52bc 18bf a2b7 6ebf 9843 5bbf
00000380: c12c 90bd a512 f83e dac9 bdbf f1a7 80bf
00000390: 9fa3 dd3e b892 5a3f 2a33 a13e 6cec 8fbe
000003a0: 7657 5cbf db32 d4be 7f3a 5b3f 39b8 873e
000003b0: fe3a c43f 934e de3e afd3 2f3f 5056 1abf
000003c0: 6927 5a3f c8a4 3dbe ac3a 97bd 85f9 99bf
000003d0: 9fc7 853e dc66 82bf 1a34 083f b5c9 863e
000003e0: 2161 333e 03e9 4cbf f60f efbb 3a03 e1be
000003f0: c79f 4ebf c2f6 2bbf b0ba bc3e 03d8 73bf

running_mean f4 [256]
0.87675214 1.0659679 0.87843937 -0.46549985 0.15105394 -0.09797703 0.4398601 -0.72396064
0.74716026 1.8743004 2.4983146 0.5878898 0.16413708 -0.51425916 0.7277136 0.3407205
-1.01571 -2.8625367 1.0617939 -0.12000427 -1.409361 -0.23697719 -0.69629025 -0.21150437
-1.4644908 0.17782335 0.047386672 -0.109328195 0.28064716 1.0264131 1.5653098 0.52505153
-1.5062693 -0.62275505 0.14681372 -1.9371047 0.80941856 0.23608607 -0.9065397 -2.0078354
0.68821955 -0.06980577 0.35569176 -1.3916668 0.79736507 -0.09511202 2.1101155 -1.0077988
0.48674494 -1.3451637 -0.75282246 -0.73120564 -0.5560486 -0.29307717 -0.7881025 -0.29510808
0.5213689 -2.2919776 -0.62215143 -0.6661292 -0.6428356 -1.549554 0.9141605 -0.9796731
0.32320204 0.7059383 1.8987707 3.6291018 -0.31796893 0.015673028 -0.83664334 1.2276126
0.51780564 1.755359 0.5706247 -1.1870037 0.15348732 -1.5148051 1.0386083 0.35758224
0.37515277 -2.0203319 0.455397 0.87999666 1.4786736 -2.7829409 0.38387296 -0.13023636
2.6300461 0.27670965 0.16306774 -0.102403104 -0.2232795 -0.075500205 1.3129861 0.2179189
-1.3879526 -1.0199319 -0.2803021 0.74424595 0.09093876 0.5976353 0.09220943 -0.2404604
-0.27950418 -1.6511965 2.269465 -0.051812895 0.74614567 -1.8575692 0.07270483 -1.1427209
1.7458152 0.375973 0.37982285 0.89453954 0.03625302 0.5508274 -0.31693605 0.64736056
0.57367736 -1.1494713 -0.06473595 -0.0075133103 -0.045471195 0.19035564 0.18881921 -0.2312553
0.5678993 -1.6150355 0.0069762673 1.054266 0.9876351 0.391547 1.9022664 -0.2780713
0.40893492 -0.051566996 0.52603656 -0.07360144 1.2523515 0.32493505 1.6733369 0.2751413
-0.79063106 -0.852249 -1.1129482 -1.333231 0.588972 0.92980313 0.1739372 -1.354963
-0.8161032 -1.3932781 0.05333798 -1.3843403 -0.8618977 -0.5748414 -0.11289657 0.33293796
-1.8113251 0.6376386 0.20240304 0.7776791 -0.5642713 -0.8838184 -0.47510383 1.5313237
-0.15169413 -0.06490761 -0.92934036 -0.3618126 -0.72212225 -1.6725994 -0.21943676 0.8496278
0.6998853 -0.40676454 -0.7340803 0.64752483 0.38486543 0.5488125 -0.4108544 -2.363805
0.6202824 -0.28309745 0.51177007 -0.8893086 -0.7178626 -0.7676041 0.13545924 0.36271617
1.7015163 -0.42588213 0.29893917 -1.1470131 0.49707872 0.2710623 -0.38430998 -1.438679
-1.4787736 0.14309844 1.7524644 0.18079601 -0.4018801 1.0320702 0.23803698 -0.88621384
-0.046925224 -0.5979365 0.24374014 -2.324376 -1.9033405 1.6072096 -0.16288142 3.2480104
-0.2600484 0.82501847 0.06292032 -0.8322668 -0.27595776 -1.0785204 1.4164324 0.29071465
0.502134 -1.3856541 0.27053455 -0.7128823 -1.6022391 0.74500966 -0.45960325 1.0839609
0.6187875 -0.58570105 -0.22583684 1.2637799 0.34056997 0.25175917 1.7363089 -0.2172542
-0.9200128 0.39002073 0.3503121 -0.19387524 -0.77112275 -0.0722518 -0.588696 2.0366745
1.0989237 0.7492485 -2.2340815 0.57522213 -0.30049297 0.4399475 -0.11318959 -0.47697282
00000000: d472 603f a371 883f 67e1 603f ff55 eebe
00000010: e2ad 1a3e 2ea8 c8bd 5835 e13e 7c55 39bf
00000020: e545 3f3f 13e9 ef3f 63e4 1f40 f27f 163f
00000030: 8d13 283e 7da6 03bf 704b 3a3f eb72 ae3e
00000040: c902 82bf cd33 37c0 dde8 873f ccc4 f5bd
00000050: f165 b4bf 26aa 72be 1440 32bf 9a94 58be
00000060: 6f74 bbbf 5317 363e 8718 423d 76e7 dfbd
00000070: fcb0 8f3e 8161 833f 125c c83f c769 063f
00000080: 6fcd c0bf e06c 1fbf 5656 163e 0cf3 f7bf
00000090: 0e36 4f3f 8cc0 713e fc12 68bf 6080 00c0
000000a0: 282f 303f 54f6 8ebd 3b1d b63e 2322 b2bf
000000b0: 1e20 4c3f 17ca c2bd 220c 0740 8dff 80bf
000000c0: a236 f93e 532e acbf f9b8 40bf 4b30 3bbf
000000d0: 3359 0ebf 360e 96be 16c1 49bf 6818 97be
000000e0: 6f78 053f c3af 12c0 5145 1fbf 7187 2abf
000000f0: e090 24bf c957 c6bf 6c06 6a3f dbcb 7abf
00000100: bd7a a53e 5fb8 343f eb0a f33f 3443 6840
00000110: d3cc a2be b964 803c 422e 56bf 6922 9d3f
00000120: e98e 043f 9baf e03f 7614 123f bdef 97bf
00000130: c82b 1d3e 22e5 c1bf 1ef1 843f 0515 b73e
00000140: 0614 c03e 1e4d 01c0 cc29 e93e 7647 613f
00000150: 2d45 bd3f b41b 32c0 ff8a c43e ae5c 05be
00000160: ad52 2840 e3ac 8d3e 3bfb 263e b8b8 d1bd
00000170: 62a3 64be da9f 9abd ee0f a83f 2226 5f3e
00000180: 6ea8 b1bf 218d 82bf c283 8fbe e786 3e3f
00000190: 1a3e ba3d a1fe 183f 4cd8 bc3d 403b 76be
000001a0: 2c1b 8fbe 685a d3bf ea3e 1140 c239 54bd
000001b0: 6703 3f3f d4c4 edbf 45e6 943d ae44 92bf
000001c0: df76 df3f 887f c03e 2478 c23e 8b00 653f
000001d0: 0c7e 143d 0603 0d3f 7145 a2be 6cb9 253f
000001e0: 85dc 123f e021 93bf 4894 84bd 3732 f6bb
000001f0: 0140 3abd 97ec 423e d359 413e 30ce 6cbe
00000200: d961 113f 7cb9 cebf 2c99 e43b 30f2 863f
00000210: a7d5 7c3f d978 c83e 777d f33f 5d5f 8ebe
00000220: eb5f d13e ea37 53bd 55aa 063f 5abc 96bd
00000230: 0e4d a03f e35d a63e e72f d63f 52df 8c3e
00000240: cc66 4abf fe2c 5abf 1675 8ebf 50a7 aabf
00000250: dec6 163f 9407 6e3f 981c 323e 6d6f adbf
00000260: 24ec 50bf f056 b2bf ed78 5a3d 1032 b1bf
00000270: 54a5 5cbf ce28 13bf 5136 e7bd d876 aa3e
00000280: 80d9 e7bf 493c 233f be42 4f3e fa15 473f
00000290: 1574 10bf ec41 62bf cf40 f3be 6a02 c43f
000002a0: b555 1bbe 48ee 84bd 40e9 6dbf 803f b9be
000002b0: 01dd 38bf bd17 d6bf 08b4 60be 3581 593f
000002c0: af2b 333f 7143 d0be b0ec 3bbf 30c4 253f
000002d0: 150d c53e fa7e 0c3f 825b d2be 9548 17c0
000002e0: d4ca 1e3f 26f2 90be 5d03 033f baa9 63bf
000002f0: d8c5 37bf b481 44bf d4b5 0a3e efb5 b93e
00000300: 49cb d93f 390d dabe 8e0e 993e 53d1 92bf
00000310: 1a81 fe3e aec8 8a3e 47c4 c4be a226 b8bf
00000320: 7448 bdbf 6688 123e c150 e03f 9722 393e
00000330: 3ac3 cdbe e01a 843f f7bf 733e e9de 62bf
00000340: aa34 40bd 5e12 19bf 0497 793e 94c2 14c0
00000350: a9a0 f3bf 0bb9 cd3f 63ca 26be 67df 4f40
00000360: 1025 85be 6934 533f 5edc 803d 700f 55bf
00000370: 564a 8dbe f50c 8abf a84d b53f 8dd8 943e
00000380: db8b 003f 1d5d b1bf 8183 8a3e 747f 36bf
00000390: 2c16 cdbf f4b8 3e3f 1e51 ebbe 3bbf 8a3f
000003a0: dc68 1e3f 81f0 15bf c641 67be 8ac3 a13f
000003b0: 305f ae3e 94e6 803e 5f3f de3f e377 5ebe
000003c0: f585 6bbf ccb0 c73e 1c5c b33e 3b87 46be
000003d0: 4d68 45bf c0f8 93bd c8b4 16bf e058 0240
000003e0: 88a9 8c3f c0ce 3f3f 31fb 0ec0 c241 133f
000003f0: 37da 99be cc40 e13e f2cf e7bd c835 f4be

running_var f4 [256]
0.05559313 0.12169201 0.026441764 0.09623306 0.15171601 0.120694734 0.038092628 0.06297648
0.06765848 0.032316517 0.05145607 0.03588181 0.04157088 0.12795067 0.09618347 0.14365245
0.07220662 0.040281337 0.03602959 0.40745482 0.02441903 0.15267003 0.07770813 0.3173059
0.059359353 0.029644797 0.18902639 0.06465212 0.0867794 0.034675945 0.10717844 0.08717054
0.1068438 0.07804467 0.07981685 0.02867604 0.028217439 0.054806236 0.084239826 0.08023303
0.10207153 0.08699713 0.117220305 0.14209428 0.09344942 0.028620264 0.039110582 0.034455486
0.040275823 0.04201369 0.08777941 0.10453043 0.075441174 0.04189621 0.033688582 0.032165814
0.066797905 0.032458 0.11213266 0.16321993 0.048577018 0.028966391 0.058022697 0.077344865
0.16780727 0.16105643 0.03309707 0.02628062 0.18573433 0.083219886 0.04595896 0.06554398
0.09139715 0.07008012 0.053232048 0.033572227 0.12765564 0.029213706 0.046690907 0.09294194
0.0789903 0.026762234 0.06792376 0.07344452 0.060217064 0.055683278 0.071549654 0.036243565
0.069813505 0.0646814 0.30107826 0.14853157 0.12198355 0.07931485 0.041214086 0.05571323
0.120863184 0.17733002 0.034877323 0.034023773 0.057885177 0.20204745 0.04863591 0.29474217
0.072168306 0.056669477 0.028841475 0.5262945 0.12136747 0.11030905 0.07305112 0.062476054
0.057094034 0.12568195 0.08557177 0.070180684 0.03764512 0.031681582 0.17496063 0.19192068
0.26226 0.015163424 0.12052307 0.24199411 0.061415594 0.07481295 0.08957206 0.04757846
0.052864045 0.070226446 0.15937875 0.0835832 0.058380593 0.065384865 0.089604154 0.033022024
0.06801283 0.05225008 0.118433945 0.13778892 0.07247305 0.096733496 0.063348964 0.14466777
0.06556733 0.12548849 0.04996759 0.0553579 0.31375661 0.07330652 0.06818195 0.044846762
0.06823784 0.038865775 0.051295944 0.06085877 0.08980778 0.09108778 0.07655807 0.23759687
0.100521095 0.11308375 0.03625873 0.08743266 0.18329182 0.064219676 0.05069772 0.03284499
0.13768403 0.07736382 0.09541733 0.062063735 0.09912537 0.043579657 0.081845514 0.044178106
0.14858383 0.13340548 0.08488409 0.041335024 0.073765494 0.037080985 0.16220145 0.041878335
0.13718349 0.099578016 0.085732244 0.14387386 0.02945633 0.063708216 0.068587184 0.07635755
0.033068325 0.13705398 0.06761857 0.06967017 0.027672905 0.06854005 0.19060458 0.044384893
0.09882919 0.094681665 0.082391426 0.033193972 0.042116165 0.026157593 0.06226442 0.031619005
0.473703 0.06616985 0.09795925 0.0401582 0.08316485 0.0596574 0.054038145 0.06396594
0.059660573 0.0718859 0.08192757 0.11011859 0.0899854 0.080913976 0.045460794 0.121427104
0.06991677 0.047140803 0.10080177 0.36757842 0.10137274 0.08893802 0.23258081 0.07090377
0.0664112 0.054684527 0.047677618 0.07495787 0.106940776 0.04360752 0.070897505 0.08831194
0.121723615 0.1599153 0.10048329 0.14126971 0.07588683 0.09666146 0.068635106 0.03372591
0.07392215 0.04611293 0.06753649 0.029441468 0.08156787 0.08302022 0.08802094 0.16962487
00000000: 9fb5 633d a939 f93d 669c d83c d715 c53d
00000010: 715b 1b3e cd2e f73d 0407 1c3d d0f9 803d
00000020: 8790 8a3d 535e 043d 9ac3 523d cef8 123d
00000030: 3a46 2a3d 8005 033e d7fb c43d a119 133e
00000040: 10e1 933d 0bfe 243d c393 133d eb9d d03e
00000050: 6b0a c83c 8855 1c3e 7125 9f3d eb75 a23e
00000060: cb22 733d a5d9 f23c 2290 413e 5568 843d
00000070: 66b9 b13d 5d08 0e3d 5f80 db3d 7886 b23d
00000080: ecd0 da3d e2d5 9f3d 0477 a33d 04ea ea3c
00000090: 4228 e73c 817c 603d ee85 ac3d 3751 a43d
000000a0: e10a d13d 8d2b b23d 3311 f03d 2a81 113e
000000b0: 6962 bf3d 0b75 ea3c 6b32 203d 3221 0d3d
000000c0: 43f8 243d 8c16 2c3d b1c5 b33d 0d14 d63d
000000d0: e780 9a3d 5c9b 2b3d 0afd 093d 4dc0 033d
000000e0: 57cd 883d aef2 043d cfa5 e53d 2023 273e
000000f0: b2f8 463d ed4a ed3c 35a9 6d3d fc66 9e3d
00000100: abd5 2b3e faeb 243e cb90 073d 744a d73c
00000110: 2431 3e3e 306f aa3d 763f 3c3d ec3b 863d
00000120: 6e2e bb3d 2a86 8f3d d909 5a3d 0883 093d
00000130: 29b8 023e 9551 ef3c f73e 3f3d 5858 be3d
00000140: abc5 a13d 793c db3c 9d1b 8b3d 156a 963d
00000150: 2ba6 763d 2614 643d a088 923d 2274 143d
00000160: 62fa 8e3d af77 843d ee26 9a3e a918 183e
00000170: 83d2 f93d d36f a23d 1ad0 283d 8e33 643d
00000180: 1e87 f73d 0096 353e 86db 0e3d 835c 0b3d
00000190: 0219 6d3d 87e5 4e3e 7336 473d 72e8 963e
000001a0: facc 933d 411e 683d f544 ec3c 3dbb 063f
000001b0: 828f f83d b6e9 e13d d39b 953d e4e6 7f3d
000001c0: 6fdb 693d c5b2 003e 4140 af3d e4ba 8f3d
000001d0: c531 1a3d 8cc4 013d e128 333e db86 443e
000001e0: f146 863e 0370 783c cdd4 f63d 4ecd 773e
000001f0: eb8e 7b3d 8837 993d 8e71 b73d a2e1 423d
00000200: f887 583d e2d2 8f3d 2f34 233e ab2d ab3d
00000210: 7d20 6f3d 80e8 853d 6282 b73d 1a42 073d
00000220: 504a 8b3d 2e04 563d 7f8d f23d 8a18 0d3e
00000230: c06c 943d 361c c63d 1abd 813d ca23 143e
00000240: 2a48 863d 0e80 003e d1aa 4c3d f7be 623d
00000250: b5a4 a03e bb21 963d faa2 8b3d 3db1 373d
00000260: 48c0 8b3d b831 1f3d b21b 523d 0c47 793d
00000270: 24ed b73d 3b8c ba3d 7aca 9c3d 984c 733e
00000280: 01de cd3d 7498 e73d 0984 143d e50f b33d
00000290: dab0 3b3e 9b85 833d 6aa8 4f3d 7888 063d
000002a0: 0bfd 0c3e ec70 9e3d 296a c33d 8b36 7e3d
000002b0: 3e02 cb3d 9580 323d 9f9e a73d 1af4 343d
000002c0: 5c26 183e 729b 083e b6d7 ad3d ea4e 293d
000002d0: 5d12 973d 3be2 173d 2318 263e 9e88 2b3d
000002e0: d479 0c3e 8fef cb3d 6394 af3d ab53 133e
000002f0: 674e f13c 7479 823d 7077 8c3d 5961 9c3d
00000300: a772 073d e157 0c3e 9b7b 8a3d 3caf 8e3d
00000310: 4ab2 e23c ba5e 8c3d d92d 433e efcc 353d
00000320: f566 ca3d 76e8 c13d d6bc a83d 67f6 073d
00000330: 0082 2c3d 7348 d63c fa08 7f3d ee82 013d
00000340: 3389 f23e 0f84 873d dc9e c83d ed7c 243d
00000350: 5552 aa3d 515b 743d 1a57 5d3d 9300 833d
00000360: a55e 743d ea38 933d a4c9 a73d db85 e13d
00000370: 444a b83d 3ab6 a53d 1935 3a3d c6ae f83d
00000380: 8630 8f3d b716 413d 2971 ce3d 3d33 bc3e
00000390: 839c cf3d 2325 b63d aa29 6e3e ff35 913d
000003a0: 9802 883d e2fc 5f3d 9b49 433d 8383 993d
000003b0: c403 db3d cd9d 323d b632 913d e4dc b43d
000003c0: 3b4a f93d d6c0 233e 2fca cd3d 02a9 103e
000003d0: 8e6a 9b3d 72f6 c53d 9090 8c3d 2e24 0a3d
000003e0: 7f64 973d e9e0 3c3d 9250 8a3d 3c2f f13c
000003f0: 0e0d a73d 8106 aa3d 5344 b43d 24b2 2d3e

bias f4 [256]
0.0084622195 -0.009128242 -0.00052294956 -0.003594672 0.0054376926 0.0056315395 0.012819809 0.0016288155
-0.037733234 -0.013766169 0.017222717 0.0072730966 -0.021812975 0.0011759996 -0.005701169 0.0084860595
-0.00079116836 0.0045839422 -4.207349e-06 0.0014095652 0.0042694216 0.010793953 0.0068569533 0.0072258567
-0.009849902 -0.013339729 0.008533084 -0.014548974 0.0019912724 -0.015960867 -0.016927663 -0.01765799
-0.004375931 0.003829953 -0.0021083253 -0.0022269078 -0.008917755 0.003405329 -0.0012277976 0.006133253
-0.0041014105 0.00091797055 -0.025129274 0.0039647995 -0.00364679 0.00053263374 0.0025402757 -0.00044889952
-0.0008535693 0.0052155494 0.005825794 0.005310457 -0.00010019991 0.0035559179 -0.01654232 0.01008058
0.00620539 -0.021700427 0.008871734 -0.007628934 0.0050391527 0.0060607363 0.001824092 -0.0073860725
-0.0093108965 0.013609862 0.002991048 0.0029389567 0.010030111 -0.011782213 0.0010213599 -0.00053261063
0.00054848456 -0.0009897474 -0.003145145 0.0034985312 0.011576837 0.0011322511 1.3217625e-05 0.00066510576
-0.014437954 -0.0010915637 -0.0060292548 -0.0038344762 -0.002720176 0.010154174 -0.013750708 0.00052975025
0.0022599287 0.00777615 0.0138327945 0.0033445575 -0.006615187 -0.0037541736 0.0050257444 0.006950907
0.0012964981 0.018425353 -0.0060457555 -0.0005205083 -0.0023549604 -0.0007467308 -0.014660972 -0.0033758192
-0.0019994427 -0.0054250807 -0.023782048 0.010240043 -0.0049719033 0.004719235 0.016412316 -0.0010216974
0.0010617562 0.0026231057 0.009210673 0.001124835 0.005401223 0.012982497 0.015508533 0.00937151
0.001850866 0.0017177213 0.009692101 -0.0057324804 0.0013625674 -0.0036865638 -0.00344797 -0.008875018
-0.0012337241 -0.005696708 0.0015071811 0.0011342416 -0.003651058 0.009106717 -0.0060973777 0.0064944006
-0.0043185637 -0.012353703 -0.001027854 0.0062877894 0.001455649 0.00319523 0.007816697 0.008075875
-0.0012952939 0.0008964459 -0.003862476 0.030687468 0.0004587873 0.0024301445 -0.011036647 0.0028312267
0.0063197357 -0.0029363595 0.0038315093 -0.0023826254 -0.0065972977 -0.0027569032 -0.001324196 0.005128519
0.004344575 0.008378732 0.0043070866 -0.012499409 -0.00698538 -0.00925171 -0.0128561575 -0.005501459
0.005477715 0.0035260892 -0.0035376663 0.004458986 0.0021903787 -0.0062985923 0.009803357 0.00012403942
-0.002663529 0.0043396996 -0.003917333 0.012962825 -0.0054827095 -0.0082684755 0.015957415 0.0030893325
0.0037473803 -0.012871611 0.00017545893 -0.002301509 -0.003774419 -0.0044320803 -0.0028978428 -0.003373466
-0.004223343 0.005711632 -0.00073346373 -0.0012040813 0.00010245545 0.00404405 -0.0067906193 0.0034629083
0.016451424 -0.011366407 -0.011446682 -0.0028129346 0.013501215 0.02679778 -0.0013280279 -0.0021651178
-0.007430099 -0.015403851 -0.003399136 -0.0014709425 -0.0023885572 0.0037783105 0.0019353684 -0.0067417496
-0.0042162742 0.003814338 -0.006113025 0.0054804184 0.005343445 0.0076960414 -0.0136561105 -0.0006496623
-0.0044277622 0.006611331 0.003814003 0.007172093 -0.0025686815 -0.009383863 -0.0012915732 0.004401186
0.0019558333 -0.0044957977 -0.0013192147 0.007396001 0.009669697 0.0009791091 -0.0091547575 0.0032759067
0.0006776077 -0.0076765595 -0.0017894048 0.0030024135 -0.0029653755 7.490686e-05 0.0059122676 0.0065333964
-0.015245153 0.018944902 0.000594955 -0.0037897355 -0.006972089 -0.0027920234 0.0014870063 -0.0071192007
00000000: 1fa5 0a3c 9f8e 15bc 8d16 09ba 9794 6bbb
00000010: ac2e b23b c788 b83b 2d0a 523c fb7d d53a
00000020: 2a8e 1abd 7f8b 61bc a816 8d3c 2853 ee3b
00000030: 20b1 b2bc 0024 9a3a dfd0 babb 1d09 0b3c
00000040: 6966 4fba e534 963b da2c 8db6 29c1 b83a
00000050: 81e6 8b3b 1fd9 303c 4bb0 e03b e1c6 ec3b
00000060: 7c61 21bc e18e 5abc 59ce 0b3c d25e 6ebc
00000070: 0280 023b 5dc0 82bc e2ab 8abc 7da7 90bc
00000080: f863 8fbb f3ff 7a3b d42b 0abb 50f1 11bb
00000090: c71b 12bc f12b 5f3b 0dee a0ba 75f9 c83b
000000a0: 2065 86bb f6a3 703a e8db cdbc 26eb 813b
000000b0: fcfe 6ebb 72a0 0b3a c17a 263b 465a ebb9
000000c0: 11c2 5fba 33e7 aa3b 4de6 be3b 5803 ae3b
000000d0: 6b22 d2b8 670a 693b c283 87bc 0429 253c
000000e0: 9656 cb3b 18c5 b1bc c05a 113c 23fc f9bb
000000f0: 7a1f a53b 2499 c63b 5f16 ef3a de06 f2bb
00000100: bb8c 18bc e6fb 5e3c 7505 443b 839b 403b
00000110: 5655 243c 2f0a 41bc 27df 853a e59e 0bba
00000120: 2dc8 0f3a 69ba 81ba c71e 4ebb 9d47 653b
00000130: c6ac 3d3c 0b68 943a 44c1 5d37 7e5a 2e3a
00000140: 2b8d 6cbc cd12 8fba 0e91 c5bb d64b 7bbb
00000150: fb44 32bb b15d 263c a64a 61bc f0de 0a3a
00000160: 501b 143b 13cf fe3b f2a2 623c 5d30 5b3b
00000170: 36c4 d8bb 9508 76bb 00af a43b 6fc4 e33b
00000180: 42ef a93a c4f0 963c 791b c6bb b972 08ba
00000190: ae55 1abb 41c0 43ba 9334 70bc d93c 5dbb
000001a0: 1509 03bb e0c4 b1bb 92d2 c2bc dac5 273c
000001b0: 59eb a2bb d0a3 9a3b 1f73 863c 7aea 85ba
000001c0: a02a 8b3a 69e8 2b3b 5de8 163c 336f 933a
000001d0: befc b03b 8ab4 543c 8117 7e3c f68a 193c
000001e0: c298 f23a 2a25 e13a 9ecb 1e3c 88d7 bbbb
000001f0: 2d98 b23a 479a 71bb 56f7 61bb 8668 11bc
00000200: e9b4 a1ba 73ab babb 9b8c c53a d5aa 943a
00000210: 9746 6fbb 5734 153c 83cc c7bb fbce d43b
00000220: bd82 8dbb 3067 4abc 0fb9 86ba cd09 ce3b
00000230: 7acb be3a 1067 513b 9a11 003c ad50 043c
00000240: dac6 a9ba 77ff 6a3a 9821 7dbb 4964 fb3c
00000250: 6489 f039 0f43 1f3b 0dd3 34bc 1a8c 393b
00000260: c915 cf3b f06f 40bb 0f1a 7b3b d225 1cbb
00000270: 252e d8bb 29ad 34bb a590 adba 230d a83b
00000280: f05c 8e3b f346 093c 7622 8d3b 52ca 4cbc
00000290: 9de5 e4bb 7c94 17bc a2a2 52bc 9545 b4bb
000002a0: 677e b33b f615 673b 31d8 67bb b01c 923b
000002b0: 758c 0f3b 6c64 cebb 429e 203c 9410 0239
000002c0: 9a8e 2ebb 0a34 8e3b f95c 80bb 0762 543c
000002d0: 4da8 b3bb 8078 07bc 20b9 823c 6676 4a3b
000002e0: 9c96 753b 73e3 52bc 66fb 3739 ead4 16bb
000002f0: 3e5c 77bb fc3a 91bb bce9 3dbb 5e15 5dbb
00000300: f863 8abb a428 bb3b eb45 40ba 44d2 9dba
00000310: 5add d638 f383 843b d883 debb f6f1 623b
00000320: 23c5 863c 2b3a 3abc dd8a 3bbc 3659 38bb
00000330: 3334 5d3c 0587 db3c 3911 aeba a6e4 0dbb
00000340: 3078 f3bb 6f60 7cbc 0ac4 5ebb a4cc c0ba
00000350: 5789 1cbb 889d 773b 30ac fd3a e5e9 dcbb
00000360: ac28 8abb f9f9 793b c54f c8bb 1595 b33b
00000370: 1118 af3b 132f fc3b e1bd 5fbc 194e 2aba
00000380: c316 91bb dda3 d83b 5af4 793b e003 eb3b
00000390: 5357 28bb c6be 19bc 014a a9ba d337 903b
000003a0: 702d 003b 7c51 93bb 80e9 acba 275a f23b
000003b0: a66d 1e3c 7355 803a d6fd 15bc 98b0 563b
000003c0: 7ca1 313a a68b fbbb 768a eaba 24c4 443b
000003d0: bf56 42bb 5017 9d38 b2bb c13b 1a16 d63b
000003e0: cec6 79bc 5732 9b3c c1f6 1b3a 365d 78bb
000003f0: 1f76 e4bb 61fa 36bb a7e7 c23a 2f48 e9bb

weight f4 [256, 256]
0.041708585 0.27161106 0.33566022 0.04435206 -0.076915495 0.3728888 0.03779393 0.49534127
-0.25703743 -0.1315753 0.06534103 -0.13078956 -0.40088952 -0.048234306 -0.16181384 -0.013151613
-0.3271705 -0.1405912 -0.14417037 0.0012888421 -0.08271809 0.17185631 -0.14960846 -0.10430738
-0.04003393 0.256359 -0.051467597 -0.006626068 0.10572493 -0.4759455 0.3048842 0.3752915
-0.11085027 -0.04752725 0.016896384 -0.012081493 0.13750157 -0.16137116 0.05023326 -0.13838229
-0.116398215 -0.00023417283 -0.16809852 -0.48227787 -0.19334039 -0.1930279 -0.0029015415 -0.058843724
0.32009107 0.1313127 -0.15781851 -0.19779019 -0.15324423 0.10246043 -0.011312906 -0.091634445
-0.48656154 0.1975974 -0.11920374 -0.4143639 -0.24421597 0.2076638 -0.27660283 -0.07489757
0.31160602 0.07203718 -0.26618963 0.09241367 0.11172057 0.5180953 -0.25037298 0.11836447
0.2211817 0.048307944 -0.4452389 0.010616109 -0.044724155 -0.12977254 0.06192237 1.1177164
-0.1655183 0.36449566 -0.091372296 0.0046447343 -0.1180548 -0.3546507 0.12122642 0.048931107
-0.111206174 -0.2963753 0.078168906 -0.039115384 0.44008586 -0.041582935 -0.06155138 0.14723973
-0.4186206 0.062385798 0.053398903 -0.2808551 -0.04855937 -0.4419304 0.398669 0.066143826
0.13780104 -0.3204944 0.019709472 -0.20358591 -0.2358578 -0.26977676 0.11043562 0.10106878
0.033515535 0.24203892 0.42546836 0.44001785 0.17120859 -0.13418993 0.033631753 -0.31953967
0.04851583 -0.13035569 0.013679848 -0.08518914 -0.01221576 -0.37529376 -0.22109458 -0.21941622
0.028479766 0.1190313 -0.23976955 -0.074458145 -0.27172244 0.29171687 0.008834326 -0.4146905
-0.33429396 -0.16934238 0.4434955 -0.055158213 0.27066666 -0.088733144 -0.053461835 0.092431456
0.26718098 0.17911758 0.063433625 0.03831605 -0.044450875 0.41705838 -0.03750205 0.071645185
0.3906358 0.10475688 -0.43856868 0.30696267 -0.40945002 -0.0698745 0.697496 0.33797702
-0.26021498 -0.164934 -0.013322339 0.2172326 0.22809282 -0.14743288 0.4920737 0.30018774
-0.40669605 0.20975663 -0.14099067 0.28925064 -0.17217363 -0.32192954 -0.13245404 0.04205472
0.32352895 -0.1523161 0.5744331 -0.31267703 -0.04100335 0.46807402 0.06543348 0.24184684
0.34882787 -0.11356964 0.24082117 -0.05050556 0.07706517 0.2485725 0.09078206 -0.33601686
-0.71437734 0.2935823 -0.27645668 -0.35184655 -0.12479592 -0.3207167 0.012981385 -0.20761183
-0.033158865 0.2572813 -0.25261799 -0.30230436 0.0350095 0.25314343 -0.22181424 -0.06572138
0.0671908 0.17221126 -0.057652336 0.35676506 -0.30663493 0.3403539 0.44804895 -0.061648276
0.14827906 -0.37835178 0.2852758 0.48590344 0.41120073 -0.24571092 -0.1845628 -0.096598014
0.19328107 0.33217692 0.18948433 -0.07199206 0.044808496 0.5532461 -0.15860723 -0.15943271
-0.02469666 -0.21022666 -0.08865029 0.37516585 0.07093682 0.041055348 0.108544506 -0.07032058
0.0029061853 0.046845287 -0.27010518 -0.29209846 0.43411145 -0.5933686 0.19202739 0.41510049
0.11619047 -0.046932813 -0.39566457 -0.04611821 0.07719114 0.09338773 -0.11484495 0.09936306
00000000: 9fd6 2a3d 9b10 8b3e a8db ab3e 81aa 353d
00000010: df85 9dbd 48eb be3e cfcd 1a3d 5f9d fd3e
00000020: 699a 83be adbb 06be 85d1 853d b3ed 05be
00000030: 6441 cdbe 5691 45bd 87b2 25be dd79 57bc
00000040: e482 a7be 24f7 0fbe 66a1 13be 5dee a83a
00000050: 1a68 a9bd 1afb 2f3e f632 19be 1c9f d5bd
00000060: 9efa 23bd 7d41 833e b0cf 52bd 7d1f d9bb
00000070: 5086 d83d 21af f3be c819 9c3e 3526 c03e
00000080: 7705 e3bd efab 42bd 496a 8a3c 74f1 45bc
00000090: 36cd 0c3e 7b3e 25be 64c1 4d3d 16b4 0dbe
000000a0: 3062 eebd 4a8c 75b9 0522 2cbe 20ed f6be
000000b0: 06fb 45be 1ba9 45be ca27 3ebb 1e06 71bd
000000c0: fae2 a33e d676 063e 2d9b 21be 8389 4abe
000000d0: 0eec 1cbe c6d6 d13d c459 39bc d7aa bbbd
000000e0: 981e f9be f956 4a3e 1721 f4bd 8127 d4be
000000f0: c013 7abe d2a5 543e e39e 8dbe e663 99bd
00000100: d38a 9f3e 3b88 933d 024a 88be 6143 bd3d
00000110: c1cd e43d e5a1 043f e330 80be 1269 f23d
00000120: 757d 623e 8dde 453d 5af6 e3be 30ef 2d3c
00000130: ad30 37bd 18e3 04be 50a2 7d3d 5511 8f3f
00000140: a17d 29be 2d9f ba3e 6621 bbbd db32 983b
00000150: b7c6 f1bd c794 b5be 8f45 f83d fc6b 483d
00000160: 10c0 e3bd 81be 97be 0517 a03d 7437 20bd
00000170: ef52 e13e de52 2abd 4d1d 7cbd 03c6 163e
00000180: 7055 d6be 4088 7f3d cfb8 5a3d 3dcc 8fbe
00000190: 31e6 46bd b444 e2be 581e cc3e 6a76 873d
000001a0: b71b 0d3e d817 a4be c275 a13c d378 50be
000001b0: b584 71be 2e20 8abe 122c e23d 26fd ce3d
000001c0: 9647 093d 0dd9 773e fdd6 d93e 054a e13e
000001d0: 4e51 2f3e 1669 09be 73c1 093d b49a a3be
000001e0: 89b8 463d f67b 05be 7121 603c a577 aebd
000001f0: 9c24 48bc 8126 c0be 9e66 62be a5ae 60be
00000200: 664e e93c afc6 f33d 2686 75be 837d 98bd
00000210: 341f 8bbe ea5b 953e d9bd 103c 5052 d4be
00000220: 9428 abbe 1768 2dbe d811 e33e 94ed 61bd
00000230: d294 8a3e b9b9 b5bd ccfa 5abd b44c bd3d
00000240: f2cb 883e 996a 373e 7de9 813d 4af1 1c3d
00000250: 1f12 36bd ad88 d53e c09b 19bd b6ba 923d
00000260: 6a01 c83e c68a d63d 138c e0be 362a 9d3e
00000270: 6fa3 d1be 5d1a 8fbd 198f 323f 530b ad3e
00000280: e63a 85be 75e4 28be f145 5abc 3972 5e3e
00000290: 2a91 693e a5f8 16be 16f1 fb3e 35b2 993e
000002a0: 773a d0be 71ca 563e dc5f 10be a918 943e
000002b0: 494e 30be f3d3 a4be 08a2 07be 9241 2c3d
000002c0: 96a5 a53e c0f8 1bbe 0c0e 133f 3417 a0be
000002d0: 21f3 27bd 66a7 ef3e fd01 863d b3a6 773e
000002e0: 9199 b23e 3397 e8bd d399 763e ebde 4ebd
000002f0: 58d4 9d3d ca89 7e3e f2eb b93d 670a acbe
00000300: 6fe1 36bf 6b50 963e bb8b 8dbe 3b25 b4be
00000310: 0195 ffbd fb34 a4be e0af 543c 3298 54be
00000320: 97d1 07bd 60ba 833e 2557 81be a3c7 9abe
00000330: 1f66 0f3d 049c 813e 4623 63be ee98 86bd
00000340: 559b 893d 2658 303e db24 6cbd e9a9 b63e
00000350: 41ff 9cbe de42 ae3e ac66 e53e e782 7cbd
00000360: 77d6 173e 53b7 c1be ab0f 923e 56c8 f83e
00000370: e788 d23e a59b 7bbe 08fe 3cbe 2ed5 c5bd
00000380: 79eb 453e 1813 aa3e 2e08 423e 9370 93bd
00000390: 1d89 373d 89a1 0d3f ef69 22be 5442 23be
000003a0: a650 cabc a845 57be 498e b5bd bd15 c03e
000003b0: 5347 913d a729 283d 954c de3d 3c04 90bd
000003c0: b375 3e3b d8e0 3f3d 3a4b 8abe ee8d 95be
000003d0: db43 de3e 01e7 17bf d4a2 443e 0d88 d43e
000003e0: 45f5 ed3d 9f3c 40bd 8c94 cabe 73e6 3cbd
000003f0: 6316 9e3d 1142 bf3d d433 ebbd dc7e cb3d
