models/kinase_baseModel_JAK3_Model3.pkl (torch, 903019 bytes, 25 tensors)

bias f4 [256]
0.6487206 0.27260986 -0.2191114 -0.22389066 0.049282737 -0.011031926 0.0666543 -0.28351897
0.32051742 0.11893448 0.30836204 -0.080573134 -0.01132625 -0.1907084 0.2751177 0.0206257
-0.46820372 -1.032106 0.77369356 -0.00083707145 -0.04536953 0.0034880026 -0.38305095 0.046211343
-0.4398886 0.03385805 -0.04074844 -0.3659688 0.059760418 0.0078900885 0.08397664 0.16124842
-0.41098633 -0.109149955 0.005779481 -0.15862839 0.33576128 -0.009991517 -0.39589882 -0.6515164
0.28417453 -0.6714567 0.15189421 -0.27902293 0.028743295 -0.52309656 0.46501678 -0.3451611
0.20069921 -0.51175886 -0.29369518 -0.12091816 -0.32084674 0.06295324 -0.38376093 -0.040918633
0.48888648 -0.59626067 0.055604942 -0.04904484 -0.24947116 -0.22377212 0.15148783 -0.48555198
0.007826734 0.37667888 0.4745169 0.8674871 -0.034707766 0.081748135 -0.024574323 0.45753556
0.016000303 0.7960225 0.09068416 -0.45356223 0.06188785 -0.50313663 0.11709848 0.06377262
0.025661176 -0.29002878 0.45933113 0.49959958 0.6240529 -0.63582367 0.16620348 0.12338086
0.9129271 0.07602796 0.03198895 0.04955039 -0.024773205 0.0023421124 0.56177807 0.3902898
-0.5900908 -0.092151396 -0.21047135 0.08451805 0.020009024 0.21431482 0.005767029 -0.08700504
0.039357975 -0.239234 0.30878207 0.071293004 0.16896278 -0.4193476 0.015531764 -0.40538332
0.30466852 0.027967807 -5.531179e-05 1.0562826 0.087855555 -0.33724213 -0.032322176 0.05235346
-0.012753549 -0.47017193 -0.05633144 -0.03555801 -0.27630126 0.02476438 -0.0016888938 0.14213726
0.00742508 -0.36363482 -0.0051073884 0.0579287 0.983306 0.07787499 0.2404613 -0.123517334
0.39473405 -0.0046918164 0.017326662 -0.011741168 0.04915928 -0.23481789 0.63593346 0.28666657
-0.28360015 0.052656755 -0.16615422 -0.36769706 0.015651543 0.23502846 0.39532596 -0.45198467
-0.0013186695 0.3453455 -0.1432944 -0.011648108 -0.55021554 -0.0036661704 -0.18429077 -0.029163746
-0.60243934 0.014019777 0.031395208 0.053132072 -0.038359173 -0.20179658 -0.021835007 0.31236625
-0.16953167 0.06197924 -0.35063785 -0.012412768 -0.038856898 -0.52065456 0.1601897 0.17462695
-0.01064865 -0.10003541 -0.30523327 0.072998956 0.12711982 0.07711053 -0.04841227 -0.49810407
-0.031174365 0.08667465 -0.013142052 -0.10574246 -0.08846484 -0.21238714 -0.03319841 -0.19376606
0.51813203 -0.0922903 0.34267125 -0.18747987 0.17980725 0.034348816 -0.06840028 -0.10096703
-0.020378817 0.026237663 0.22073708 0.025263436 -0.11321061 0.12960744 0.23057711 -0.25808972
-0.017511347 -0.0387718 0.15874536 -0.86483026 -0.17812464 0.49715593 -0.03139597 0.25543842
-0.20741192 -0.007677172 0.27330542 -0.9257682 -0.24054384 -0.5682718 0.8478074 0.001437231
0.31248334 -0.49154785 -0.2630375 -0.017551873 -0.7033894 0.005959442 -0.010570768 0.0066967984
0.022253167 -0.23057678 0.033212163 0.24737307 0.32175466 -0.6167933 0.44734132 0.014646579
-0.022528792 0.08379696 0.22454675 0.1009822 -0.019618612 0.0063517527 -0.7028256 0.4567963
0.4677942 0.21128191 -0.44697103 0.33378714 -0.04213319 0.13165247 -0.14579064 0.022123002
00000000: 8e12 263f 8593 8b3e bd5e 60be 9843 65be
00000010: b2dc 493d 40bf 34bc 0d82 883d 6629 91be
00000020: dc1a a43e ec93 f33d a1e1 9d3e 8703 a5bd
00000030: bc91 39bc 1049 43be 3adc 8c3e 3af7 a83c
00000040: 66b8 efbe 0d1c 84bf c810 463f ea6e 5bba
00000050: 66d5 39bd f996 643b 411f c4be 1b48 3d3d
00000060: 1439 e1be bdae 0a3d d6e7 26bd 4360 bbbe
00000070: 57c7 743d 6e45 013c f2fb ab3d 4e1e 253e
00000080: cd6c d2be 038a dfbd cd61 bd3b 7b6f 22be
00000090: e7e8 ab3e 76b3 23bc 40b3 cabe c7c9 26bf
000000a0: 537f 913e 96e4 2bbf 288a 1b3e 18dc 8ebe
000000b0: 0f77 eb3c a8e9 05bf ae16 ee3e f5b8 b0be
000000c0: 1884 4d3e a102 03bf 375f 96be f1a3 f7bd
000000d0: 0646 a4be a1ed 803d 507c c4be 4c9a 27bd
000000e0: 544f fa3e 8aa4 18bf 02c2 633d 3ee3 48bd
000000f0: 5e75 7fbe 8524 65be a01f 1b3e 459a f8be
00000100: b43b 003c 0edc c03e e1f3 f23e a213 5e3f
00000110: bb29 0ebd 916b a73d 1750 c9bc 1a42 ea3e
00000120: 1113 833c 21c8 4b3f 9eb8 b93d 4f39 e8be
00000130: 1d7e 7d3d 90cd 00bf 54d1 ef3d 389b 823d
00000140: 6337 d23c a77e 94be 732d eb3e 84cb ff3e
00000150: eec1 1f3f 57c5 22bf 3f31 2a3e 1baf fc3d
00000160: 97b5 693f 8cb4 9b3d d806 033d 5af5 4a3d
00000170: 2df1 cabc 207e 193b b0d0 0f3f 11d4 c73e
00000180: 3110 17bf dfb9 bcbd cd85 57be cd17 ad3d
00000190: f7e9 a33c 5875 5b3e 58f9 bc3b b32f b2bd
000001a0: d435 213d c2f9 74be af18 9e3e 1102 923d
000001b0: 9404 2d3e bbb4 d6be f178 7e3c 678e cfbe
000001c0: 83fd 9b3e be1c e53c 95fe 67b8 4534 873f
000001d0: 9ded b33d 00ab acbe 4264 04bd 9570 563d
000001e0: 43f4 50bc 60ba f0be ccbb 66bd 47a5 11bd
000001f0: 5c77 8dbe abde ca3c df5d ddba 6e8c 113e
00000200: 164e f33b 582e babe e15b a7bb a546 6d3d
00000210: f1b9 7b3f ec7c 9f3d 7d3b 763e a8f6 fcbd
00000220: 951a ca3e cfbd 99bb a5f0 8d3c 075e 40bc
00000230: 3e5b 493d 1a74 70be 89cc 223f f6c5 923e
00000240: 0a34 91be 9cae 573d 5524 2abe ca42 bcbe
00000250: aa37 803c 4dab 703e 2a68 ca3e 896a e7be
00000260: 35d7 acba 20d1 b03e c4bb 12be b5d7 3ebc
00000270: edda 0cbf 2244 70bb b8b6 3cbe cfe8 eebc
00000280: 7739 1abf 35b3 653c 4398 003d 04a1 593d
00000290: 821e 1dbd c3a3 4ebe 54df b2bc 78ee 9f3e
000002a0: b699 2dbe f2dd 7d3d ce86 b3be ec5e 4bbc
000002b0: 6928 1fbd 9e49 05bf c508 243e 68d1 323e
000002c0: ad77 2ebc 5ddf ccbd 8947 9cbe 7a80 953d
000002d0: b32b 023e 20ec 9d3d f24b 46bd 7f07 ffbe
000002e0: 6261 ffbc 7b82 b13d c351 57bc 818f d8bd
000002f0: 0e2d b5bd 047c 59be 0efb 07bd 9c6a 46be
00000300: 4da4 043f b202 bdbd 9b72 af3e b9fa 3fbe
00000310: 641f 383e 58b1 0c3d 7215 8cbd cdc7 cebd
00000320: 7af1 a6bc 5ef0 d63c e708 623e 44f5 ce3c
00000330: f7da e7bd d0b7 043e 681c 6c3e 5624 84be
00000340: f573 8fbc 2ecf 1ebd 258e 223e 8465 5dbf
00000350: 4e66 36be 398b fe3e 1099 00bd d3c8 823e
00000360: ca63 54be c990 fbbb b0ee 8b3e 25ff 6cbf
00000370: 2051 76be 437a 11bf e809 593f 7861 bc3a
00000380: d1fd 9f3e 29ac fbbe daac 86be f2c8 8fbc
00000390: 5411 34bf 6c47 c33b 0431 2dbc d170 db3b
000003a0: 464c b63c 521c 6cbe 7a09 083d 5e4f 7d3e
000003b0: 07bd a43e 2ae6 1dbf ec09 e53e 34f8 6f3c
000003c0: 4d8e b8bc be9d ab3d 95ef 653e c1cf ce3d
000003d0: 36b7 a0bc 5d22 d03b 61ec 33bf 34e1 e93e
000003e0: b982 ef3e 495a 583e 63d9 e4be 26e6 aa3e
000003f0: da93 2cbd e8cf 063e 244a 15be 4c3b b53c

weight f4 [256, 75]
0.21547972 0.08845737 0.12842855 -0.28458646 0.09858441 0.4168533 -0.11012878 0.1310013
-0.38402653 -0.088327885 -0.023251122 -0.028420353 0.024181757 0.056694444 -0.008119681 0.08607428
-0.030455269 -0.049672816 -0.08692155 -0.121237665 0.00036781505 -0.08935229 0.031422626 0.12243196
0.12605321 -0.05161124 0.09371764 0.13433169 0.005692972 0.105548665 0.08771586 0.034969363
-0.08663978 -0.03754715 0.09017203 0.015447414 0.017248018 0.008236782 -0.080556534 -0.11016029
0.020228608 -0.115515545 -0.13271734 -0.011575782 0.10607459 0.2121727 0.2038945 -0.12502176
0.09579188 0.022856455 0.116950676 0.034179963 0.016460996 -0.11596408 -0.014527852 0.11953533
-0.01652581 0.016635165 0.089948654 0.11550353 0.024958378 0.11383514 -0.21844217 -0.037117817
0.06289775 0.15727784 -0.015208288 0.03486197 -0.015178402 -0.102930814 0.16664582 0.10948104
0.1934619 0.05247056 0.10725013 0.17369367 -0.16062398 0.2415057 -0.19454758 -0.07851798
-0.22068462 -0.36327508 -0.1785381 0.2503763 -0.09766757 -0.023919968 -0.021133307 -0.06753258
0.0260334 0.097079866 -0.0045354445 0.09999934 -0.0066147805 -0.09712086 0.12407517 0.0055455538
-0.122100316 -0.09658434 0.023065792 0.13452312 -0.09236778 -0.1067571 0.05559981 -0.09642163
0.019630862 -0.081494264 -0.06449231 -0.060978524 -0.09001306 -0.11589466 0.0686933 0.10336623
0.022110488 0.016841955 -0.024445232 -0.029350828 0.1258492 -0.08231793 0.005866327 0.107414976
0.2372349 -0.11952123 0.35316625 0.031806633 -0.1315464 -0.0020038593 -0.018460987 0.016571242
-0.07802737 0.09044989 0.08742536 0.15578759 0.12719414 0.082467064 -0.027909245 -0.0007684842
-0.07502366 -0.331829 0.0300938 -0.04570617 0.013484531 -0.046522368 0.05400941 -0.021729335
-0.123239204 0.20315297 -0.027769648 0.012785606 -0.038446523 -0.08389544 0.13736118 0.14068659
-0.22436556 -0.10124088 0.08771175 0.046882767 0.03347954 -0.40755337 0.5905383 -0.023100043
0.004132908 0.104680754 -0.005460859 0.024280513 -0.13338752 -0.024639502 -0.059193794 0.055584002
0.053631853 -0.042334504 -0.073957 0.032765616 -0.04090164 -0.0072287526 -0.024796724 -0.081989534
-0.010764894 -0.041686926 -0.0221375 -0.09913963 0.04717096 0.090806805 -0.0842179 0.09268361
-0.07624886 0.12494934 -0.08085611 -0.11309171 0.10518342 -0.10640159 -0.08805936 -0.0059833783
-0.11655124 -0.10714762 0.02450144 -0.103914544 0.023149833 -0.07998501 0.1432519 -0.023598216
0.076877676 0.011396425 -0.12266996 -0.042493336 -0.061141834 0.0666706 -0.20847961 -0.15709275
0.15006547 0.1052816 0.10627996 -0.060357332 -0.12634078 -0.10110728 -0.13019508 -0.01906092
0.054280244 -0.13216515 -0.06276653 -0.1968718 0.18655744 -0.025026845 -0.11037471 0.09405087
0.047012195 0.17198393 -0.41957682 0.13386598 0.07607859 0.013942349 -0.24987032 0.46713793
-0.22608846 0.08579305 0.1317357 -0.12231222 -0.026394313 -0.13059528 -0.10916127 -0.100649744
0.18613744 0.072213806 0.08808004 -0.047709193 0.08088153 -0.09357181 0.0006439211 -0.070865154
0.08295907 -0.03217681 -0.0982604 0.061299555 -0.0025110675 0.0032177276 -0.10101943 -0.062126845
00000000: b7a6 5c3e 2329 b53d c682 033e 51b5 91be
00000010: a0e6 c93d cc6d d53e 338b e1bd 3425 063e
00000020: 209f c4be 40e5 b4bd 2379 bebc cdd1 e8bc
00000030: d218 c63c 6f38 683d 6908 05bc b647 b03d
00000040: 547d f9bc b975 4bbd ed03 b2bd 744b f8bd
00000050: 4dd7 c039 55fe b6bd 03b5 003d 9cbd fa3d
00000060: 1814 013e 4f66 53bd 09ef bf3d 3f8e 093e
00000070: 1c8c ba3b e629 d83d 5fa4 b33d 093c 0f3d
00000080: 3270 b1bd 0acb 19bd 1dac b83d 2617 7d3c
00000090: b74b 8d3c 91f3 063c d3fa a4bd b89b e1bd
000000a0: 77b6 a53c 6a93 ecbd 0ee7 07be 59a8 3dbc
000000b0: a23d d93d cd43 593e b8c9 503e b405 00be
000000c0: 882e c43d 763d bb3c d683 ef3d 4a00 0c3d
000000d0: 36d9 863c 937e edbd 3a06 6ebc f0ce f43d
000000e0: 2361 87bc 7846 883c 0037 b83d 1d8d ec3d
000000f0: 8375 cc3c 6622 e93d 4eaf 5fbe da08 18bd
00000100: 89d0 803d 710d 213e 2f2c 79bc 6dcb 0e3d
00000110: d5ae 78bc 64cd d2bd 34a5 2a3e 9837 e03d
00000120: e01a 463e 5feb 563d f5a5 db3d c1dc 313e
00000130: 9d7a 24be 454d 773e 7b37 47be 09ce a0bd
00000140: 26fb 61be 31ff b9be b1d2 36be 5331 803e
00000150: ef05 c8bd cff3 c3bc c21f adbc 854e 8abd
00000160: ff43 d53c cfd1 c63d 119e 94bb 74cc cc3d
00000170: cdc0 d8bb 4de7 c6bd 1f1b fe3d 7ab7 b53b
00000180: bb0f fabd 03ce c5bd 79f4 bc3c 6ec0 093e
00000190: 522b bdbd 77a3 dabd a0bc 633d b478 c5bd
000001a0: e7d0 a03c 77e6 a6bd 8b14 84bd 9ec4 79bd
000001b0: c458 b8bd 2e5a edbd 13af 8c3d adb1 d33d
000001c0: 0e21 b53c 24f8 893c 5e41 c8bc 2671 f0bc
000001d0: 9dde 003e 4e96 a8bd 513a c03b 62fc db3d
000001e0: b5ed 723e 8cc7 f4bd 35d2 b43e ac47 023d
000001f0: 19b4 06be 2e53 03bb 7f3b 97bc 6ac0 873c
00000200: d0cc 9fbd cb3d b93d 110c b33d c886 1f3e
00000210: 2e3f 023e 7ee4 a83d eea1 e4bc 1a74 49ba
00000220: 01a6 99bd 7ee5 a9be 4687 f63c 6536 3bbd
00000230: 39ee 5c3c 3d8e 3ebd f938 5d3d b801 b2bc
00000240: d664 fcbd 5507 503e 2c7d e3bc b87a 513c
00000250: 1a7a 1dbd 5fd1 abbd 69a8 0c3e 2510 103e
00000260: 16c0 65be 6157 cfbd 38a2 b33d 2508 403d
00000270: d821 093d d6aa d0be 852d 173f 4d3c bdbc
00000280: 586d 873b dd62 d63d 01f1 b2bb ede7 c63c
00000290: bd96 08be c8d8 c9bc 3175 72bd 0dac 633d
000002a0: 13ad 5b3d f266 2dbd c576 97bd 3d35 063d
000002b0: 7a88 27bd 2cdf ecbb 8022 cbbc 21ea a7bd
000002c0: 3d5f 30bc e9bf 2abd b459 b5bc b809 cbbd
000002d0: 5636 413d ebf8 b93d 6f7a acbd e8d0 bd3d
000002e0: 5d28 9cbd 71e5 ff3d e397 a5bd a09c e7bd
000002f0: 686a d73d 14e9 d9bd 7758 b4bd 3710 c4bb
00000300: 6bb2 eebd 3670 dbbd 3eb7 c83c 26d1 d4bd
00000310: b8a4 bd3c 2ecf a3bd a0b0 123e 0c51 c1bc
00000320: 0b72 9d3d 12b8 3a3c 633a fbbd 7e0d 2ebd
00000330: dc6f 7abd 988a 883d ae7b 55be ecdc 20be
00000340: c3aa 193e e19d d73d 4fa9 d93d 4039 77bd
00000350: 7a5f 01be 5511 cfbd dc51 05be a625 9cbc
00000360: f654 5e3d 4d56 07be bd8b 80bd c398 49be
00000370: ea08 3f3e 1905 cdbc 230c e2bd be9d c03d
00000380: dc8f 403d 8e1c 303e c6d2 d6be 2a14 093e
00000390: 17cf 9b3d 736e 643c 01de 7fbe b42c ef3e
000003a0: bc83 67be 44b4 af3d b9e5 063e d47e fabd
000003b0: e338 d8bc c5ba 05be f28f dfbd 7421 cebd
000003c0: d09a 3e3e d5e4 933d 4f63 b43d b76a 43bd
000003d0: 37a5 a53d 94a2 bfbd d0cc 283a c021 91bd
000003e0: 72e6 a93d d5cb 03bd c03c c9bd 3e15 7b3d
000003f0: b990 24bb 83e0 523b 46e3 cebd b878 7ebd

weight f4 [256]
2.2168396 1.8085197 2.4338706 2.3358424 1.4884429 0.67635405 1.4215138 2.0238628
2.2584133 1.7171906 1.9708347 1.0137744 0.8096741 2.5818365 2.147007 0.97184885
1.9296452 2.5640194 2.5074024 1.0324327 1.2943932 1.2852918 2.161606 1.0851488
2.3269176 1.4429626 0.9470646 2.1033006 1.5598073 1.2122887 1.8844984 1.9438937
2.2754433 2.0559912 1.1175326 2.1494734 2.3302178 1.1276186 2.599629 3.0108936
2.016008 2.3172545 1.7092863 1.61319 1.7929381 2.615957 2.7692049 2.0915072
1.926575 1.9121753 2.3707318 1.5757964 1.8527142 1.6468303 1.8615407 1.9520867
2.037353 1.9831241 2.5103247 1.8984365 1.9019153 2.1179323 1.9515034 2.0976236
1.2167581 2.047727 1.9712259 2.9441433 1.1740721 1.6288 1.9436846 2.308619
1.6931394 2.5835621 1.7310438 2.0811322 1.0890949 2.1811097 1.4475981 1.4560381
1.2970314 2.1893125 2.0604513 2.36517 2.7942548 2.608022 1.9631306 1.752007
2.682714 1.7492127 1.2541776 2.17265 1.4733233 1.599258 2.155462 2.2099552
3.2175035 1.730435 2.2383728 1.9441668 1.4019253 2.3520677 2.07392 1.9458064
1.4111468 1.7127335 1.6431876 0.4427545 1.9839913 2.0823367 1.3449093 2.5745912
1.9379202 1.582631 0.929021 2.9119241 1.8458415 2.0717351 0.5419486 1.2664157
0.956639 1.9209113 2.1118498 2.0339453 2.3529806 1.2987912 1.7825671 1.8008652
2.1648877 2.3415592 2.0594745 1.5155612 2.8449376 2.064491 2.376823 1.7451421
1.9571694 1.6841156 1.3219347 1.0980147 1.2885059 1.9244448 1.9376551 2.5000467
2.0637817 1.4371015 1.4461215 2.06316 0.9753818 2.2330801 2.0643976 2.2758648
2.2356095 2.2825136 2.149236 0.9090803 2.5532928 1.0895185 1.5873492 1.2861044
1.9078997 1.1515162 0.95433265 1.5248072 1.0083599 1.752006 0.76672393 2.0573683
2.064257 1.8877254 2.342615 1.2603607 1.2556331 2.360123 1.893164 2.0166628
1.2339065 1.1139382 2.8369355 1.0895396 1.9387072 1.4662051 1.5129505 2.246897
1.3822974 2.0070183 1.6817745 2.129283 1.8086451 2.0531898 1.9398046 2.3070352
2.3466055 1.5065489 2.002347 1.4153222 1.6480391 1.3140502 1.9209799 1.6202817
1.3679644 0.9393608 2.0982053 1.0305287 1.5001987 1.9645896 2.1261876 1.6831437
0.6897047 1.7203292 1.665861 2.4553723 1.9443262 2.6062677 0.56186193 1.9455469
2.263533 2.0073333 1.74999 2.8109448 2.2620795 2.7267287 2.6318767 1.3286182
2.1359746 2.4016116 3.1712015 1.4876354 2.3310268 1.2500943 1.5790591 1.1979388
1.4893245 1.8721246 1.0296787 1.8881289 2.2012067 2.5433848 2.5504744 1.0796707
1.7014012 1.9055588 2.148345 1.6028892 2.4372396 1.2290246 2.3599696 2.0827713
2.624503 1.5163633 2.0320282 2.0299897 2.2138143 1.5231408 2.3471305 1.3609766
00000000: b3e0 0d40 937d e73f 89c4 1b40 717e 1540
00000010: 4c85 be3f 8a25 2d3f 2af4 b53f f886 0140
00000020: d889 1040 e7cc db3f 5044 fc3f 5cc3 813f
00000030: cd46 4f3f cf3c 2540 9068 0940 16cb 783f
00000040: 9dfe f63f e518 2440 4879 2040 c126 843f
00000050: adae a53f 7184 a43f c157 0a40 28e6 8a3f
00000060: 38ec 1440 00b3 b83f d372 723f 7a9c 0640
00000070: c4a7 c73f 472c 9b3f 3e37 f13f 82d1 f83f
00000080: dda0 1140 5c95 0340 4f0b 8f3f f990 0940
00000090: 4a22 1540 ce55 903f 5260 2640 7bb2 4040
000000a0: 4606 0140 e64d 1440 e5c9 da3f 037d ce3f
000000b0: ff7e e53f d76b 2740 a73a 3140 41db 0540
000000c0: 029a f63f 29c2 f43f 12ba 1740 b2b3 c93f
000000d0: bd25 ed3f 56cb d23f f746 ee3f fadd f93f
000000e0: fe63 0240 03d7 fd3f 29a9 2040 f8ff f23f
000000f0: f671 f33f 348c 0740 ddca f93f 773f 0640
00000100: bbbe 9b3f f60d 0340 2151 fc3f d86c 3c40
00000110: ff47 963f 857c d03f a8ca f83f 6ac0 1340
00000120: cbb8 d83f 1559 2540 d892 dd3f 4531 0540
00000130: 7667 8b3f 4d97 0b40 e54a b93f 755f ba3f
00000140: 2005 a63f b21d 0c40 6fde 0340 f25e 1740
00000150: 12d5 3240 d5e9 2640 dd47 fb3f c441 e03f
00000160: 96b1 2b40 34e6 df3f e488 a03f b30c 0b40
00000170: dc95 bc3f 7cb4 cc3f 17f3 0940 e86f 0d40
00000180: 94eb 4d40 e57e dd3f 8041 0f40 75da f83f
00000190: 4a72 b33f 4788 1640 1bbb 0440 2f10 f93f
000001a0: 75a0 b43f da3a db3f f953 d23f b8b0 e23e
000001b0: 6df3 fd3f 0145 0540 fd25 ac3f 1ac6 2440
000001c0: c50d f83f a793 ca3f 52d4 6d3f f75c 3a40
000001d0: 8944 ec3f 4f97 0440 25bd 0a3f e919 a23f
000001e0: 4be6 743f 6ce0 f53f 8c28 0740 292c 0240
000001f0: 3c97 1640 ca3e a63f 292b e43f c082 e63f
00000200: 858d 0a40 1bdc 1540 6ece 0340 e9fd c13f
00000210: 7513 3640 9f20 0440 de1d 1840 d160 df3f
00000220: 8784 fa3f 1a91 d73f 2835 a93f bf8b 8c3f
00000230: c3ed a43f 3554 f63f 1505 f83f c400 2040
00000240: 0015 0440 f1f2 b73f 821a b93f d00a 0440
00000250: 9fb2 793f c9ea 0e40 171f 0440 c5a7 1140
00000260: 3a14 0f40 b414 1240 158d 0940 7db9 683f
00000270: 2669 2340 5875 8b3f 422e cb3f 129f a43f
00000280: 0f36 f43f e264 933f 254f 743f e22c c33f
00000290: f011 813f bc41 e03f 0548 443f ecab 0340
000002a0: c91c 0440 fca0 f13f 67ed 1540 8053 a13f
000002b0: 96b8 a03f 410c 1740 3353 f23f 0111 0140
000002c0: a6f0 9d3f 8795 8e3f 5a90 3540 0976 8b3f
000002d0: 8f27 f83f 9cac bb3f 5da8 c13f 29cd 0f40
000002e0: 1fef b03f fd72 0040 6344 d73f 2c46 0840
000002f0: af81 e73f 7667 0340 844b f83f 77a6 1340
00000300: c92e 1640 98d6 c03f 7426 0040 4729 b53f
00000310: f2f2 d23f cc32 a83f abe2 f53f 6465 cf3f
00000320: 7519 af3f f379 703f ff48 0640 5de8 833f
00000330: 8306 c03f ac77 fb3f 7513 0840 4171 d73f
00000340: 7d90 303f bf33 dc3f ef3a d53f d224 1d40
00000350: aedf f83f 17cd 2640 2fd6 0f3f ae07 f93f
00000360: badd 1040 2678 0040 acff df3f 85e6 3340
00000370: e9c5 1040 b982 2e40 ab70 2840 2910 aa3f
00000380: cfb3 0840 01b4 1940 f7f4 4a40 d66a be3f
00000390: 8b2f 1540 1703 a03f 9c1e ca3f 0f56 993f
000003a0: 2fa2 be3f c7a1 ef3f 83cc 833f 35ae f13f
000003b0: 92e0 0c40 d1c6 2240 f93a 2340 a632 8a3f
000003c0: 84c7 d93f 5ae9 f33f 7c7e 0940 792b cd3f
000003d0: bcfb 1b40 ae50 9d3f be09 1740 204c 0540
000003e0: dbf7 2740 3118 c23f c00c 0240 5aeb 0140
000003f0: 22af 0d40 47f6 c23f 6337 1640 7b34 ae3f

bias f4 [256]
0.05376284 0.21280283 -0.098839335 0.7302113 -0.2841136 0.5653826 -0.423791 -0.24290098
-0.59910274 0.370459 0.6243508 -0.16136143 -0.10523782 0.0018688597 -0.06491208 -0.3275288
-0.0356663 -0.3163955 -0.019069567 0.5955866 -0.33366922 -0.44218314 0.5127479 -0.6436942
-0.20078994 0.010509345 -0.3237392 -0.71494174 -0.03270495 -0.8486618 0.12690309 -0.20650303
-0.63847876 0.44197333 0.24239004 -0.072878204 -0.13719337 0.4493039 0.005181286 0.0021440184
0.7575202 0.04072367 -0.20846902 -0.55716085 -0.26631135 0.409115 -0.37368268 0.14702997
-0.1913457 0.4459985 0.15504096 -0.19722025 -0.55409443 -0.40420994 0.004569322 -0.08943194
0.09152419 0.4559996 0.078940645 0.11039861 -0.21587023 -0.010018781 -0.44387653 0.4366835
-0.49158704 0.33404136 -0.42849293 0.027939744 0.2582165 -0.31011936 -0.17017718 0.33477545
-0.2748608 -0.6499044 -0.2847737 -0.08446206 0.19675885 0.37549058 -0.3167991 -0.30524665
0.7204611 0.2967918 -0.14317566 0.20586446 0.05824997 -0.094064236 -0.20643488 -0.5389979
0.31708914 -0.30411586 -0.5361232 0.07297568 0.5339243 -0.1587614 -0.4420035 -0.26680678
0.012092357 -0.16815785 0.28735352 0.27313742 -0.56732553 0.16582751 0.4638888 0.16767818
0.73021764 0.30056053 0.25921535 0.72394615 0.13795762 -0.24928096 -0.6526596 0.15340947
-0.25535312 0.42193592 0.29091933 0.36347938 -0.031535402 -0.40538478 0.70932585 0.67525804
0.5234172 -0.22299376 -0.6154628 -0.00037298223 0.2151485 -0.10654648 -0.12024691 -0.051013388
0.33627626 -0.33322152 -0.4900394 0.6091368 0.19711898 0.20403206 -0.21651305 -0.35992238
0.08151287 0.1596635 0.29944372 -0.7280143 -0.010831662 0.027731495 0.27144435 0.3287208
0.50212604 -0.37825722 0.2764232 0.100876145 -0.6473896 0.1892187 0.18767653 0.2226699
0.45065215 -0.33656365 -0.15978631 -0.2640244 -0.28471443 -0.011542162 0.3132757 0.7475529
0.16291663 -0.11271449 -0.7181349 0.2271052 0.9022933 0.31200972 0.17873004 0.07435295
-0.29285356 0.36942583 -0.348188 0.5346723 -0.49403578 0.08511468 -0.7778582 0.23014429
-0.040247854 0.0629622 -0.17400266 -0.47689033 0.48714888 0.5660367 0.3745497 0.13136375
0.020022275 0.2991338 -0.271871 -0.37218118 -0.34245726 0.12502071 -0.31249505 -0.4173223
-0.32999802 -0.23446356 -0.20423605 -0.055921078 -0.19860484 -0.120808996 -0.22062677 -0.22055872
0.17795302 0.006402691 0.18061955 0.36757877 0.5439189 0.071361214 -0.045522578 0.10240298
0.6061123 -0.24025661 0.46729082 0.1850756 -0.2040589 0.06711979 0.046359774 0.6972141
0.036822014 -0.56745243 0.13854349 0.11345708 0.52517736 -0.2515578 -0.33597186 0.23377104
-0.29344925 -0.5191707 -0.018067915 -0.49671087 0.4935157 0.09190597 -0.40819928 -0.31556022
-0.108668365 0.13369873 -0.38198224 -0.059870403 0.6414069 0.017475296 0.19153766 -0.4280741
0.14209278 -0.60124326 -0.42383856 -0.05621034 0.24520235 -0.788478 0.15062103 -0.4464399
-0.65009975 -0.5034306 -0.26596156 -0.020388113 0.12274977 0.03027008 0.64808947 -0.70445585
00000000: 6c36 5c3d fce8 593e 476c cabd 21ef 3a3f
00000010: 5677 91be eabc 103f 22fb d8be 09bb 78be
00000020: cc5e 19bf cdac bd3e 74d5 1f3f ee3b 25be
00000030: ed86 d7bd 87f4 f43a a0f0 84bd dbb1 a7be
00000040: d416 12bd 97fe a1be c837 9cbc 5d78 183f
00000050: b1d6 aabe d465 e2be 7243 033f 25c9 24bf
00000060: e19b 4dbe 632f 2c3c 25c1 a5be 6c06 37bf
00000070: a0f5 05bd e641 59bf e2f2 013e 8875 53be
00000080: 5873 23bf 544a e23e 1835 783e 2b41 95bd
00000090: 6b7c 0cbe 290b e63e c7c7 a93b a982 0c3b
000000a0: d8ec 413f ddcd 263d e778 55be 18a2 0ebf
000000b0: f659 88be 8577 d13e 5653 bfbe 068f 163e
000000c0: 21f0 43be ea59 e43e 0fc3 1e3e 1bf4 49be
000000d0: 22d9 0dbf 9bf4 cebe 40ba 953b 1828 b7bd
000000e0: 0971 bb3d c878 e93e a2ab a13d ab18 e23d
000000f0: 160d 5dbe d025 24bc c943 e3be fb94 df3e
00000100: 4cb1 fbbe 7807 ab3e 6d63 dbbe e4e1 e43c
00000110: f434 843e f7c7 9ebe ed42 2ebe b067 ab3e
00000120: 8eba 8cbe 2260 26bf dccd 91be 72fa acbd
00000130: 277b 493e 4d40 c03e 7e33 a2be 4a49 9cbe
00000140: 2370 383f 18f5 973e a49c 12be 22ce 523e
00000150: 8597 6e3d c0a4 c0bd aa63 53be c4fb 09bf
00000160: 8259 a23e 13b5 9bbe 5f3f 09bf 4674 953d
00000170: 43af 083f 5992 22be 484e e2be e69a 88be
00000180: 051f 463c 9231 2cbe 0020 933e abd8 8b3e
00000190: 3f3c 11bf b0ce 293e d582 ed3e d4b3 2b3e
000001a0: 8bef 3a3f 12e3 993e e0b7 843e 8954 393f
000001b0: c344 0d3e 8243 7fbe b314 27bf 5f17 1d3e
000001c0: a5bd 82be fc07 d83e 61f3 943e f819 ba3e
000001d0: 442b 01bd 988e cfbe 6196 353f b6dd 2c3f
000001e0: abfe 053f 7a58 64be f88e 1dbf d48c c3b9
000001f0: e34f 5c3e 0a35 dabd 0344 f6bd 6af3 50bd
00000200: 672c ac3e 039c aabe 72e6 fabe 64f0 1b3f
00000210: 8fd9 493e c8ed 503e 99b5 5dbe bf47 b8be
00000220: 38f0 a63d d47e 233e b050 993e 255f 3abf
00000230: 4977 31bc 292d e33c c1fa 8a3e 184e a83e
00000240: 558b 003f eeaa c1be 5787 8d3e 2798 ce3d
00000250: 53bb 25bf 8cc2 413e 472e 403e 9403 643e
00000260: e1bb e63e 1252 acbe 069f 23be 352e 87be
00000270: 17c6 91be 561b 3dbc ac65 a03e a05f 3f3f
00000280: 9ed3 263e dbd6 e6bd b0d7 37bf 448e 683e
00000290: b2fc 663f bdbf 9f3e 0205 373e 5c46 983d
000002a0: e7f0 95be 6225 bd3e b345 b2be 49e0 083f
000002b0: 42f2 fcbe 9b50 ae3d b721 47bf f2aa 6b3e
000002c0: efda 24bd 53f2 803d c12d 32be f82a f4be
000002d0: 946b f93e c8e7 103f fac4 bf3e 3884 063e
000002e0: c105 a43c 1128 993e ad32 8bbe 888e bebe
000002f0: 8f56 afbe 6e05 003e 5aff 9fbe 45ab d5be
00000300: 80f5 a8be 3717 70be 4123 51be 800d 65bd
00000310: 115f 4bbe b56a f7bd fceb 61be 25da 61be
00000320: 5139 363e aacd d13b 55f4 383e 4933 bc3e
00000330: 453e 0b3f d425 923d e275 3abd a7b8 d13d
00000340: 2d2a 1b3f d405 76be be40 ef3e 7584 3d3e
00000350: d1f4 50be 1a76 893d bfe3 3d3d a07c 323f
00000360: aed2 163d 9044 11bf 58de 0d3e 305c e83d
00000370: 0672 063f 2fcc 80be 8104 acbe ad61 6f3e
00000380: fb3e 96be 5fe8 04bf 2a03 94bc e350 febe
00000390: 17ae fc3e 3239 bc3d 7fff d0be 1c91 a1be
000003a0: 858d debd 52e8 083e 2d93 c3be ab3a 75bd
000003b0: 3e33 243f 5a28 8f3c 7322 443e 872c dbbe
000003c0: c580 113e 14eb 19bf 5e01 d9be d03c 66bd
000003d0: 5316 7b3e b2d9 49bf 663c 1a3e c593 e4be
000003e0: f06c 26bf d4e0 00bf 1d2c 88be f904 a7bc
000003f0: 3b64 fb3d f5f8 f73c 31e9 253f 3857 34bf

running_mean f4 [256]
1.1636193 0.6021281 -0.20560454 -0.38911116 0.050320357 0.055427544 0.107176684 -0.4291104
0.34134728 0.08459232 0.7327166 0.13750637 0.050198868 -0.33993658 0.65353554 0.2360271
-0.8395581 -1.595046 1.1610327 0.003672459 -0.14393885 0.06694867 -0.8201791 0.10811398
-0.72200847 0.15856478 -0.26415542 -0.7070296 0.13578998 0.083177425 -0.026250694 0.31872857
-1.0335133 -0.3252267 -0.037730165 -0.38246775 0.31755522 -0.07461676 -0.71901786 -1.3166987
0.38507527 -0.9847334 0.2849448 -0.89518446 0.16492471 -0.5824156 0.5514148 -0.81445247
0.41067767 -0.8646735 -0.4246397 -0.21447562 -0.7758449 0.050447967 -0.78069085 -0.20379964
0.5715606 -0.92675847 0.06420049 0.05272454 -0.49528378 -0.20578516 0.38235688 -1.0857724
0.19684178 0.91367346 0.82059413 1.0430412 -0.08447317 0.17278114 -0.06769454 0.72817874
0.1592123 1.2600379 0.24988827 -0.8541512 0.115162194 -1.0789007 0.4670474 0.29855216
0.15241382 -0.4659176 0.8547448 0.8793522 1.0411173 -1.1220231 0.5727148 0.24848406
1.1237158 0.13012229 0.19610916 0.13910091 -0.17205542 -0.03409807 0.96553254 0.41372648
-0.75012565 -0.27510914 -0.37548265 0.17372975 0.11505266 0.48810938 0.0055953143 -0.34155783
0.031041676 -0.6260595 0.4978308 -0.07914546 0.701551 -0.8685095 -0.012799966 -0.4888493
0.5692058 0.17826611 0.1400924 0.99750066 0.23619567 -0.35025555 0.44366908 0.28317893
-0.13397054 -0.5811649 -0.2047657 -0.12573299 -0.35853243 0.06958005 -0.023205817 0.23648936
0.14973678 -0.6472438 -0.1259254 0.429061 1.2222772 0.4188436 0.61829793 -0.2721561
0.7138218 0.066354886 0.044166937 -0.1448925 0.45005602 -0.37059027 0.9931673 0.58860147
-0.4206266 -0.0020818433 -0.6532941 -0.6366632 0.3172482 0.49269247 0.478399 -0.6549685
-0.1778243 0.42014772 -0.36882144 -0.20609793 -1.1426008 -0.30935916 -0.42498374 -0.13422266
-0.88075864 0.3336318 0.109538786 0.17462511 -0.36928123 -0.37020743 -0.20505258 0.3589213
-0.41250092 0.19851576 -0.49345595 -0.050774872 -0.24181646 -0.8056322 0.22597492 0.40819705
0.17278369 -0.41569465 -0.6759566 0.34282646 0.3276846 0.16319247 -0.11019285 -0.78053844
0.3035866 0.14690167 -0.074573554 -0.3008262 -0.32626837 -0.2301418 -0.012636367 -0.3930765
0.6829221 -0.3772476 0.53596574 -0.38908136 0.32733178 0.15067221 -0.021132953 -0.34091812
-0.45598498 0.23081285 0.53507435 0.09454845 -0.32677224 0.21157135 0.33569926 -0.5566921
-0.013787133 -0.30158868 0.30067635 -1.3252026 -0.6463176 0.7244561 0.097115345 0.554076
-0.27591777 0.13883999 0.25521722 -1.1734673 -0.50169367 -0.94551104 1.3693284 0.35474724
0.482423 -0.933595 -0.20862988 -0.064319 -1.1516008 0.26943827 -0.07566456 0.24630837
-0.0034834775 -0.43480033 -0.051198497 0.37816432 0.5234003 -0.85248786 0.6207068 0.07241755
-0.11774445 0.21782073 0.20490985 0.12921008 0.010532176 0.19651157 -0.98560303 0.6338387
0.6919802 0.63334155 -0.8037917 0.52845675 -0.25852016 0.36091074 -0.3613887 0.084456205
00000000: 7af1 943f 1125 1a3f ff89 52be 9439 c7be
00000010: b81c 4e3d fe07 633d 737f db3d 5cb4 dbbe
00000020: 12c5 ae3e bd3e ad3d 5193 3b3f 78ce 0c3e
00000030: 549d 4d3d 2b0c aebe 1b4e 273f 17b1 713e
00000040: 48ed 56bf 782a ccbf b89c 943f a3ad 703b
00000050: b564 13be 621c 893d 42f7 51bf dd6a dd3d
00000060: 8cd5 38bf ce5e 223e 613f 87be e4ff 34bf
00000070: 870c 0b3e ed58 aa3d b20b d7bc 6430 a33e
00000080: 2a4a 84bf 1d84 a6be f28a 1abd d0d2 c3be
00000090: 9996 a23e acd0 98bd 8e11 38bf 9589 a8bf
000000a0: 9628 c53e 7d17 7cbf 49e4 913e cf2a 65bf
000000b0: 06e2 283e 3019 15bf 8529 0d3f f57f 50bf
000000c0: 5844 d23e 3e5b 5dbf 606a d9be 7f9f 5bbe
000000d0: c59d 46bf 87a2 4e3d 5bdb 47bf dab0 50be
000000e0: cc51 123f 0b40 6dbf 8c7b 833d b0f5 573d
000000f0: d695 fdbe 58b9 52be 48c4 c33e 97fa 8abf
00000100: e490 493e 81e6 693f 7512 523f 6082 853f
00000110: 4500 adbd 8aed 303e 6fa3 8abd ec69 3a3f
00000120: 8d08 233e ec48 a13f b6e2 7f3e a7a9 5abf
00000130: 28da eb3d 6b19 8abf d620 ef3e d4db 983e
00000140: 5e12 1c3e c08c eebe 8ed0 5a3f 3a1d 613f
00000150: 5543 853f 749e 8fbf 709d 123f 9b72 7e3e
00000160: ebd5 8f3f c73e 053e d7d0 483e 7870 0e3e
00000170: 4c2f 30be 6baa 0bbd 242d 773f f5d3 d33e
00000180: 3c08 40bf 1bdb 8cbe 433f c0be 36e6 313e
00000190: bba0 eb3d 79e9 f93e e658 b73b abe0 aebe
000001a0: 1d4b fe3c 6f45 20bf aee3 fe3e 0417 a2bd
000001b0: d998 333f a356 5ebf f3b6 51bc 754a fabe
000001c0: 79b7 113f 648b 363e 6274 0f3e 345c 7f3f
000001d0: 47dd 713e b254 b3be 9828 e33e d4fc 903e
000001e0: 932f 09be 39c7 14bf 1aae 51be 26c0 00be
000001f0: 9091 b7be fc7f 8e3d 201a bebc 442a 723e
00000200: 9954 193e c5b1 25bf 97f2 00be e2ad db3e
00000210: 9473 9c3f ab72 d63e c648 1e3f 0b58 8bbe
00000220: 07bd 363f 12e5 873d 64e8 343d b35e 14be
00000230: be6d e63e 02be bdbe 3640 7e3f 96ae 163f
00000240: 5f5c d7be 896f 08bb 483e 27bf 5cfc 22bf
00000250: 5b6e a23e 3042 fc3e b7f0 f43e 04ac 27bf
00000260: 9317 36be 9a1d d73e 2ad6 bcbe 560b 53be
00000270: be40 92bf 5364 9ebe 7897 d9be aa71 09be
00000280: 6679 61bf cad1 aa3e df55 e03d edd0 323e
00000290: 6e12 bdbe d48b bdbe 4ef9 51be 88c4 b73e
000002a0: 5233 d3be b747 4b3e 42a6 fcbe 50f9 4fbd
000002b0: bc9e 77be e93d 4ebf f865 673e 34ff d03e
000002c0: 35ee 303e eed5 d4be 7e0b 2dbf f386 af3e
000002d0: 47c6 a73e ed1b 273e caac e1bd 5ed1 47bf
000002e0: b46f 9b3e 646d 163e 05ba 98bd e405 9abe
000002f0: a60c a7be 4baa 6bbe c408 4fbc 5341 c9be
00000300: fcd3 2e3f 9926 c1be 0d35 093f ac35 c7be
00000310: 0898 a73e d149 1a3e 041f adbc d28c aebe
00000320: dd76 e9be 345a 6c3e a2fa 083f 9ea2 c13d
00000330: b14e a7be 29a6 583e c6e0 ab3e 6083 0ebf
00000340: 6de3 61bc d569 9abe 40f2 993e 3da0 a9bf
00000350: 1275 25bf f475 393f 69e4 c63d edd7 0d3f
00000360: 1845 8dbe 122c 0e3e d5ab 823e 2d34 96bf
00000370: ff6e 00bf 030d 72bf 2746 af3f 6ea1 b53e
00000380: 2600 f73e 1500 6fbf 12a3 55be aeb9 83bd
00000390: a867 93bf d0f3 893e 05f6 9abd 4338 7c3e
000003a0: 0e4b 64bb 269e debe 84b5 51bd c19e c13e
000003b0: 90fd 053f a53c 5abf a4e6 1e3f a74f 943d
000003c0: 0124 f1bd 660c 5f3e e3d3 513e a64f 043e
000003d0: 268f 2c3c 543a 493e 7b50 7cbf 4143 223f
000003e0: 9d25 313f ac22 223f 4bc5 4dbf f148 073f
000003f0: c15c 84be 4bc9 b83e f107 b9be 60f7 ac3d

running_var f4 [256]
0.007939168 0.026934357 0.018183563 0.022439945 0.008469201 0.0377567 0.025022613 0.02155804
0.014085081 0.0064063994 0.014959197 0.020847661 0.022067098 0.022419112 0.05018228 0.024810081
0.014730896 0.012828881 0.011017156 0.14640954 0.017824793 0.07676399 0.016666308 0.028388062
0.01066753 0.014822087 0.029706072 0.020675292 0.034607988 0.016123645 0.017237859 0.021259723
0.01768003 0.033159226 0.034973703 0.013772139 0.015954493 0.036141712 0.017979193 0.017634261
0.022786865 0.011538214 0.024716213 0.029349564 0.02610593 0.010703807 0.01415798 0.015056706
0.01971028 0.010287446 0.02107356 0.029964965 0.03150172 0.02364396 0.0074018855 0.04030311
0.01889859 0.011104359 0.009816528 0.04510308 0.013045769 0.007047919 0.015642917 0.016946472
0.03007667 0.022558609 0.007359468 0.007996883 0.023734445 0.020262478 0.012682582 0.019442514
0.0303297 0.010861949 0.011687375 0.012524968 0.03240449 0.012618108 0.019020889 0.028336247
0.026123004 0.009535573 0.019857768 0.0148957055 0.0182855 0.016476082 0.02211354 0.025690688
0.014529373 0.03950244 0.10038721 0.055570386 0.037265047 0.034561604 0.005755181 0.015791114
0.028177027 0.0332618 0.015497374 0.02017383 0.03444588 0.03077627 0.0100705195 0.067640655
0.072119 0.016815325 0.023619419 0.0127154505 0.02885531 0.018257178 0.015787035 0.014411133
0.019153098 0.037665237 0.046125684 0.0041876123 0.018540027 0.007392958 0.100707404 0.04197266
0.07165916 0.007676279 0.024716062 0.027026778 0.023988845 0.02594264 0.030162612 0.023156654
0.043964297 0.01777437 0.038405776 0.023950784 0.007186029 0.05539191 0.031152418 0.022562506
0.009187837 0.02500522 0.013285753 0.029598914 0.022807041 0.018863872 0.008296072 0.02368012
0.018499834 0.02058307 0.013428364 0.015979487 0.0346886 0.022831889 0.017500576 0.013787997
0.031671435 0.0123666255 0.02933297 0.017428268 0.01793335 0.02473515 0.019654721 0.028253466
0.006826614 0.058368884 0.01071258 0.029289536 0.02504148 0.03274088 0.016672896 0.0087843565
0.019111667 0.016822087 0.02208297 0.031652663 0.03326367 0.013073754 0.016917296 0.020634068
0.038304675 0.011326898 0.049726866 0.018558115 0.02039527 0.010685949 0.058065612 0.01062732
0.030934086 0.01787675 0.03136345 0.05488562 0.009673394 0.029367164 0.04234531 0.038948607
0.013755623 0.019414976 0.009744843 0.010406434 0.009393238 0.024648678 0.049166977 0.014940827
0.028909294 0.02940905 0.028784197 0.021321803 0.032954775 0.02648162 0.010790764 0.013520167
0.12244894 0.012669191 0.018133756 0.018951133 0.017538307 0.020214034 0.022433536 0.01846763
0.014725672 0.0355354 0.018352237 0.015698435 0.014117064 0.022362113 0.010293232 0.028535903
0.013614488 0.018441664 0.026976254 0.04413303 0.010985947 0.027972221 0.07757388 0.026082387
0.01966008 0.012289901 0.02102955 0.017973995 0.02811931 0.010424735 0.019795885 0.017457692
0.054708652 0.011849928 0.015143207 0.013385039 0.016772581 0.046368327 0.011307921 0.009337096
0.020034296 0.010884873 0.016227728 0.013347882 0.030514028 0.021116894 0.030092895 0.042170662
00000000: 4913 023c 71a5 dc3c b2f5 943c fad3 b73c
00000010: 67c2 0a3c c5a6 1a3d 39fc cc3c 7d9a b03c
00000020: 1dc5 663c c6ec d13b 6b17 753c b7c8 aa3c
00000030: 0fc6 b43c 49a8 b73c ef8b 4d3d 833e cb3c
00000040: db59 713c 3a30 523c 4d81 343c 62ec 153e
00000050: 4d05 923c 7036 9d3d c887 883c 158e e83c
00000060: ddc6 2e3c 57d8 723c 265a f33c 3b5f a93c
00000070: 1bc1 0d3d bc15 843c 6936 8d3c df28 ae3c
00000080: b6d5 903c f8d1 073d 9640 0f3d 8aa4 613c
00000090: ffb2 823c 5509 143d 1a49 933c ba75 903c
000000a0: 85ab ba3c c70a 3d3c a879 ca3c 7f6e f03c
000000b0: 1adc d53c 055f 2f3c dff6 673c 67b0 763c
000000c0: 7477 a13c ad8c 283c 75a2 ac3c 1679 f53c
000000d0: f307 013d fab0 c13c 848b f23b e014 253d
000000e0: 37d1 9a3c 0fef 353c 81d5 203c 02be 383d
000000f0: ecbd 553c 3bf2 e63b 9325 803c 54d3 8a3c
00000100: 5963 f63c d5cc b83c b127 f13b 5c05 033c
00000110: bd6e c23c 7ffd a53c 9bca 4f3c e845 9f3c
00000120: fe75 f83c 51f6 313c 677c 3f3c 8635 4d3c
00000130: 92ba 043d 2ebc 4e3c b2d1 9b3c 6b21 e83c
00000140: e9ff d53c 183b 1c3c c2ac a23c 1e0d 743c
00000150: 79cb 953c d9f8 863c 7427 b53c 4775 d23c
00000160: 9b0c 6e3c 4fcd 213d cf97 cd3d c69d 633d
00000170: 3ca3 183d 7890 0d3d f595 bc3b 5e5c 813c
00000180: 82d3 e63c 863d 083d b3e8 7d3c 9743 a53c
00000190: 2017 0d3d 841e fc3c d2fe 243c 2f87 8a3d
000001a0: 20b3 933d 4bc0 893c 837d c13c 7754 503c
000001b0: f961 ec3c 1490 953c d053 813c ac1c 6c3c
000001c0: f5e6 9c3c dd46 1a3d 49ee 3c3d 3d38 893b
000001d0: 41e1 973c a040 f23b af3f ce3d 86eb 2b3d
000001e0: 0ac2 923d 4c89 fb3b 5779 ca3c 4367 dd3c
000001f0: 4184 c43c a985 d43c 9517 f73c 06b3 bd3c
00000200: e813 343d 8e9b 913c 604f 1d3d 6f34 c43c
00000210: c878 eb3b a1e2 623d 5b33 ff3c 01d5 b83c
00000220: 9588 163c bfd7 cc3c 7dac 593c 6c79 f23c
00000230: d5d5 ba3c 6888 9a3c 3fec 073c d0fc c13c
00000240: f78c 973c d49d a83c a402 5c3c 6ae7 823c
00000250: a215 0e3d f109 bb3c 5e5d 8f3c 0de7 613c
00000260: e8b9 013d 639d 4a3c b24b f03c bac5 8e3c
00000270: f6e8 923c 5fa1 ca3c f002 a13c d073 e73c
00000280: cab1 df3b 3614 6f3d d183 2f3c 9cf0 ef3c
00000290: ca23 cd3c 4d1b 063d 9995 883c 43ec 0f3c
000002a0: 1290 9c3c 79ce 893c 58e7 b43c 39a6 013d
000002b0: 7c3f 083d 4c33 563c 2496 8a3c c708 a93c
000002c0: 5de5 1c3d 7494 393c 66ae 4b3d 3007 983c
000002d0: fb13 a73c 1e14 2f3c 35d6 6d3d 361e 2e3c
000002e0: 7b69 fd3c 4372 923c f676 003d becf 603d
000002f0: 287d 1e3c 6893 f03c 4772 2d3d 9388 1f3d
00000300: 445f 613c 280c 9f3c d5a8 1f3c bf7f 2a3c
00000310: 19e6 193c 06ec c93c 5063 493d 5fca 743c
00000320: 2fd3 ec3c 3feb f03c d6cc eb3c 10ab ae3c
00000330: 96fb 063d fbef d83c bfcb 303c b183 5d3c
00000340: 83c6 fa3d 7092 4f3c 3e8d 943c 683f 9b3c
00000350: 7fac 8f3c e797 a53c 89c6 b73c 6d49 973c
00000360: f243 713c 918d 113d 6e57 963c 019a 803c
00000370: 424b 673c c030 b73c f2a4 283c 20c4 e93c
00000380: 4d0f 5f3c f912 973c 4efd dc3c d6c4 343d
00000390: 67fe 333c 0026 e53c 0edf 9e3d bbaa d53c
000003a0: 2d0e a13c 955b 493c 2a46 ac3c 333e 933c
000003b0: 785a e63c 82cc 2a3c fb2a a23c 6f03 8f3c
000003c0: 2e16 603d 3326 423c 371b 783c ec4c 5b3c
000003d0: a766 893c b7ec 3d3d dc44 393c 9efa 183c
000003e0: f71e a43c 7756 323c 03f0 843c 13b1 5a3c
000003f0: 8ef8 f93c 56fd ac3c 6085 f63c 25bb 2c3d

bias f4 [256]
0.009243003 0.0046210643 0.0025233943 -0.0010899523 -0.00051996094 -0.0014450208 0.0038657102 -0.0029896777
-0.010863778 -0.0040873815 5.7747027e-05 0.0072429595 -0.002357005 -0.0010624601 0.0007876336 0.0029474767
0.0027032148 0.009753851 0.0017796158 -0.008204175 0.005328096 0.00035245452 0.00085217436 0.0071140425
-0.004548964 0.0068962746 0.0028511295 -0.014889249 0.0029446492 0.0022060699 -0.0026140981 0.0049212077
0.0017122525 0.0029363171 0.0029655786 0.0035126756 -0.0021166683 0.0061589726 -0.012373149 -0.0026512572
-0.00466698 -0.00028906149 -0.0017032665 -0.0013674455 -0.0022920675 -0.0007261937 0.00274098 0.007043204
0.004936269 0.0024105483 0.0031116686 -0.0004235659 -0.00491717 0.00992777 -0.00029738498 -0.0038617651
0.0067210486 -6.051782e-05 0.008539426 -0.001125319 0.0003408739 0.0021213368 -0.0027376707 0.005570204
0.004202335 -0.0038825157 -0.00075874274 -1.5086006e-05 0.0039530657 0.006364471 -0.00042226264 0.002427917
-0.00014036476 -0.0019287884 -0.0045419973 0.0023073882 -0.00021640766 -0.0024411774 -0.0050275307 -0.0016733785
-0.0018159945 -0.007992694 -0.008506289 -0.003200198 -0.0039001976 -0.005341973 -2.1333206e-05 -0.009105193
0.0042307596 7.641937e-05 0.0028536345 -0.003361195 0.0013133605 -0.0006329257 0.0019106258 0.0011372203
-0.0004055878 0.009800041 0.0023775378 0.008852309 0.0032355392 -0.004169302 0.0009666032 -0.008463193
0.0023643463 0.0017100489 -0.00034610025 0.0034611821 0.0004237053 0.016630385 -0.00019412368 -0.00035973414
-0.0038065831 -0.0025254465 0.0019410793 -0.017182605 -0.0043025524 -0.005217058 0.0028462093 -0.0023239541
-0.004545101 0.0045196363 -0.0038652539 0.005077711 0.004428941 0.0025157798 -0.005066008 -0.0006188149
-0.0012826645 0.0053790743 0.0012331873 0.00047058723 0.00084392517 0.003925485 -0.004097989 0.0024426777
0.0019781508 0.00038837816 0.0026370801 0.007987229 0.0057624057 0.0013751317 -0.0033913075 -0.0004942775
0.0033391763 0.027797516 0.016120926 -0.0030795012 -0.0029859282 -0.0012432671 0.0008136247 0.002815058
0.0017415403 -0.013158024 -0.0008867491 0.0043242145 0.0006526159 -0.00076869415 0.0098015005 0.00094955496
0.009032267 -0.015132499 -0.0016181397 -0.005242666 -0.0030187427 -0.004267425 0.006033937 0.0028358574
-0.00017395313 0.011898168 0.0062291664 -0.0058470555 -0.0016969698 -0.004981949 -0.00015772755 0.0029537294
-0.0036648072 0.007211397 4.9008562e-05 0.027756663 0.0013406437 0.0007450563 0.0037122304 0.0018803907
-0.0003279791 -0.0036351136 0.005368714 0.0048355875 0.0026880894 -0.0075723464 -0.0040230793 -0.00076526694
0.00632981 9.842279e-05 0.0005694663 -6.159131e-05 0.005202369 0.0007860243 -0.0069641783 -0.00027880745
0.007310432 0.0019149885 0.003657206 0.005243081 0.005787742 -0.0030385873 -0.0010060933 -0.001402871
-0.0059679393 0.00041714276 -0.00042670564 0.00084638945 -0.0007277476 -0.0029020987 0.0012604281 -0.0013129222
0.0023632653 0.00585592 0.0022032722 -0.00035355682 0.0015186522 0.0049334243 -0.005670074 -0.0022155836
0.0117978705 0.005558414 -0.0013666892 -0.0078005814 0.0009838261 -6.569897e-05 -0.0007278035 -0.0039532282
0.0040765097 -0.0010747367 -0.00043098137 -0.0071487506 0.0033135165 -0.00030464647 0.0028740847 -0.0019264972
-0.00045603694 -0.0100066 -0.008800767 0.000782566 -0.0003192821 -0.0014473274 0.0015928925 0.0026344522
0.0004021633 -0.00056535075 0.002999107 -0.0009334181 -0.000121348894 -0.0034360427 0.004450167 0.0072615403
00000000: f76f 173c 4c6c 973b 885f 253b bbdc 8eba
00000010: fd4d 08ba da66 bdba db57 7d3b 78ee 43bb
00000020: fdfd 31bc 71ef 85bb 6635 7238 5956 ed3b
00000030: fb77 1abb 3f42 8bba 3279 4e3a 742a 413b
00000040: 6b28 313b 9ece 1f3c ff41 e93a ce6a 06bc
00000050: 4f97 ae3b a5c9 b839 7464 5f3a ea1c e93b
00000060: 7a0f 95bb 25fa e13b 04da 3a3b 09f2 73bc
00000070: 04fb 403b b693 103b 4a51 2bbb 1542 a13b
00000080: a96d e03a 3a6f 403b 275a 423b eb34 663b
00000090: cdb7 0abb 35d1 c93b c0b8 4abc b7c0 2dbb
000000a0: 77ed 98bb 2d8d 97b9 2440 dfba db3b b3ba
000000b0: 8336 16bb 095e 3eba 03a2 333b adca e63b
000000c0: 6dc0 a13b 4afa 1d3b 23ed 4b3b 0e12 deb9
000000d0: 3620 a1bb 16a8 223c 56ea 9bb9 ab15 7dbb
000000e0: 3e3c dc3b 84d4 7db8 f3e8 0b3c 717f 93ba
000000f0: 52b7 b239 2006 0b3b 7e6a 33bb 4286 b63b
00000100: beb3 893b ce71 7ebb 5de6 46ba e719 7db7
00000110: b888 813b 0d8d d03b 2263 ddb9 b01d 1f3b
00000120: e12e 13b9 66cf fcba 09d5 94bb 8d37 173b
00000130: 7deb 62b9 29fc 1fbb fcbd a4bb 4455 dbba
00000140: aa06 eeba caf3 02bc f65d 0bbc 6aba 51bb
00000150: 759a 7fbb b80b afbb b6f4 b2b7 f32d 15bc
00000160: 2fa2 8a3b 5643 a038 0b04 3b3b 7f47 5cbb
00000170: 1125 ac3a edea 25ba f76d fa3a c80e 953a
00000180: 13a5 d4b9 5a90 203c 77d0 1b3b 4609 113c
00000190: 570b 543b a49e 88bb a563 7d3a 34a9 0abc
000001a0: 26f3 1a3b b823 e03a ca74 b5b9 00d5 623b
000001b0: c324 de39 723c 883c ae8d 4bb9 b39a bcb9
000001c0: de77 79bb f681 25bb d06b fe3a 89c2 8cbc
000001d0: 6dfc 8cbb dbf3 aabb 7887 3a3b 7b4d 18bb
000001e0: 12ef 94bb 7519 943b 3350 7dbb ed62 a63b
000001f0: a620 913b c8df 243b c100 a6bb f737 22ba
00000200: 141f a8ba f242 b03b e6a2 a13a 26b9 f639
00000210: dc3a 5d3a 5ba1 803b 6c48 86bb 5515 203b
00000220: dda3 013b 3c9f cb39 ddd2 2c3b dedc 023c
00000230: 90d2 bc3b c33d b43a b340 5ebb 6792 01ba
00000240: 15d6 5a3b 9eb7 e33c 0810 843c 75d1 49bb
00000250: 90af 43bb 1ff5 a2ba 6e49 553a d67c 383b
00000260: 6544 e43a c194 57bc ba74 68ba 24b2 8d3b
00000270: 5014 2b3a 3182 49ba 7996 203c 8eeb 783a
00000280: 13fc 133c 4dee 77bc c217 d4ba acca abbb
00000290: 19d6 45bb c1d5 8bbb 55b8 c53b cbd9 393b
000002a0: 3067 36b9 89f0 423c 091e cc3b a898 bfbb
000002b0: dc6c deba 9e3f a3bb ab63 25b9 5b93 413b
000002c0: 432d 70bb 954d ec3b 8b8e 4d38 f161 e33c
000002d0: 8ab8 af3a e24f 433a e448 733b 7177 f63a
000002e0: 9cf4 abb9 163b 6ebb 0aec af3b d973 9e3b
000002f0: a82a 303b 7221 f8bb 09d4 83bb 329c 48ba
00000300: 4b6a cf3b 5568 ce38 3d48 153a 952a 81b8
00000310: a278 aa3b 330d 4e3a c333 e4bb e72c 92b9
00000320: 598c ef3b 5a00 fb3a bcad 6f3b 27ce ab3b
00000330: 19a7 bd3b 0923 47bb e4de 83ba 8ae0 b7ba
00000340: b48e c3bb f4b3 da39 76b7 dfb9 3ce0 5d3a
00000350: 51c6 3eba 2331 3ebb f334 a53a 5c16 acba
00000360: 03e1 1a3b 04e3 bf3b c664 103b 985d b9b9
00000370: 830d c73a 90a8 a13b 07cc b9bb 5333 11bb
00000380: db4b 413c 5b23 b63b 7b22 b3ba 059c ffbb
00000390: baf3 803a dec7 89b8 11ca 3eba 158a 81bb
000003a0: 3e94 853b 2ede 8cba 57f5 e1b9 1140 eabb
000003b0: 9527 593b f5b8 9fb9 245b 3c3b 8582 fcba
000003c0: 3e18 efb9 b9f2 23bc 1831 10bc 1e25 4d3a
000003d0: 5165 a7b9 40b4 bdba 9ac8 d03a c6a6 2c3b
000003e0: 72d9 d239 0c34 14ba aa8c 443b a1b0 74ba
000003f0: b17c feb8 3b2f 61bb b5d2 913b 37f2 ed3b

weight f4 [256, 256]
0.1049699 -0.05268833 0.15586759 0.004970014 0.050829716 -0.036409345 -0.15250805 0.043038387
0.025704972 0.112120174 -0.0863043 0.05270957 0.025807284 -0.043328445 0.023430455 -0.06677979
-0.38060066 -0.34549925 0.16220425 0.044720415 0.14241067 -0.12523378 0.123132065 -0.1667742
-0.056948267 0.24271755 -0.08335416 0.16944769 -0.036683626 -0.122677654 -0.0048929346 0.050981637
0.003368883 -0.13253121 -0.057052568 -0.15906684 0.02196246 -0.20453084 0.07080268 0.04680216
0.060036715 -0.12719485 0.038627654 -0.2811995 -0.048018195 -0.03243529 -0.112423666 -0.03270097
0.013701387 -0.08258474 -0.24422558 -0.09205035 -0.3228002 0.010552384 0.10167486 -0.15643543
-0.12468542 -0.12047033 -0.018166317 -0.14425229 -0.01203048 -0.008029265 -0.03534833 -0.10014273
0.022135844 0.05835025 0.0052783485 0.14540184 -0.03024756 0.23997675 0.07375983 0.31623274
0.0768194 0.111487105 -0.01299326 0.0023641824 0.06682978 -0.20576699 0.16966985 0.25893283
-0.20178506 0.18136884 -0.1267077 -0.0800199 -0.055310525 -0.09097463 0.0353605 0.07442348
-0.009947946 -0.048545577 -0.049562685 -0.14569597 0.106567085 -0.09243894 -0.0141443405 0.1916314
-0.2557503 0.028969588 -0.08380535 -0.007880468 0.033960853 0.13156623 0.18224517 0.05984528
0.19980139 -0.27546966 0.191936 -0.06989814 -0.1660896 -0.029896347 -0.082556315 -0.052937277
-0.025071384 0.1374923 0.03348528 0.033465628 0.155357 -0.076131955 -0.050754283 -0.037414078
0.15161487 -0.08079295 -0.04454047 0.047258023 0.10334235 -0.20178299 -0.049101483 0.1185359
-0.014955994 0.27377674 -0.16706008 -0.10765268 0.31595597 0.20508514 -0.19160664 -0.11352088
-0.1333067 -0.18659903 0.17036636 0.029874874 0.050555114 -0.11946309 0.08931309 0.13785838
0.19840445 0.029369203 -0.1249877 -0.0140562365 -0.052344415 -0.00028410257 -0.023898872 0.10358898
0.07423307 0.0040241354 -0.28172112 -0.111370884 -0.015736626 -0.061404545 0.10533135 0.0758285
-0.16291071 -0.10765652 0.03925785 0.1372253 0.041708 -0.080854654 0.07950757 0.25319925
-0.082852624 0.07248439 0.21035013 -0.036359314 -0.12363482 -0.24122594 0.12519021 -0.1617557
0.07153962 -0.09920599 0.17799003 0.037841238 -0.029729357 0.18182003 0.1156033 0.24401596
0.099844724 -0.022151755 -0.04320134 0.1583609 0.08900745 0.20449543 -0.010318628 -0.15570472
-0.16258557 -0.10784182 -0.18366404 0.10595774 -0.117272854 -0.098514885 -0.010825489 -0.12069457
-0.023816137 0.117782824 -0.18040505 -0.023917928 -0.064985424 0.12780648 -0.24500537 -0.27834862
-0.022356844 -0.07211898 -0.2980122 -0.09856252 -0.008499743 0.09127994 0.047200035 0.14691158
0.16188732 -0.10468866 0.013547795 0.06600093 0.30868378 0.06191864 -0.07175731 0.12151322
0.19093059 0.21058916 -0.001249006 -0.017026009 -0.117647536 0.057866577 -0.03404404 -0.19594468
-0.13687834 0.008089319 0.00702821 0.1360167 0.06088039 -0.06173002 0.18776149 -0.123894416
-0.11054196 -0.022941852 -0.13089642 0.104720876 0.12712431 -0.101927824 -0.15958264 0.10401154
0.08308282 0.08176547 -0.039889336 -0.06369604 -0.048377432 -0.12141852 -0.096050166 -0.15836866
00000000: 75fa d63d b8cf 57bd c19b 1f3e 80db a23b
00000010: d232 503d f721 15bd 122b 1cbe 0549 303d
00000020: 3c93 d23c 439f e53d 4fc0 b0bd fde5 573d
00000030: cc69 d33c 2b79 31bd 3af1 bf3c d8c3 88bd
00000040: 17de c2be 47e5 b0be df18 263e c12c 373d
00000050: 1ad4 113e 493d 00be aa2c fc3d dbc6 2abe
00000060: 9642 69bd f38a 783e 96b5 aabd b283 2d3e
00000070: 9241 16bd 6c3e fbbd e954 a0bb 1fd2 503d
00000080: 7ac8 5c3b 43b6 07be f4af 69bd 6be2 22be
00000090: 9eea b33c 8870 51be ff00 913d 9fb3 3f3d
000000a0: 0fe9 753d 5e3f 02be 0838 1e3d 62f9 8fbe
000000b0: baae 44bd deda 04bd 613e e6bd 74f1 05bd
000000c0: c87b 603c 3022 a9bd 4516 7abe e584 bcbd
000000d0: 1146 a5be e8e3 2c3c e93a d03d 9c30 20be
000000e0: 125b ffbd 26b9 f6bd 87d1 94bc dfb6 13be
000000f0: 7e1b 45bc 2e8d 03bc 69c9 10bd a217 cdbd
00000100: 3b56 b53c ac00 6f3d fff5 ac3b 38e4 143e
00000110: bbc9 f7bc 77bc 753e 650f 973d 42e9 a13e
00000120: 7d53 9d3d 5a53 e43d afe1 54bc 66f0 1a3b
00000130: 0dde 883d 95b4 52be efbd 2d3e d892 843e
00000140: bea0 4ebe c1b8 393e aabf 01be 79e1 a3bd
00000150: 4a8d 62bd e850 babd 2cd6 103d 566b 983d
00000160: b6fc 22bc bad7 46bd 3e02 4bbd 5331 15be
00000170: d83f da3d a150 bdbd aabd 67bc 063b 443e
00000180: b4f1 82be a151 ed3c 24a2 abbd 141d 01bc
00000190: 891a 0b3d 4cb9 063e 7a9e 3a3e 5320 753d
000001a0: bc98 4c3e 5c0a 8dbe df8a 443e c226 8fbd
000001b0: 6413 2abe 2fe9 f4bc 4913 a9bd c2d4 58bd
000001c0: 8162 cdbc c8ca 0c3e dc27 093d 4113 093d
000001d0: e815 1f3e 12eb 9bbd b9e3 4fbd 813f 19bd
000001e0: ee40 1b3e c676 a5bd 1170 36bd a191 413d
000001f0: 27a5 d33d 33a0 4ebe a31e 49bd f3c2 f23d
00000200: fc09 75bc 772c 8c3e cc11 2bbe 0279 dcbd
00000210: fbc4 a13e d701 523e 8834 44be a37d e8bd
00000220: 8d81 08be d113 3fbe 8574 2e3e 27bc f43c
00000230: e112 4f3d 11a9 f4bd c8e9 b63d bf2a 0d3e
00000240: 892a 4b3e af97 f03c 8df9 ffbd 214c 66bc
00000250: 1967 56bd 9af3 94b9 91c7 c3bc 7626 d43d
00000260: 8207 983d e5dc 833b c03d 90be 6b16 e4bd
00000270: 19ea 80bc 5583 7bbd f6b7 d73d f94b 9b3d
00000280: 11d2 26be 067b dcbd d7cc 203d ca84 0c3e
00000290: 02d6 2a3d 2097 a5bd ddd4 a23d 55a3 813e
000002a0: a3ae a9bd b272 943d 0666 573e 81ed 14bd
000002b0: 4134 fdbd ef03 77be dd31 003e 49a3 25be
000002c0: 5d83 923d 832c cbbd 0543 363e 6aff 1a3d
000002d0: fb8a f3bc 082f 3a3e 6cc1 ec3d 52df 793e
000002e0: 647b cc3d 9977 b5bc e3f3 30bd 5c29 223e
000002f0: 8a49 b63d 4067 513e 760f 29bc 0f71 1fbe
00000300: d57c 26be 2cdc dcbd 6d12 3cbe 5f00 d93d
00000310: c02c f0bd 2cc2 c9bd 645d 31bc b72e f7bd
00000320: 0f1a c3bc 1f38 f13d 1abc 38be 88ef c3bc
00000330: 1417 85bd b4df 023e b0e2 7abe b683 8ebe
00000340: b325 b7bc 1eb3 93bd 0e95 98be 26db c9bd
00000350: 8242 0bbc faf0 ba3d d354 413d fd6f 163e
00000360: cac5 253e 0267 d6bd 92f7 5d3c 7f2b 873d
00000370: cd0b 9e3e 669e 7d3d 7ff5 92bd ecdb f83d
00000380: 4f83 433e afa4 573e b0b5 a3ba 217a 8bbc
00000390: 31f1 f0bd 8105 6d3d c371 0bbd b9a5 48be
000003a0: d629 0cbe 1089 043c e64c e63b f647 0b3e
000003b0: b75d 793d 9ed8 7cbd 8c44 403e 5bbc fdbd
000003c0: d363 e2bd 8df0 bbbc b609 06be e677 d63d
000003d0: e02c 023e 89bf d0bd a269 23be 0104 d53d
000003e0: 5327 aa3d a874 a73d 0063 23bd 1273 82bd
000003f0: 6a27 46bd 46aa f8bd f3b5 c4bd 652b 22be
